New folder/price_prediction_model.pth (torch, 115874 bytes, 11 tensors)

fc1.weight f4 [32, 8]
000000 a6 ca 32 bf ef a9 a5 bf e1 ff 65 bd f0 fb b6 bd
       -0.69840467 -1.2942485 -0.05615223 -0.08934772
000010 06 ef a5 bc a0 cd bb be 4d 78 6c 3d 9e 77 99 ba
       -0.020255577 -0.36680317 0.057731915 -0.0011708622
000020 83 c8 39 bf 5d 49 ad be 2c 00 98 bd 9e 94 b8 bf
       -0.7257158 -0.33845034 -0.07421908 -1.4420354
000030 d5 0a 76 bc 8b db 40 be d1 02 05 3c 2f b7 9b 3b
       -0.015017231 -0.18833749 0.008118347 0.004752062
000040 ea c8 5e be 36 de 13 3f f5 55 54 bf 32 91 92 be
       -0.2175633 0.5776094 -0.8294366 -0.286264
000050 cb e4 f1 3d c3 90 1d 3f 39 79 87 3e 67 4b c1 3b
       0.11811217 0.61549014 0.26459673 0.0058988812
000060 6f 74 d8 3f fa f8 4a 3f c1 15 33 bf fd 46 70 bc
       1.6910533 0.7928616 -0.6995507 -0.014665362
000070 0f 09 1f bb df 78 08 3f ea 26 18 3e 4d 6b 8e ba
       -0.0024266874 0.53309435 0.14858595 -0.0010865718
000080 3c 6c 1c 3f 02 7f 9b 3f 9c 3a 80 3e fc 53 df be
       0.6110265 1.2148135 0.25044715 -0.43618762
000090 ec 8f 1e bd b2 9a 9f 3d 40 b9 3c 3e 2f e8 81 bb
       -0.038711473 0.07793178 0.18430042 -0.003964446
0000a0 64 00 23 bf 3d 8e 5d 3e b0 84 90 be 29 e6 2e be
       -0.6367247 0.21636291 -0.28226233 -0.17079987
0000b0 b3 13 5a be e2 9d 8e 3e 71 fa 27 3b 55 b3 0a bd
       -0.21296577 0.2785483 0.0025631452 -0.03386243
0000c0 2d 63 0a bf 2b 73 eb 3e 43 b1 38 be 96 1b 08 bd
       -0.5405758 0.45986304 -0.1803637 -0.033229433
0000d0 d3 36 18 bd 00 54 9b 3e a8 94 52 be c8 6c 55 3c
       -0.03716166 0.30337524 -0.2056452 0.013026424
0000e0 a2 92 5d bf 94 c3 35 3e 92 42 a7 3c 8c 18 91 be
       -0.8655187 0.17750388 0.020417485 -0.2833904
0000f0 4c 65 05 3e 39 20 0f 3f 1c 1a e2 3d bf f7 6b 3c
       0.13026923 0.5590854 0.11040136 0.014402329
000100 bc 37 a6 be 08 b8 a1 bc 1b 32 ec 3d 40 35 b4 3d
       -0.32464397 -0.019741073 0.11532994 0.08799219
000110 0b 8c 3e 3b 86 48 87 3f 71 a3 31 bd b8 be 0f 3c
       0.0029075171 1.0569007 -0.04336876 0.008773498
000120 40 04 92 be 73 6f 83 3e 52 53 d2 be 9e e4 90 bc
       -0.28518867 0.25670967 -0.41079193 -0.017687138
000130 5f 37 5b 3f 3b 0f cb be 0c 75 1d 3e bc 73 8d bb
       0.85631365 -0.39660057 0.15376681 -0.004316775
000140 db f9 cf be 80 a8 84 3f 89 95 71 3e 1f 04 98 bf
       -0.40620312 1.0363922 0.235922 -1.1876258
000150 d0 25 e5 3b cb bb 22 3d 5e dc d5 bb 15 2d 49 3b
       0.006993033 0.039729875 -0.006526514 0.0030697037
000160 2d ff d6 bf a1 a0 a3 bd 90 77 73 be f4 41 04 3a
       -1.6796623 -0.07989622 -0.23776078 0.0005045228
000170 61 50 d8 bc 11 cd d5 bd ca 96 6b 3d 39 7c 88 3c
       -0.026405515 -0.10439504 0.05751685 0.016660796
000180 d3 8e ca ba f2 7e 26 3f 7f 1e 48 3f 53 c2 a8 3d
       -0.0015453942 0.65037453 0.78171533 0.082401894
000190 e3 d8 1e bc 29 80 30 bf e6 09 94 3d b3 66 99 b9
       -0.0096952645 -0.68945557 0.072284505 -0.0002925895
0001a0 81 b1 3e bf 1b 72 c9 be 4c 95 e3 be 0a 7d b3 3e
       -0.744896 -0.39344868 -0.44449842 0.35056335
0001b0 3b 90 d9 3c e0 73 8e 3f 76 91 12 bd 28 65 c0 3b
       0.026558032 1.1129112 -0.035783254 0.0058714338
0001c0 79 af 64 be ac 73 36 3e 80 b7 c2 be 63 cd 64 be
       -0.22332563 0.17817563 -0.38030624 -0.22343974
0001d0 5d 60 88 bc 9a d1 5b 3e 07 f4 52 3b 38 16 5e bb
       -0.016647512 0.21466675 0.0032188909 -0.0033887755
0001e0 5b 63 45 bf 71 a4 4e 3f 49 b9 d4 bd 2f 44 0b be
       -0.7710473 0.8071967 -0.10386903 -0.13600229
0001f0 d5 c1 8d bb 30 3c c3 bf fb c2 20 3e b6 39 91 39
       -0.004326085 -1.5252743 0.15699379 0.00027699553
000200 6f f7 e6 be 25 6c 9f 3e 57 10 47 bf 9b 95 3c 3d
       -0.45110652 0.31137195 -0.7775931 0.046041112
000210 71 79 02 bd dc c6 24 3b 45 b0 7e bd e1 69 c1 3b
       -0.031854097 0.0025142943 -0.062179822 0.0059025143
000220 55 71 9c bf db 38 4e bf 8e 94 e0 3e 38 5d bb 3d
       -1.2222086 -0.80555505 0.43863338 0.091486394
000230 98 7d 83 ba ca 6f 07 bf 46 33 0a bd 07 3d 8e bb
       -0.0010031937 -0.5290495 -0.033740304 -0.004340771
000240 6e 0c cb 3e 78 f9 03 3f 51 2c 2d 3e d6 0b 11 3e
       0.3965792 0.51552534 0.16911437 0.14164671
000250 7d d0 d8 be 40 b2 13 3f fe 91 4b bf 64 0c d7 3b
       -0.42346564 0.5769386 -0.7951964 0.0065627564
000260 c5 90 44 3e 5d f5 6f bd 3c a6 e0 3e db dd 70 3f
       0.1919585 -0.058583606 0.43876827 0.94088525
000270 6f 93 9c bd 6e 2d bc 3d 48 7d 15 3d ca 24 a3 3c
       -0.07645308 0.091883525 0.03649643 0.019915003
000280 ba c7 aa be ff 96 b1 3e 38 f7 29 bf dd fb 17 3f
       -0.33355504 0.34685513 -0.6639285 0.5936869
000290 10 3a 0f 3e b3 51 d0 bb 8a 13 37 bd 23 0c 4a 3b
       0.13986993 -0.0063573956 -0.04469637 0.0030829988
0002a0 6f 6c 22 bf 83 09 73 3f a8 a2 b4 be 84 8b 0b bf
       -0.63446707 0.9493639 -0.35280347 -0.5450976
0002b0 58 73 2e 3e 90 76 3a 3f e6 7a 29 bf 2d 3f 5b bb
       0.17036188 0.7283716 -0.66203153 -0.0033454404
0002c0 99 ae 6b bf 2e 3c cf 3e 32 de 65 3c 50 8c e9 be
       -0.9206329 0.404756 0.014030026 -0.45614862
0002d0 68 22 a9 bd 48 9d b3 3d e9 e4 13 3f 84 c7 5f 3a
       -0.082585156 0.087702334 0.57771164 0.0008536505
0002e0 13 70 7e bf 9a e3 14 3b b8 7b 86 3d bd 79 11 bf
       -0.9938976 0.002271867 0.06566566 -0.5682638
0002f0 ec 04 93 3e 5b 4b 67 3e 40 2b c3 3d ba 1a 0b bb
       0.28714693 0.2258734 0.09529734 -0.0021225647
000300 33 70 47 3f fd c1 1c 3e 94 42 88 3e 62 06 cb be
       0.7790558 0.15308376 0.26613295 -0.39653307
000310 ad c1 1a 3d 42 ac a2 3e 5e be d3 3b 09 70 0a bc
       0.03778236 0.31772047 0.0064619025 -0.008449563
000320 46 9a e1 3b 1a 84 1d 3e a5 c0 08 3d 4f b0 27 be
       0.006884846 0.15382424 0.033386845 -0.1637585
000330 63 7b 97 3d 7f 58 3d 3e 9f fb d2 3d 1b 4b 35 3f
       0.07396581 0.1849079 0.10301899 0.70817727
000340 7b c6 0e be b7 6a cd bb ac 78 64 3a 7e 11 eb bc
       -0.13942902 -0.006268825 0.0008715491 -0.028694864
000350 ae 43 2e bd c0 ed ad 3f 9f 2e b5 be 36 a4 72 3c
       -0.042545013 1.358818 -0.35387132 0.014809659
000360 76 0d 24 be 1b 74 fb be 2d 6d d2 be b8 da 60 bf
       -0.1602076 -0.4911202 -0.4109892 -0.8783374
000370 18 dd 84 bb 65 fd 84 3f 20 b8 70 3d 75 78 44 bc
       -0.0040546767 1.038983 0.058769345 -0.01199161
000380 2c bf bb 3d d3 b5 0c 3e e4 69 84 bf 5e db c1 3d
       0.091673225 0.13741235 -1.0344815 0.09465669
000390 f4 d7 b7 be 60 2f 08 3e d6 f5 6a 3f 65 b3 80 3b
       -0.35906947 0.13299322 0.91781366 0.0039276355
0003a0 96 36 95 bf 05 1a 22 3f c7 5b ef bf 58 67 96 bf
       -1.1657283 0.6332095 -1.8699883 -1.1750288
0003b0 ae df b8 3c 01 79 bd 3c b9 f0 c5 37 4f 83 47 bb
       0.022567596 0.023128988 2.3596325e-05 -0.0030443256
0003c0 1e 85 9e 3d 5d 09 b8 3f fc 1e 85 3f 13 30 13 3f
       0.07740234 1.4377857 1.0400081 0.5749523
0003d0 99 13 3e 3c 52 cd 8a be 31 83 06 3c e9 78 88 ba
       0.011601352 -0.27109772 0.008209989 -0.0010412011
0003e0 f4 22 8f be 43 ad 4f 3e e8 5e 93 bf aa 5e 49 3e
       -0.27956355 0.20280938 -1.1513338 0.19665018
0003f0 32 a6 f4 bc a4 6e a9 3f d9 88 14 bd 4d e6 db bb
       -0.029864404 1.323689 -0.03626332 -0.0067108036

fc1.bias f4 [32]
000000 89 f9 f4 3e 7b 05 06 3e 9b 30 91 bd a0 d6 d0 3e
       0.4784663 0.13088028 -0.07089349 0.40788746
000010 01 2d 10 3f 0e a3 59 3d 4f cf 8d 3d c5 75 51 3e
       0.5631867 0.053134017 0.069243066 0.20455082
000020 07 be ec 3e 07 7c b0 bd e2 ec eb 3e 5d f3 92 bf
       0.4623873 -0.08617406 0.46079165 -1.1480519
000030 05 ea 10 bf d7 16 45 be 73 cc 70 3e 24 ea 65 bf
       -0.56607085 -0.19246994 0.23515491 -0.89810395
000040 7f 5a 7d 3e 05 88 8e ba bf 55 a9 bf 27 15 1e 3e
       0.24741553 -0.0010874277 -1.3229293 0.15437756
000050 96 52 1a 3d 72 93 3e bf 1b d8 2a bf eb 79 2e bf
       0.037676416 -0.74443734 -0.66736 -0.6815478
000060 e4 92 10 3e bd 0b 34 bf 38 c2 bb bf 88 00 5c be
       0.14118534 -0.7033041 -1.4668646 -0.21484578
000070 3a 0b 53 be b7 6a d5 3e 8b a9 aa bf 2c 6a 55 bd
       -0.20609751 0.4168298 -1.333299 -0.052103207

fc2.weight f4 [256, 32]
000000 d9 6d 8e be dc 2d b5 be df bf f2 be e2 e3 90 c0
       -0.27818182 -0.3538655 -0.4741201 -4.5278177
000010 0f d8 0a bf 36 a1 e1 3e 78 65 31 3f d7 3b 05 3f
       -0.5423593 0.44068307 0.69295454 0.52044433
000020 5b 37 ad bd c9 53 8e 3d 0d 8c 0e 3e 7e f4 85 3f
       -0.08457824 0.069495745 0.13920613 1.0465238
000030 42 7a 3a 3f d5 61 a3 3d 60 7e 24 bd d2 d6 35 bf
       0.728428 0.07977644 -0.040159583 -0.71030915
000040 fb f9 cb bb 3a d3 74 be c8 b2 14 3c d8 ed 8e be
       -0.0062248684 -0.23908702 0.009075828 -0.27915835
000050 5e 48 02 be d2 37 0a 3e cf c9 58 3e 2e 4d c0 3e
       -0.12722918 0.13497856 0.21170734 0.37558883
000060 c0 3f ac bf 7c 90 1b bf 1f 85 8f 3e 3b 4f 5c 3d
       -1.3456955 -0.6076734 0.2803125 0.053786498
000070 1b a9 bb be df fd 3d bf 0c e2 14 bf 86 3a ab 3e
       -0.36652455 -0.742155 -0.5815742 0.33443087
000080 39 2d 03 c0 59 f5 9e bf d2 bc 06 3e 3c 2d 99 bf
       -2.0496352 -1.2418624 0.13157967 -1.196693
000090 33 a7 19 3f bf be 81 3d 10 08 5b 3c 55 fb f0 3d
       0.6002075 0.0633521 0.0133686215 0.11766688
0000a0 34 f0 b5 3e 6d b0 97 3e 2c 65 c3 3e 8e 93 13 bf
       0.35534823 0.2962679 0.38163126 -0.57647026
0000b0 29 65 34 c0 e3 72 5e 3d 69 11 f7 3d e9 dd 29 be
       -2.8186743 0.054308783 0.120638676 -0.16588558
0000c0 10 7e 55 bd 93 3a 63 bf bc ca 57 bd 70 32 1f 3e
       -0.052122176 -0.8876125 -0.052683577 0.15546584
0000d0 14 17 84 bd 9b 63 98 be f0 1e 9f bd e8 d1 ef be
       -0.06449714 -0.29763493 -0.07769573 -0.46839833
0000e0 db 74 6f 3d 6d 98 be 3c 7b bb 87 3e c1 76 17 bf
       0.05846105 0.023266042 0.26510224 -0.5916558
0000f0 1d e2 96 3e 9c 8f 0b c0 56 6d 15 c0 10 9c 6d 3e
       0.29469386 -2.1806402 -2.3347983 0.23204064
000100 ed df 01 bf cb 8c 93 bf e2 f7 ca be 1e 7e 2f bf
       -0.5073231 -1.1527342 -0.39642245 -0.68551815
000110 0c 58 b7 be bc e4 8c be b5 2a 79 3c 35 8f fc bd
       -0.35809362 -0.2751826 0.015207936 -0.12332002
000120 0e e5 09 3f bf 8c be 3d eb 8f bd be ed dd 7f 3f
       0.53865135 0.09304189 -0.37023863 0.99948007
000130 d6 7b 80 bc a3 18 53 bd 51 6b 05 3e 8a 63 04 3e
       -0.01568405 -0.051537167 0.13029219 0.12928596
000140 ad dc 0d 3f 5c 5c 87 3e bc 66 71 3e 97 be 15 3e
       0.5541485 0.26437652 0.23574346 0.14623486
000150 ef c6 50 3f 88 30 af be 3d 73 ce 3a ee b9 8b bd
       0.8155355 -0.34216714 0.0015750896 -0.06822573
000160 58 06 cf 3e 4a a4 06 bf c0 62 8b be 3b 74 7f bf
       0.40434527 -0.52594435 -0.27223778 -0.9978673
000170 3c 42 44 be d8 55 24 c0 ed 97 ca bd 67 26 09 3d
       -0.19165891 -2.5677395 -0.09892259 0.03348389
000180 f9 47 6b be 64 eb 98 bd 30 ba cc bc b0 d0 5e c0
       -0.22976674 -0.07466772 -0.024991125 -3.4814873
000190 fa d8 30 be cb 69 93 bb cb 8c 0b 3e 34 b7 20 3e
       -0.1727027 -0.0044986955 0.13627927 0.15694886
0001a0 13 db 55 3d 04 3c 57 bd 0f 49 32 bf dd 78 8d 3f
       0.05221088 -0.05254747 -0.6964273 1.105251
0001b0 25 fc 7f 3e 57 33 05 be 45 f3 af bc 9e aa 21 be
       0.2499853 -0.13007866 -0.021478305 -0.15787742
0001c0 a1 b6 1c 3e d3 47 d4 bd 4e 89 70 be f8 12 2a bf
       0.15304042 -0.10365262 -0.23489878 -0.66435194
0001d0 e3 5a 48 3e e4 15 28 3f 24 6b be 3a 85 7f 07 3f
       0.1956592 0.656584 0.001452778 0.52928954
0001e0 b7 bf 95 be 99 58 b2 3f 94 09 08 3f a3 4b 98 3d
       -0.2924783 1.3933288 0.53139615 0.074363016
0001f0 7c 68 2e bd 0e f7 36 bf 18 35 d3 3d 2d a4 bb 3d
       -0.042580113 -0.71470726 0.10312861 0.091621734
000200 7f 6b d6 bf 1c d1 8f bf af 6b 75 3e 8f 52 95 bf
       -1.6751555 -1.123569 0.2396686 -1.166582
000210 5c 0d 13 3f a2 3a c1 3d 52 9a 33 bd 71 54 03 3e
       0.5744226 0.094350114 -0.043848343 0.1282518
000220 ff 01 02 3e 98 b0 28 3e 65 d2 53 3e e7 5e 03 bf
       0.12696074 0.16473615 0.20685728 -0.51316684
000230 56 f2 10 c0 d3 e1 fe 3d 8f 85 17 bc 31 a8 24 bd
       -2.264791 0.12445416 -0.009248151 -0.040199462
000240 db b1 37 be 91 e9 5d bf 0b 7a c5 3d b7 59 50 3e
       -0.1793894 -0.8668452 0.096424185 0.20346723
000250 36 6e 08 bd 5f e3 70 be 7f a8 38 3e 51 ed 95 be
       -0.03330823 -0.23524235 0.18033026 -0.2928262
000260 32 9b 80 3e 4e 2b b2 3c 17 06 bb 3e ca 3b c7 be
       0.25118405 0.021749165 0.36528084 -0.38912803
000270 e6 a8 2f 3e 50 b6 ca bf a8 b7 01 c0 50 18 5d 3e
       0.17154273 -1.5836887 -2.0268345 0.21591306
000280 4f e2 a3 bf e2 7c 00 bd e0 52 4c 3e 06 df 4f bf
       -1.2803439 -0.031369098 0.1995349 -0.8119968
000290 c5 d2 21 3f 29 6e a5 3e 4e ff df 3d 6c 51 4c 3e
       0.63212234 0.32310608 0.109373674 0.19952935
0002a0 12 50 46 3e 5f e1 b2 3d 76 dc 09 3f 81 ee 66 bf
       0.19366482 0.087343924 0.5385202 -0.9020768
0002b0 35 3f 5a c0 b7 0a f0 bd 0f 03 35 3e f1 ba bd 3d
       -3.4101079 -0.11720794 0.17676948 0.09264172
0002c0 e6 a3 5a be 6e 89 17 be ea f2 79 bd 32 5f 08 be
       -0.21351585 -0.14798519 -0.061022677 -0.13317564
0002d0 87 d6 11 bf 86 35 2f 3d 36 32 0e be 19 30 27 bf
       -0.5696797 0.042775653 -0.13886341 -0.65307766
0002e0 2d 2e 95 bc e1 4b fb bc db 1d b7 3e 76 c2 8e bd
       -0.018210495 -0.03067583 0.35764965 -0.06970684
0002f0 e1 7b a6 be 1c 21 83 c0 0f d6 52 bf a3 50 c9 be
       -0.32516387 -4.0977917 -0.8235788 -0.39319333
000300 2b f2 ae bf 20 df 8a bf 8a 20 8a bf 10 1d f3 bd
       -1.3667654 -1.0849342 -1.079118 -0.118707776
000310 8e b6 1c 3d 7e 02 e0 3e e5 84 86 3d b5 42 a6 3e
       0.038260035 0.437519 0.06568316 0.32472768
000320 29 56 40 3e 34 12 09 c0 97 58 86 be 1d f7 96 3e
       0.18782867 -2.141736 -0.26239464 0.29485407
000330 48 c0 19 be d2 ac 62 3e 80 54 de be 6a 79 a2 be
       -0.15014756 0.22136238 -0.43423843 -0.31733257
000340 4a a8 00 3f 32 ce 9a bf 8e b8 19 3f c1 c6 e2 bb
       0.5025679 -1.2094176 0.60047233 -0.006920666
000350 d2 f1 bd 3d d6 96 56 3f 4f b2 81 bf 59 53 40 bf
       0.09274639 0.8382391 -1.013254 -0.7512718
000360 84 59 96 3e 67 ab b4 3c 16 e0 77 3f 0d da ae 3d
       0.2936517 0.022054387 0.96826303 0.08537684
000370 b6 96 59 bf 0d 14 a3 bf b0 9e 11 be d8 1b 92 3e
       -0.8499559 -1.2740494 -0.1422069 0.28536868
000380 de c9 25 be 9a c3 f5 bd a3 89 ad 3d ac 8d 62 c0
       -0.16190287 -0.12000199 0.08473518 -3.539897
000390 2a c9 51 bf 17 31 d5 3e 6a a5 4c 3e b3 fe 3b 3e
       -0.81947577 0.41639015 0.19984975 0.18358879
0003a0 0f 08 53 3e 7e d3 32 bf 43 44 e3 bd 17 94 a1 3f
       0.20608543 -0.6985396 -0.11097004 1.2623318
0003b0 6b d5 be 3e ac d7 97 be 11 ca a4 3d f6 1e d3 3e
       0.372722 -0.29656732 0.080463536 0.4123456
0003c0 87 eb 7e 3e dd 89 b1 3e c9 7f 3d bf f2 06 56 bf
       0.24894534 0.34675494 -0.7402311 -0.8360435
0003d0 df 10 82 3e 99 fb 3d bf 29 6a 39 bd ed c6 ab be
       0.25403497 -0.7421203 -0.045267258 -0.33550206
0003e0 90 07 b2 be e5 15 10 be 19 37 c3 3e 51 33 48 be
       -0.34771395 -0.14070852 0.38127974 -0.19550826
0003f0 83 7d 8e be 3d 42 01 bf cb d7 a0 be b9 46 73 3c
       -0.27830133 -0.50491697 -0.31414637 0.014848405

fc2.bias f4 [256]
000000 f2 e3 97 bd 80 a0 db 3e 8d 99 ca 3e ea 7c a1 be
       -0.07416524 0.4289589 0.39570275 -0.31540614
000010 b2 a7 bd 3e db 89 38 3e 42 58 0f 3e 35 5d 7b 3e
       0.37042004 0.18021338 0.13998511 0.24547274
000020 81 3a 72 3e 61 ae 09 3e 49 f2 e7 3e f7 eb 1e 3e
       0.2365513 0.13445427 0.45302036 0.15519701
000030 3f c9 88 3e 02 69 ab bd 5d 40 c3 3e ed ce 27 3f
       0.2671604 -0.08369638 0.38135043 0.6555012
000040 b0 ea cc 3e 69 b9 a4 bf 0e 01 5a be e1 2e 2c be
       0.40022802 -1.2869083 -0.21289465 -0.16814758
000050 a8 4f 86 3e ea 76 32 be a2 39 cd 3e 10 04 fc 3d
       0.26232648 -0.17428175 0.40083033 0.12305462
000060 83 3d 57 3f cc 15 b4 3e 76 53 9d 3e 4e ea a7 3e
       0.84078234 0.3517288 0.30727738 0.32795948
000070 73 f6 ee 3c d6 ed 60 3e fc be 9d 3c e0 52 93 3d
       0.02917025 0.21965727 0.019256108 0.071935415
000080 72 90 a9 3e 29 1a 9d be 29 9a 04 3f eb 7e 58 bf
       0.33118016 -0.3068402 0.5179773 -0.8456866
000090 59 ff a8 3e 02 68 2a 3f bf 6b fd 3e 3b 3a 15 bf
       0.33007315 0.66564953 0.49496266 -0.5829198
0000a0 3f 4c 03 3f a8 bf 94 3e c9 10 84 bd 79 93 2f bf
       0.5128822 0.29052472 -0.06448514 -0.685844
0000b0 a1 01 55 3f 17 07 a8 3e 95 75 c5 3e de 37 15 be
       0.8320561 0.3281791 0.3856627 -0.14572093
0000c0 58 f7 43 be ec 15 80 3c 8c 5c 71 bf cc da 0f 3f
       -0.19137323 0.015635453 -0.9428184 0.5619323
0000d0 bb ac 98 bd 84 33 36 bf f2 70 76 3e d5 28 00 3f
       -0.07454821 -0.71172357 0.24066523 0.50062305
0000e0 b7 90 f5 be 72 ab 0c bf ef 2b 31 be fd b5 5e 3e
       -0.4796197 -0.54949105 -0.17301916 0.2174911
0000f0 07 34 00 3f 8e bc 8d be 71 79 d4 3e e4 dd b6 3e
       0.5007939 -0.27682918 0.41498902 0.35716164
000100 97 2c 59 3f ed af c8 3e b7 20 86 3e a8 27 4d 3f
       0.84833664 0.3919672 0.26196834 0.80138636
000110 ad 92 9a be 0b 1e 87 3d da b2 05 3e f8 cd e7 3e
       -0.3019003 0.06597527 0.13056508 0.4527433
000120 de f1 1d 3e 8c 0f 09 bf 21 bb 28 3f 6c 26 e6 3e
       0.15424296 -0.5353935 0.65910536 0.4495119
000130 2e fb b8 3e 3f 70 12 bc 06 fa d9 3e 29 20 e7 3d
       0.36129135 -0.008937894 0.42573565 0.11285431
000140 cc f7 f6 3e a1 5d a0 3e 15 84 c9 be 85 d5 c2 3e
       0.4823593 0.31321433 -0.39358583 0.38053527
000150 e0 1c 4b 3f 64 ad f9 3e b6 f9 ed 3e 99 20 ce 3e
       0.79340935 0.487651 0.46479577 0.40259245
000160 9a cc d4 3e 9f a7 fd 3e 0e a0 62 be 58 50 ea bd
       0.4156235 0.49541947 -0.22131369 -0.114411056
000170 c2 6e 5a bd 5f 9c 0e 3f f7 89 6d be 2e 8c a9 3e
       -0.053328283 0.55707353 -0.2319716 0.3311476
000180 98 1c cc 3e 38 2a cd 3e 2f f3 97 be 08 2a 73 3e
       0.39865565 0.40071273 -0.29677722 0.23746502
000190 1f 7f 41 bf 9d 8a 86 3e f8 2a e7 3e 62 e5 9c bc
       -0.75584596 0.2627763 0.4514997 -0.019152347
0001a0 0d 10 a2 3e ca ba 88 be 28 f9 e5 be 97 9a b1 3e
       0.3165287 -0.2670501 -0.44916654 0.34688255
0001b0 a4 11 20 3e c5 7a 34 bf 97 8b 93 3c 60 8a 2f 3e
       0.1563173 -0.7049983 0.018010898 0.1714263
0001c0 30 b6 84 3e 26 73 0f 3f 39 17 85 3f b4 6d 7c bf
       0.25920248 0.5603508 1.0397712 -0.98604894
0001d0 5f 2d 74 bf 43 91 b9 bd 34 a3 93 bd 96 36 39 3e
       -0.9538173 -0.090609096 -0.07208863 0.18087229
0001e0 aa d5 cb 3e 04 12 c1 3e 01 41 37 3d 8f 92 88 be
       0.3981145 0.37709057 0.044739727 -0.26674315
0001f0 52 5c ef bc 31 a8 21 3f 0f b7 04 3d 43 86 79 bf
       -0.029218826 0.63147265 0.03240114 -0.9747049
000200 f2 c7 9f bc 18 89 0d bf c8 b7 eb 3e c0 59 01 be
       -0.019504521 -0.55287313 0.4603865 -0.12631893
000210 eb 7a 8a 3e 42 f2 6b 3d 53 cc 9f 3c 67 63 37 3d
       0.27046904 0.057604082 0.019506609 0.04477253
000220 98 14 9c bc 7a 6a da 3d f9 57 1e bf 1d ec 95 3e
       -0.019052789 0.1066484 -0.61852986 0.29281703
000230 f1 b3 a6 3e 12 7f 70 3e 89 41 91 3e 1e f4 b0 3e
       0.3255916 0.23485973 0.28370312 0.34561247
000240 cd 0a 9a 3e 69 c4 6b 3d 6b dd 1d 3f 9e b8 e7 3e
       0.30086365 0.05756036 0.6166598 0.4525804
000250 a0 0a 73 3e 43 0d 0b 3e 84 85 38 bc cd a7 0a 3f
       0.23734522 0.13579278 -0.011262301 0.54162294
000260 50 95 91 be 93 73 cb 3e a2 c6 8d 3d 9f d4 69 3e
       -0.2843423 0.39736614 0.06922652 0.22835015
000270 a4 7b 1a 3e 36 cf 72 bd e6 a1 0a 3e c2 63 06 bf
       0.15086228 -0.059279643 0.13538322 -0.5249597
000280 5a 3d a6 3e 31 83 d6 bd 7d 98 d5 3e bc 5a 30 3d
       0.32468683 -0.104742415 0.41717902 0.04305528
000290 e4 8f 9d be de 32 e5 3e 61 ee c7 bd 29 bf c5 3e
       -0.30773842 0.4476537 -0.09762264 0.38622406
0002a0 d5 13 04 3e fc c3 68 3f 00 a0 b3 be fc ed 8f 3e
       0.1289819 0.9092405 -0.35083008 0.28111255
0002b0 c0 fd 5a 3f 1f 04 c2 3e 72 2f e7 3e 6d 81 a9 be
       0.8554344 0.3789377 0.45153385 -0.33106557
0002c0 6e 87 d2 3e 82 5e 0a 3f a1 da fb 3e ca a6 cf 3d
       0.4111895 0.5405046 0.49190238 0.10139234
0002d0 99 32 15 3e 1a e7 25 be 2f e6 9b 3e d6 de c2 bc
       0.14570083 -0.1620144 0.30449054 -0.023787897
0002e0 ac b2 a9 3e 27 46 77 3e 2d d1 92 3f a9 02 56 bf
       0.33144128 0.24147855 1.1470085 -0.8359781
0002f0 4a c2 1d bf 3c 3e ff 3d 53 93 32 bf b0 8b 22 3f
       -0.61624587 0.12463042 -0.6975605 0.63494396
000300 b9 71 06 be 86 c3 a4 3e 08 4e 1d 3f 7e 1b 0c 3f
       -0.13129319 0.32180423 0.6144719 0.5472945
000310 c3 fd 24 bf 3d 64 45 bf 2e 70 59 bf e8 a1 10 bf
       -0.6444971 -0.77106076 -0.849368 -0.5649705
000320 04 52 87 3f b3 4f 9b 3e b0 3d 2d be 04 e6 90 be
       1.0571904 0.30334243 -0.16918063 -0.28300488
000330 07 db 03 3f 6d 38 07 3f 55 af e0 be 94 b8 13 3f
       0.51506084 0.52820474 -0.43883768 0.5770352
000340 14 9b 3b 3e 57 ce a5 3e 9b fe f2 3e bc 54 e1 3e
       0.18320876 0.32383987 0.47459874 0.4400996
000350 10 89 db 3e 23 d3 27 3f 76 11 b8 3e 28 86 cf bd
       0.42878008 0.65556544 0.35950822 -0.1013301
000360 05 67 a1 be 9b 75 f5 3e 25 80 8f 3e 58 5b df be
       -0.3152391 0.47941288 0.28027454 -0.43624377
000370 85 8f 33 3e fb 1b 9e 3e cf 5e b2 3e 95 00 77 bf
       0.17535217 0.30880722 0.34837958 -0.96485263
000380 cd 98 03 3f 38 7d 7d 3e 5a f8 08 bf c4 a6 73 bf
       0.5140503 0.24754798 -0.53503954 -0.9517634
000390 ce 3a da 3e 04 77 94 3e 97 8e b6 bd f7 91 a2 be
       0.4262299 0.28997052 -0.089139156 -0.31751987
0003a0 b5 d7 e8 3e 0e 55 a4 bd d0 ee 81 bd a5 00 ca be
       0.4547707 -0.080240354 -0.06344378 -0.39453617
0003b0 38 ad d3 3e e5 da 8e 3e 29 3e 01 3f 29 0b 6e bf
       0.41343093 0.27901378 0.50485474 -0.9298578
0003c0 04 e5 5c 3f 06 a5 04 bd de ce 22 bf 4e c1 13 3f
       0.8628695 -0.03238394 -0.63596904 0.57716835
0003d0 6e 1a f1 bd 45 9f 06 3f cd 25 41 bf bd 31 dc bd
       -0.11772619 0.52586776 -0.75448304 -0.10751674
0003e0 e8 25 8f be 2e 26 2b 3d ad 71 cf 3d 87 95 38 bf
       -0.27958608 0.041784458 0.10129104 -0.7210316
0003f0 52 56 be 3e e1 da d5 3e bd 32 83 3e da cd 8f be
       0.37175232 0.41768554 0.25624648 -0.2808674

fc3.weight f4 [64, 256]
000000 eb 6b 25 3e dc ab 17 3f 00 99 03 3e 94 47 e1 bd
       0.16154449 0.5924661 0.12851334 -0.109999806
000010 de c0 e4 3e 9e 63 19 3e e0 c3 01 3f df ff e7 bd
       0.44678396 0.14979407 0.50689507 -0.113281004
000020 ee 71 ce 3d c1 e9 4c 3c a8 1f 9e 3e 5e c8 d8 3e
       0.10080324 0.012506903 0.30883527 0.42340368
000030 4f ef cb 3e 8b e1 d6 bf e6 10 fb 3e 6f f9 ca bd
       0.39831015 -1.678758 0.4903633 -0.09910857
000040 0e 45 3d 3e d4 e2 aa 3f 11 fd 1d 3f ab 65 3e be
       0.18483374 1.3350472 0.61714274 -0.18593471
000050 8b 78 23 3e 62 bf 96 3e bf 9d 86 3f 14 93 81 3e
       0.15963952 0.29442888 1.051689 0.25307524
000060 be f3 95 3f 59 16 12 3f e2 bd 31 3e 0a e3 5e 3f
       1.1715009 0.5706535 0.17357591 0.87065184
000070 47 0b 0c 3d 80 61 15 be d8 ca d3 3c ef c7 93 3e
       0.034190442 -0.14587975 0.02585356 0.28863475
000080 7d 4a ac 3e 89 04 84 be 99 29 30 3f c0 f6 3f bd
       0.3365058 -0.2578471 0.68813473 -0.04686618
000090 f5 05 12 3f 23 64 51 3f 46 b5 8e 3f a8 11 63 3e
       0.5704034 0.8179342 1.114907 0.22174704
0000a0 e2 2b 7e 3f ee d5 d5 3f 1b 3c 4c 3f a8 60 b2 be
       0.9928571 1.6705911 0.79779214 -0.34839368
0000b0 00 97 d4 3f 5a 43 18 3e 11 54 f9 bd 61 67 b1 3f
       1.6608582 0.14869443 -0.121742375 1.3859674
0000c0 f0 2d 7a 3d 4a 59 7e 3e be 74 bf 3e 8a 9c 11 3f
       0.061078966 0.24838749 0.37393755 0.56879485
0000d0 3d 51 96 3e d4 47 92 3e 60 46 9b be 0d 1c ed bd
       0.29358855 0.28570426 -0.3032713 -0.11577616
0000e0 8d fd 4e 3e 54 d4 b6 3d b7 fe 57 3e 66 05 34 3f
       0.2021391 0.08927217 0.2109326 0.7032074
0000f0 69 53 22 3f f7 42 9b bf 6b 86 4f 3f 52 4f ae 3f
       0.63408524 -1.2129811 0.8106448 1.3617957
000100 8e 43 2f 3f e8 4a 02 3f 7f 61 6c bc a3 9c 40 3f
       0.68462455 0.5089555 -0.014427542 0.7523901
000110 cf 46 f4 3c e3 b9 50 be 7c 97 c5 3f 77 6b 20 3f
       0.02981892 -0.2038341 1.5436854 0.6266398
000120 dc 6e 08 3e 26 5e 37 be 20 ad 46 40 b4 f8 cd 3f
       0.1332354 -0.17907009 3.1043167 1.6091523
000130 36 66 45 3e 68 d3 da 3e 0f 9e f8 3d 77 95 96 3d
       0.19277272 0.42739415 0.12139522 0.07352727
000140 40 f0 16 3f 3f b0 0c 3e 58 d9 a3 3e 2c 3c ef 3e
       0.5896034 0.13739108 0.32001758 0.46725595
000150 38 5e 53 3e 4a 06 c8 3e 96 d1 b5 3d bf 04 f5 3d
       0.2064141 0.39067298 0.08877866 0.11963796
000160 52 ed 26 3e 17 42 0b 3f 8d fb 83 3f be 3a 2c bd
       0.16301468 0.5439772 1.0311142 -0.04204821
000170 40 2c d4 3e d6 28 63 3e 2f d1 fd 3e ae 50 e1 3f
       0.4144001 0.22183546 0.49573657 1.7602746
000180 67 ef 66 3e bc 1a 8d 3e 04 95 1a bd c2 6b e3 3e
       0.22552262 0.2755946 -0.03773977 0.4441815
000190 9e 5e 88 3f e8 cc 34 3f b8 3e d6 3e 03 66 11 3f
       1.0653875 0.7062516 0.41844726 0.5679628
0001a0 1f e9 4e 3e d2 3a 2e 3f 0e 60 82 3f 96 fb 01 3f
       0.20206116 0.680585 1.0185564 0.50774515
0001b0 b4 1f 4a bf d9 27 e1 bd b9 45 40 bc b8 78 1c 40
       -0.78954625 -0.109939285 -0.011735373 2.444868
0001c0 66 5b 8d 3e 07 4e bf 3e 23 f9 68 3f 82 fd 8c 3b
       0.27608794 0.37364218 0.9100515 0.0043026814
0001d0 ff 03 dd 3c a4 aa 2e 3e bd dc 34 3e c5 24 2a 3d
       0.026979445 0.17057282 0.1766233 0.041538972
0001e0 93 2c 59 3f 1d d4 12 3e 42 b1 e7 3d 28 97 83 3f
       0.8483364 0.14338727 0.11313106 1.0280504
0001f0 27 18 08 3d 71 42 40 3f c3 1d d1 3e 0d 65 e3 bf
       0.03322616 0.7510138 0.4084302 -1.7765213
000200 a2 11 f6 3e 6d cb e9 3e e8 c0 0f 3f d6 3e 8e be
       0.48060328 0.45663014 0.56153727 -0.27782315
000210 1c d6 74 be e3 05 9e 3e 40 c7 91 bd cb 4b 6c be
       -0.23909801 0.30863866 -0.07118082 -0.23075788
000220 0d fc 1e 3f 59 ae 13 40 e2 99 a1 bf 93 38 af bd
       0.6210335 2.3075163 -1.2625086 -0.085557126
000230 04 d4 02 3f 5f 69 c8 3e 67 ef 9f bf 9c bd 87 bf
       0.5110476 0.39142892 -1.2494935 -1.0604739
000240 79 09 22 3d d1 52 16 3f 33 67 e6 be 40 d8 31 3f
       0.039559815 0.5872012 -0.4500061 0.69470596
000250 a9 79 d8 3e 72 b1 85 3e 89 82 90 bf d5 7c 33 3f
       0.4228032 0.26111943 -1.1289836 0.70112354
000260 50 0b d9 be 2f 74 b3 3f a0 73 83 3e a4 bb 0b be
       -0.42391443 1.4019831 0.25674152 -0.13645798
000270 6a d3 f8 3e 18 6b 90 be 46 ba 52 3c 4f 27 eb 3e
       0.48598796 -0.28206706 0.012861794 0.45928428
000280 c2 33 3f 40 22 6f 47 bf 0d 3d 78 3e 22 6c e8 bd
       2.987534 -0.7790395 0.24242039 -0.1134875
000290 f6 c3 81 3f b7 6b d9 3e b3 9a ba 3e 55 b1 03 c0
       1.0137928 0.42464992 0.3644615 -2.0576985
0002a0 68 13 89 3c 90 c5 e7 3f 04 ad c8 bd b0 85 86 3d
       0.016732886 1.8107166 -0.09798625 0.065684676
0002b0 4a 85 0d 3f bf 57 65 be 40 b4 cc bc 77 d1 f9 3e
       0.5528151 -0.22396754 -0.024988294 0.48792621
0002c0 2d 69 29 3e 39 44 e2 3e 8b e2 5f 3f 8f 5b 89 3f
       0.16544028 0.44192675 0.8745505 1.0731066
0002d0 99 fb d0 3e f5 02 f1 3f 22 d6 8f 3e 9c a8 97 3f
       0.40816954 1.8829027 0.28093058 1.184833
0002e0 e4 81 eb 3e 1a 92 42 3e 4a dd 7c 3f 83 ac 0a bf
       0.45997536 0.19001046 0.9877516 -0.5416948
0002f0 d1 ab 61 bd 40 3f cd 3f 73 16 d8 3e 2d aa c6 bd
       -0.055095498 1.6034927 0.42204627 -0.09700427
000300 eb 35 35 3f 69 17 08 bd c7 72 87 3f 70 56 8f 3e
       0.707854 -0.03322545 1.0581902 0.27995634
000310 20 98 0c c0 c1 dc d4 3e 15 56 14 3f b2 68 c9 bb
       -2.196785 0.41574672 0.5794385 -0.006146514
000320 70 9f 23 3f be 3f e3 3f 51 ad 70 3f f2 f4 59 bc
       0.6391516 1.7753828 0.9401446 -0.013303028
000330 23 04 ee 3e da 2c 17 3f 96 71 ce 3e c2 b4 63 3f
       0.4648753 0.59052813 0.40321034 0.8894769
000340 98 da c6 3e 4c 52 d2 3c ab 22 9d bf 35 e8 89 3f
       0.3883865 0.025674008 -1.2276205 1.0773989
000350 4c fa 69 bf 2d d3 8e be 3a 78 0f 3f 47 08 1a be
       -0.9139755 -0.2789549 0.56042826 -0.1504222
000360 9d d1 d4 3e b2 f3 6f 3f 74 5d cb 3e 48 6b ed 3d
       0.41566172 0.93731225 0.39719737 0.11592728
000370 db 77 5b 40 17 6a 84 3e 60 85 39 3f 5e 78 9c 3e
       3.4291904 0.2586219 0.7246914 0.30560583
000380 71 61 fb 3e c7 31 7a 3d cf 2f de 3e 1c 67 c1 be
       0.4909778 0.061082628 0.4339585 -0.3777398
000390 87 1f 24 3f 6a c6 db 3d 1a e7 df 3e cd 4d bd 3d
       0.64110607 0.10731204 0.43731004 0.09243355
0003a0 b7 85 25 3f 30 3c 13 40 db 95 c2 bb 28 cd fc 3e
       0.6465716 2.3005486 -0.0059382743 0.49375272
0003b0 fd 97 21 3f 74 55 b1 bc 4b 56 a7 3e 01 6d 14 bf
       0.6312254 -0.021647193 0.32683024 -0.57978827
0003c0 80 82 62 3f 1a 58 02 3e fb bf 67 3f 80 e1 fc 3e
       0.8848038 0.1272892 0.90527314 0.49390793
0003d0 67 3e 1b 3f a7 aa 58 3f ee 9a a2 bf 38 ba a4 3e
       0.60642093 0.84635395 -1.2703531 0.32173324
0003e0 1a 3d 90 3f 73 9d 9b 3e 42 83 b0 3d ee ea 92 bd
       1.1268647 0.30393562 0.086187854 -0.071737155
0003f0 a2 39 12 3f 8b bb db 3f 3a a8 bd bd 2d 5e 3a 3e
       0.5711919 1.7166609 -0.09260602 0.18199988

fc3.bias f4 [64]
000000 d0 56 90 3b e8 db 8f bd df 17 21 bd 6f c5 a7 be
       0.00440488 -0.07024366 -0.039329406 -0.32767817
000010 8c 9b 81 bf 1d 21 1c bf db a6 1b bd 0c 33 ae bd
       -1.0125594 -0.60988027 -0.038000923 -0.0850583
000020 f9 ae 8c bd 64 3c b1 be 04 75 01 3f 9c 1f 02 3f
       -0.06869311 -0.34616387 0.50569177 0.5082948
000030 4e 4f d6 3e 56 7e 1e 3e 7a ee 7d 3c 24 13 39 bc
       0.4185738 0.15477881 0.015498752 -0.011296067
000040 bf 79 b2 bd c2 f1 75 3d b2 b4 e6 bd 01 b7 53 3e
       -0.087146275 0.06004501 -0.11264934 0.20675279
000050 5a 41 4c be ba 40 e8 bd e5 db 99 be 22 c9 03 be
       -0.19946805 -0.113404706 -0.3005058 -0.12869695
000060 cd e7 05 be 86 d2 6e bd e3 c2 8a bd 69 e8 d3 be
       -0.13076706 -0.05830624 -0.06775453 -0.41388252
000070 99 60 c2 3e f7 d2 87 bf 14 f0 d6 bd 03 03 43 3f
       0.37964323 -1.0611256 -0.1049501 0.7617647
000080 11 97 c2 bd 12 7b 19 3e 75 e8 89 3f cf 29 c5 bd
       -0.0950147 0.14988354 1.0774065 -0.09627115
000090 3a ba 8c be c7 02 94 3f 4a 4c d1 bd 70 19 3a bf
       -0.2748583 1.1563348 -0.10219629 -0.72695065
0000a0 6b ac 13 3f 83 6e 80 bf bb 20 d6 be 3b ea fa be
       0.57684964 -1.0033726 -0.41821846 -0.4900683
0000b0 10 43 b1 3e 38 e3 9d bd a7 f7 aa be ca 19 6d bf
       0.34621477 -0.07709354 -0.3339207 -0.92617476
0000c0 a6 bf 9a be b3 86 01 bf 39 d5 ce bd 30 33 92 be
       -0.3022434 -0.5059616 -0.10099263 -0.28554678
0000d0 b0 81 ed be 21 ba a9 be 94 a7 97 3f 26 00 c0 3d
       -0.46388006 -0.33149818 1.1848016 0.09375028
0000e0 72 24 0e bf 85 2c a4 3f ce f7 07 3f ab 3d af bd
       -0.5552436 1.2826086 0.53112495 -0.08556684
0000f0 ae 30 16 3f 76 e1 41 3e 9b 8d 96 bc 14 8e 1f be
       0.5866803 0.18933663 -0.01837807 -0.15581542

fc4.weight f4 [32, 64]
000000 16 62 ce 3e 3e b2 d1 3c 59 9d ee 3d df 8e ca 3e
       0.4030921 0.025597688 0.116511054 0.39562127
000010 47 eb 81 3e 55 f3 ab 3e a9 38 e0 3d fe d2 ab 3d
       0.25374815 0.33584085 0.10948307 0.08389853
000020 e9 29 3c 3e 89 c9 43 3e 69 98 26 40 64 76 91 3e
       0.18375362 0.19119848 2.6030524 0.28410637
000030 7e de aa c0 b0 db 78 c0 9e b4 4b bd 04 dc 9e 3e
       -5.3396597 -3.8884087 -0.049732797 0.31027234
000040 da 2f 54 3e ec 85 33 be a4 1d a4 bd 84 98 d8 3e
       0.20721379 -0.17531556 -0.08013466 0.4230386
000050 ec c4 9c 3e e9 93 47 bc 68 15 8f 3e 61 40 bb bd
       0.3061899 -0.012181261 0.2794602 -0.09143139
000060 be 3d 4a bf 40 65 8c bd 36 10 2d 3d 5e a5 ba 3e
       -0.7900046 -0.068552494 0.042251788 0.3645429
000070 32 d4 b0 3e 99 bb 74 3e 7d bd 14 bd 00 16 a3 3f
       0.34536892 0.23899688 -0.036313523 1.2741089
000080 a0 89 26 bc b7 27 0f bf 3b 22 62 40 60 bd 5a 3d
       -0.010164648 -0.55919975 3.5333393 0.05340326
000090 f0 9d b6 3e d7 d0 6b bf 7a b2 8b b9 8c 6c ae 3e
       0.35667372 -0.9211554 -0.0002664512 0.3406719
0000a0 5a af 71 3e cb 99 d5 3e ee 67 85 3e dd c8 79 3e
       0.23602048 0.41718897 0.26055855 0.2439303
0000b0 39 2e a8 3e b0 29 70 bd f2 55 66 3e ea 42 97 3e
       0.32847765 -0.058633506 0.22493723 0.2954324
0000c0 ad fc ae 3e 29 6d 3d 3e 6f 4c 29 be c1 a8 ae 3e
       0.3417715 0.18498673 -0.16533063 0.34113124
0000d0 46 c1 a8 c0 b3 77 4d 3e c7 87 1c 40 de d7 b0 3e
       -5.273593 0.20065193 2.4457872 0.34539694
0000e0 96 f8 36 3f 07 48 33 40 bb 78 28 40 4f e6 6b bc
       0.7147306 2.8012712 2.6323688 -0.014398172
0000f0 12 df 38 c0 94 7f a1 3e bd 3d cf 3d 70 50 b2 3e
       -2.8886151 0.31542647 0.101191975 0.34826994
000100 f3 47 bb 3e f5 24 1d be 69 a0 e8 3d 67 3d ad 3e
       0.3657833 -0.15346129 0.11358721 0.3383591
000110 de 8e ac 3e 64 47 9c 3e 55 bd ae 3d cb 33 14 bd
       0.3370275 0.30523217 0.08532206 -0.036182206
000120 37 ca 97 3e 19 37 8d 3e 21 df 26 40 d2 15 a7 3e
       0.29646465 0.275811 2.6073687 0.32633835
000130 54 7f b0 c0 09 d3 7a c0 f2 69 1f bd 3a 42 94 3e
       -5.515543 -3.9191306 -0.038919397 0.28956777
000140 e0 a9 37 3e bb 3f 16 3c 2e dc 47 bd 90 cc d9 3e
       0.17935896 0.009170468 -0.048793964 0.4253888
000150 65 ed 5f 3e e5 66 a0 3d 69 ad e8 3e d4 94 84 3d
       0.21867903 0.078321256 0.454448 0.06473699
000160 d5 92 32 bf 47 f0 42 3d a3 cf d9 bd 8b 97 80 3e
       -0.697553 0.047592428 -0.10635307 0.25115618
000170 4a 8a ce 3e 2d fd bd 3e 85 a2 a1 3c cb e7 b0 3f
       0.4033988 0.3710722 0.019730816 1.3820738
000180 a0 c5 c8 bd 0f c3 34 bf 14 cf 5d 40 d0 94 a2 3b
       -0.09803319 -0.70610136 3.465764 0.0049615875
000190 27 fb b2 3e 3d a1 54 bf 4f a9 89 3d b6 89 cf 3e
       0.3495724 -0.8305853 0.06721746 0.40534753
0001a0 73 e6 89 3e f9 bd 6d 3e 3b 1b d3 3e db 5c 28 3e
       0.2693363 0.23217 0.41231713 0.16441672
0001b0 2d e0 db 3e e2 54 82 3d e7 34 a6 3e 2a da b8 3e
       0.4294447 0.06363846 0.32462236 0.36103946
0001c0 16 aa d2 3e f6 85 d3 3e c7 85 25 be 99 ac df 3e
       0.4114539 0.41313142 -0.16164313 0.4368637
0001d0 0f db a7 c0 d4 25 d1 3e 9d 0c 19 40 9e de e4 3e
       -5.2454906 0.40849173 2.3913949 0.44701093
0001e0 d2 49 60 3f 10 62 42 40 46 ce 29 40 f9 5d e0 3d
       0.8761264 3.0372353 2.653215 0.10955424
0001f0 b5 40 3f c0 1a d0 a1 3e de da fe 3d 23 48 9f 3e
       -2.9883244 0.3160408 0.12444089 0.31109723
000200 62 ab a5 3e 37 90 7c 3c d2 66 09 3e 00 0a 79 3e
       0.32357317 0.015415243 0.13418129 0.24320221
000210 65 55 de 3e c3 6a 5f 3e 7b 61 77 bb 2e f2 d6 3d
       0.43424526 0.2181807 -0.0037747312 0.10495411
000220 4a 1c 56 3e 07 99 c2 3e bb 95 2c 40 98 d9 d2 3e
       0.20909229 0.38007376 2.6966388 0.41181636
000230 55 8a ac c0 da e0 7a c0 74 1c 10 be 88 c8 cc 3e
       -5.391886 -3.9199739 -0.14073354 0.39996743
000240 d8 d7 69 3e c0 29 eb bd f9 85 76 bd cf 84 aa 3e
       0.22836244 -0.114825726 -0.06018636 0.3330445
000250 20 06 df 3e 77 c7 94 bd ef 79 de 3e 98 61 5e bd
       0.4355936 -0.072646074 0.43452403 -0.05429229
000260 f2 a4 56 bf af eb 66 bd db 13 0a 3d b6 cc 8c 3e
       -0.83845437 -0.05637711 0.033710342 0.27499932
000270 90 19 ae 3e f6 a3 b5 3e 91 4e 84 bc 09 23 a0 3f
       0.34003878 0.35476655 -0.016150745 1.2510692
000280 99 4f 8e 3c 99 12 1c bf c6 2b 6a 40 0f 34 16 bd
       0.01737194 -0.6096588 3.6589217 -0.03667074
000290 4f 90 98 3e 31 39 80 bf ac 9f ef 3d fc 81 bc 3e
       0.297976 -1.0017453 0.11700377 0.3681792
0002a0 9f 80 60 3e 5c 77 34 3e 8c f2 72 3e 1e f8 bb 3e
       0.21924065 0.17623657 0.23725337 0.36712736
0002b0 13 57 79 3e 70 d5 29 bd b3 a5 aa 3e 84 81 a2 3e
       0.24349622 -0.041463315 0.33329543 0.31739438
0002c0 fd c0 ab 3e 69 48 4e 3e 24 72 d0 bd a7 d0 d6 3e
       0.33545676 0.2014481 -0.101780206 0.41956064
0002d0 eb 81 aa c0 5d 99 a0 3e 00 b0 12 40 9d 01 86 3e
       -5.328359 0.31367007 2.2919922 0.26173106
0002e0 4a 6e 36 3f ed ed 32 40 7d 12 1c 40 f6 59 34 3e
       0.7126204 2.7957718 2.4386284 0.17612442
0002f0 ff c4 3b c0 32 f9 5e 3e ec e2 33 bd 21 17 82 3e
       -2.9338987 0.21774748 -0.04391758 0.2540827
000300 1a 28 b6 3e ac 1f 87 3d 0a cb d8 3d 99 ed b6 3e
       0.3557747 0.06597838 0.10585602 0.35728148
000310 47 87 d0 3e eb 1d af 3e cb 7c 5c 3c e9 5e 4e 3d
       0.40728208 0.34202513 0.013457487 0.050383482
000320 64 35 6c 3e fd 5d b4 3e 93 b9 21 40 99 80 4b 3e
       0.23067242 0.35227957 2.5269516 0.19873275
000330 ec 37 af c0 37 dc 7b c0 a3 14 3e 3d e6 da a6 3e
       -5.4755764 -3.9353158 0.0464064 0.3258888
000340 f7 00 33 3e 8f 54 d5 bd 64 1d 52 bd d2 81 c4 3e
       0.17480837 -0.10416519 -0.05129756 0.38380295
000350 67 21 72 3e b6 d6 86 3d b6 57 b1 3e 44 c6 61 3c
       0.23645554 0.065839216 0.3463723 0.01378018
000360 02 27 3b bf f5 42 36 bd ab cf 36 3d 95 85 b5 3e
       -0.73106396 -0.04449745 0.04463164 0.35453478
000370 6d 2e bd 3e 30 62 5e 3e ec bc fa 3d c9 77 a5 3f
       0.36949483 0.21717143 0.12243065 1.292718
000380 52 9f f6 3d 96 0d 07 bf a6 56 63 40 10 17 0d be
       0.12042107 -0.52755105 3.5521636 -0.13778329
000390 db 6f ac 3e ab a4 79 bf 95 a0 db 3d dd 3a c4 3e
       0.3367909 -0.9751689 0.10723988 0.3832616
0003a0 bf 08 91 3e ad 3a b4 3e 33 3b 93 3e 9b 41 8b 3e
       0.28326985 0.35201016 0.28756103 0.2719849
0003b0 e9 64 56 3e 8b d1 62 bd 79 e7 a6 3e be 7f 81 3e
       0.20936932 -0.055375617 0.32598475 0.25292772
0003c0 ac 7f bc 3e 80 9f c1 3e 91 1d 24 be 8c 84 dc 3e
       0.36816156 0.37817 -0.16026904 0.43069875
0003d0 e0 91 ac c0 4b cd a8 3e bd f6 15 40 d9 3a 32 3e
       -5.392807 0.32969126 2.3431847 0.17405261
0003e0 2f f2 55 3f 43 0d 34 40 e2 b2 23 40 ab 9d c0 3d
       0.8357267 2.8133094 2.5577931 0.09405073
0003f0 3a 03 36 c0 bd ad 4a 3e d3 29 5a bd 27 11 bd 3e
       -2.843947 0.19792838 -0.053262543 0.3692715

fc4.bias f4 [32]
000000 f3 80 9d bd 71 fe 4a bb 02 7b 42 bd cd 1f 40 be
       -0.07690611 -0.0030974413 -0.04748059 -0.18762131
000010 05 e1 ae bd 13 d7 ce bd 85 e7 f0 bc 36 54 62 be
       -0.08539013 -0.10099616 -0.029407272 -0.22102436
000020 21 80 32 be 17 e0 96 be 11 8c 19 3e ca a3 29 3e
       -0.1743169 -0.29467842 0.14994837 0.16566387
000030 ba 97 8e bc c2 1c d3 bd b6 29 b4 be bc cc 96 3d
       -0.017406333 -0.103082195 -0.35188073 0.07363269
000040 5b 97 d3 3e 9b 3e b0 3e f6 5b 6a 40 f8 e8 ef 3d
       0.41326413 0.34422764 3.6618629 0.11714357
000050 e9 ef 0a 3d 48 2a 7a bc a7 62 e8 3d e9 ee 2b be
       0.033920202 -0.01526887 0.113469414 -0.16790356
000060 42 1c 5e 40 47 60 82 bd a1 3d 4f 40 08 71 74 bd
       3.4704747 -0.0636602 3.2381365 -0.059678108
000070 96 24 24 3f b1 05 fc 3d 15 6e c1 3c 0c 90 8c bd
       0.64118326 0.12305773 0.023612062 -0.06863412

fc5.weight f4 [16, 32]
000000 29 ae 3a bf 6a 92 ea bf 75 35 a4 3e 5f 4e 01 3f
       -0.72922 -1.8325932 0.32072034 0.5051021
000010 93 cf 93 bd a0 6b ea 3c 0c 25 1a bd 6e e2 57 bd
       -0.07217326 0.028615773 -0.037632987 -0.052706175
000020 08 d7 2b bd f5 08 27 3f dd cf 2b c0 ee b9 f2 bf
       -0.041953117 0.6524804 -2.684562 -1.8962991
000030 4a 60 ea 3d 80 a3 19 bb 56 f2 c7 3e 02 19 2f bf
       0.11444147 -0.00234434 0.39052075 -0.68397534
000040 d5 67 51 c0 5a 73 28 c0 25 03 4e 3f 7a 2e 0c be
       -3.2719624 -2.6320405 0.8047355 -0.13689604
000050 a7 f7 65 be d1 8a 94 be b2 4e b9 bf 8b a8 86 3e
       -0.22457753 -0.2901216 -1.4477141 0.26300463
000060 76 51 8c 3f d0 4a 57 bc 19 da 7e 3f 83 bf 3a 3f
       1.096236 -0.013140395 0.9955154 0.72948474
000070 ec bc 62 c0 cf cc df bf b3 3b 2e be 1b b8 0f 3e
       -3.5427809 -1.7484378 -0.17014961 0.14035074
000080 cd 39 eb 3e 7d bd 12 3f a0 f4 35 3f 33 19 38 3f
       0.45942536 0.57320386 0.71076393 0.7191345
000090 ab 79 29 b9 14 1d 2d be 6d f6 34 bc 13 7c a0 3d
       -0.00016162421 -0.16905624 -0.011045081 0.07836165
0000a0 f1 14 d6 bc 1b 7f a5 3f 14 3c 20 3f 97 1a 02 3f
       -0.026133033 1.2929415 0.6259167 0.5082182
0000b0 12 12 43 bd 49 38 ed bb 3c 34 59 3f 45 f5 fc 3e
       -0.047624655 -0.0072393757 0.8484533 0.49405876
0000c0 1b 0a 16 3f 8e 51 41 3f 55 a8 81 40 3d 8e 01 40
       0.5860917 0.7551507 4.0517983 2.0243065
0000d0 53 c0 2e 3f 14 1d de 3e dc 27 37 3f ff 52 43 3f
       0.68262213 0.4338156 0.71545196 0.76298517
0000e0 ff 33 7e 40 9c f8 2d 3d ee 5a 4c 40 22 2b 35 3f
       3.9719236 0.04247342 3.19305 0.7076894
0000f0 87 d9 f0 3e 8a 8f 0c 3f c4 02 2f 3f d4 9e 22 be
       0.4704096 0.54906523 0.68363595 -0.158809
000100 c4 0a 3a 3f b2 eb 0b 3f ac 6c d4 3e 34 79 3a 3f
       0.7267268 0.5465652 0.4148916 0.7284119
000110 f3 ee 2b be 4d ed 03 be 0c 00 bb bd 5f 42 9e bc
       -0.1679037 -0.12883492 -0.09130868 -0.019318758
000120 21 62 f5 3d ae 7e 81 3f 78 99 e6 3e a3 07 3e 3f
       0.11981607 1.0116785 0.45038962 0.742304
000130 dd 99 a8 3d d1 89 2d 3d 03 92 81 3f ff 8c 27 3f
       0.08232472 0.04236776 1.0122684 0.6544952
000140 e5 d7 f6 3e de e1 36 3f c3 b1 82 40 c8 29 0b 40
       0.4821159 0.71438396 4.0841994 2.1744251
000150 f7 e0 f7 3e cc 20 3e 3f de 0e 23 3f 2b 6e 38 3f
       0.48413822 0.74268794 0.6369456 0.720431
000160 8c d5 7a 40 0d 0c 1d 3c da 87 4b 40 95 89 0a 3f
       3.9192839 0.009585393 3.1801667 0.54116184
000170 75 cf 03 3f 99 0f 2e 3f b2 66 43 3f 4f d0 ad bd
       0.5148843 0.6799255 0.76328576 -0.08486997
000180 7f 4d f8 bd 6a a4 02 be f2 3d 8c bd 3a f4 db 3d
       -0.12124156 -0.12758031 -0.06847753 0.10739942
000190 5a c6 1c 3e b8 22 b2 bc 8b 1b ce bd 00 6d 8c 3d
       0.1531004 -0.02174507 -0.10063847 0.068567276
0001a0 3a 22 a1 3d 1c 5e 36 be c5 09 a6 bf db 8c fc bf
       0.07867856 -0.17809337 -1.2971731 -1.9730486
0001b0 39 8e 09 3e 9a 6f 45 3d d6 80 a5 be a7 c0 18 bc
       0.1343316 0.048202135 -0.32324857 -0.009323276
0001c0 d8 e4 31 be cb 37 0e bf 1f e4 45 c0 fd 79 78 3e
       -0.17372453 -0.55553883 -3.0920484 0.24265285
0001d0 a6 ec 85 bf 9a 85 6e bf 49 b6 1e c0 a6 ee 6e be
       -1.0462844 -0.9317261 -2.4798758 -0.23333225
0001e0 e1 60 4c c0 5c ed 20 3e a5 79 11 bf 17 8d c4 bf
       -3.193413 0.15715545 -0.5682624 -1.5355557
0001f0 cd 4d 8d bf b0 f6 01 c0 b7 5b c8 bf 15 3a d5 3d
       -1.1039368 -2.0306816 -1.5652989 0.10411469
000200 7f 95 0e 3f 7b f6 f7 3e 8e 14 22 3f 93 f4 15 3f
       0.5569686 0.48430237 0.63312614 0.58576316
000210 5d 85 4d bc c2 c7 86 bd bc ac 3e 3d 4f 73 9d bd
       -0.012544003 -0.065810695 0.04655145 -0.07688009
000220 a7 0c ad 3d 07 06 99 3f bb c4 1a 3f 78 e1 32 3f
       0.08449679 1.1954964 0.60456437 0.6987529
000230 bf 92 04 be 66 0a a5 3d 8b a8 81 3f bb a4 0e 3f
       -0.12946604 0.08058624 1.012956 0.5572011
000240 d1 f1 44 3f 44 2b 04 3f 70 da 7f 40 b8 98 fc 3f
       0.7693148 0.5162852 3.9977074 1.9734106
000250 37 97 2e 3f af d3 2f 3f 03 9b 13 3f b4 59 0c 3f
       0.68199486 0.6868238 0.57658404 0.54824376
000260 6d 06 85 40 63 6f 82 3d 71 63 4f 40 74 20 31 3f
       4.1570344 0.063689016 3.2404444 0.69190145
000270 13 f2 30 3f b6 ed 0e 3f df 1a 19 3f bd f4 d7 3d
       0.69119376 0.5583147 0.5980663 0.10544727
000280 aa ff 15 3f c3 2e 04 3f ea 0a 45 3f 39 40 e4 3e
       0.5859324 0.5163385 0.7696978 0.44580248
000290 b7 49 1c 3e bf bd 02 3e 92 47 8e bd a6 6a 4b bd
       0.15262495 0.12767695 -0.06947245 -0.049662255
0002a0 0a b5 2c 3e 3d d5 8b 3f b7 a8 d8 3e bd 8d e1 3e
       0.16865936 1.092445 0.4231622 0.4405345
0002b0 97 81 09 be 9f 1b b6 3d 65 9d 84 3f 4a 0d 44 3f
       -0.13428341 0.08891987 1.0360533 0.7658278
0002c0 61 a8 e4 3e 0d 4c 13 3f a4 38 82 40 27 4f 0b 40
       0.44659713 0.5753792 4.069414 2.176706
0002d0 b3 a2 1d 3f 0f 28 47 3f 7a 0a 18 3f 10 56 07 3f
       0.61576384 0.777955 0.59390986 0.52865696
0002e0 eb c8 86 40 e8 95 04 be 03 89 4e 40 34 c5 03 3f
       4.212026 -0.1294781 3.2271125 0.51472783
0002f0 a6 44 27 3f b4 5c 3b 3f 74 b8 05 3f de 31 34 bd
       0.65339124 0.7318833 0.5223458 -0.04399287
000300 10 0c 8e bf 9d 14 0c c0 77 2e fd bd 5c 3a c8 3d
       -1.1097431 -2.1887581 -0.12362378 0.09776756
000310 f0 b5 11 3e 97 86 1f 3e bc 6b 33 3d 20 95 2f be
       0.1422956 0.15578686 0.043803915 -0.1714673
000320 70 fb 10 3c 03 e7 c6 3f a3 87 3f c0 7b 02 0c c0
       0.00884901 1.5539249 -2.9926536 -2.1876514
000330 ac ca d3 bd af e3 1b be d2 64 98 3f 68 39 7e bf
       -0.10341391 -0.15223573 1.1905768 -0.99306345
000340 79 a9 62 c0 90 a8 22 c0 3f 2f 5b 3f f0 bf 7e 3e
       -3.5415938 -2.5415382 0.85618967 0.24877906
000350 48 d9 7e bf e7 c2 ee be b1 96 12 c0 7b c1 22 bf
       -0.99550295 -0.46633074 -2.2904475 -0.6357648
000360 96 3b 85 3f 50 35 f8 bc c4 41 02 3f 81 8f 91 3e
       1.0408809 -0.030298859 0.508816 0.28429797
000370 92 55 81 c0 71 c3 02 c0 73 5b 0e bf f0 88 49 bd
       -4.0416956 -2.0431788 -0.5560829 -0.04920286
000380 7d be 2a 3f 67 5c 43 3f f6 2f 02 3f a8 3b fd 3e
       0.6669691 0.7631287 0.5085443 0.49459577
000390 c2 f6 05 3e 93 ad a4 3d d8 16 bd 3c 8d 4e 22 bd
       0.13082412 0.08040919 0.023082182 -0.039625693
0003a0 41 01 19 3e e1 68 9a 3f f7 00 23 3f 24 2c 3c 3f
       0.14941885 1.2063257 0.6367335 0.73504853
0003b0 33 a4 e0 3d 91 c6 ad 3c be 14 7f 3f 7c 59 15 3f
       0.109688185 0.021212848 0.99641025 0.5833967
0003c0 b5 dc 3a 3f 93 4a 0f 3f 49 90 7d 40 27 7f 0d 40
       0.7299302 0.55973166 3.9619315 2.2108858
0003d0 5d 79 45 3f 4c 9f 22 3f e9 c0 33 3f 82 c7 15 3f
       0.7713831 0.6352432 0.7021623 0.5850755
0003e0 c0 87 83 40 37 59 75 3d 88 24 5e 40 8e 90 f5 3e
       4.110321 0.059899535 3.4709797 0.4796185
0003f0 b4 7e 22 3f 33 d5 3b 3f c7 9b 06 3f 1f 08 dd bd
       0.63474584 0.7337219 0.5258145 -0.107925646

fc5.bias f4 [16]
000000 0b 37 fd 3d 62 7f 42 3e 64 6d 33 be 0f 7d 91 40
       0.12364014 0.18993905 -0.17522198 4.546516
000010 15 cb 4d 3e 40 af 1f 3e e5 44 25 3e 1d b4 4f bc
       0.20097001 0.15594196 0.16139562 -0.01267722
000020 d4 fe 08 3e 3b 6a 59 bf 4d ec 24 3e 6f 70 0e 3e
       0.13378459 -0.8492772 0.16105767 0.13910078
000030 d3 49 1a bf 77 e9 4d 40 5b 30 ce 3d 14 e5 22 be
       -0.60268897 3.2173746 0.10067817 -0.15907699

output.weight f4 [1, 16]
000000 1b 70 58 c0 74 c5 47 3f 97 86 5a 3f 0e 34 a7 40
       -3.3818424 0.78035665 0.8536162 5.2251043
000010 0f 26 54 3f 66 31 41 3f 71 98 1b c0 ee d2 4b 3f
       0.8287057 0.75466 -2.4311793 0.7961873
000020 ed 0b 50 3f a5 ef 74 c0 1e de 33 3f fb 7d 3d 3f
       0.812682 -3.8271267 0.702608 0.74020356
000030 f8 0f 6c c0 72 39 45 40 61 10 59 3f 2c 27 49 3c
       -3.6884747 3.0816312 0.8479062 0.012277406
