New folder/price_prediction_model15.pth (torch, 216662 bytes, 17 tensors)

fc1.weight f4 [16, 8]
0.07327284 1.7380675 0.59739 -1.054747 -0.004474659 0.007214801 0.034835886 0.007973065
0.25733134 0.26392415 0.12558118 -0.2961521 -0.00859796 0.40590286 -0.06732 -0.0024833884
-1.6530364 0.11724776 0.7253234 0.18413325 -0.039218597 -0.7991299 -0.14799397 0.0010513599
-0.87163854 -0.0043258504 -0.03841027 0.0053209225 0.0013834689 0.9826149 -0.007919216 -0.022568129
-0.4879744 0.38044074 -0.06707481 -0.40091076 0.18764387 0.06958844 0.46867013 -0.029967047
-0.7649905 -0.0044076964 -1.2851316 -1.5072126 0.04653973 0.2847138 -0.006044384 0.029396463
1.0369377 -0.331351 -0.5009974 -0.6233414 0.029481707 -0.17103294 0.017515417 -0.0005056736
0.87262124 0.5261852 0.2749956 0.98260224 0.018179288 -0.6246544 0.20767978 0.00802914
0.8008731 0.49475244 0.1775348 0.14415239 -0.09469697 -0.30125216 -0.971743 -0.001077429
-0.6882318 0.29132062 -0.26524648 -0.04848432 -0.11221198 0.2741358 -0.054834675 0.0035953964
0.9309133 -0.3684918 0.16733737 0.66207 -0.03745226 0.8011332 -0.20003699 -0.008178345
1.1472753 1.6103098 -0.58323604 -0.08585353 -0.008707331 0.6806918 -0.017947374 0.00014468472
-1.118225 -0.5473169 -0.5677762 -0.07338177 0.0036214215 -0.7312397 0.09251964 0.0010754988
-0.40841922 -0.09740434 0.2655344 -0.56673974 -0.3704014 0.4481566 0.85669523 0.025365189
-0.52347094 -0.91902786 -0.0682799 0.85738283 0.0050213384 -0.014512531 0.022080872 0.007272436
-0.40697333 -0.62496686 1.3760691 -1.7432117 -0.013358565 -0.045741912 -0.21623354 -0.003001923
00000000: 1210 963d ff78 de3f 8dee 183f f301 87bf
00000010: 29a0 92bb 236a ec3b 13b0 0e3d 75a1 023c
00000020: efc0 833e 1121 873e 5a98 003e 40a1 97be
00000030: 75de 0cbc 80d2 cf3e 11df 89bd 58c0 22bb
00000040: b296 d3bf 981f f03d cbae 393f 6d8d 3c3e
00000050: aea3 20bd c793 4cbf bb8b 17be c9cd 893a
00000060: b423 5fbf ddbf 8dbb 1654 1dbd 225b ae3b
00000070: 8355 b53a a68c 7b3f 99bf 01bc cce0 b8bc
00000080: c8d7 f9be 21c9 c23e 855e 89bd 2d44 cdbe
00000090: b725 403e 6284 8e3d 88f5 ef3e 747d f5bc
000000a0: 6bd6 43bf 706e 90bb 317f a4bf 58ec c0bf
000000b0: 72a0 3e3d 02c6 913e f80f c6bb dad0 f03c
000000c0: 60ba 843f d7a6 a9be 5e41 00bf 4d93 1fbf
000000d0: 9f83 f13c 4223 2fbe 7e7c 8f3c 2e8f 04ba
000000e0: 1b64 5f3f 13b4 063f 39cc 8c3e d28b 7b3f
000000f0: bbec 943c 5ae9 1fbf 02aa 543e a78c 033c
00000100: 0506 4d3f 3150 fd3e afcb 353e af9c 133e
00000110: 7cf0 c1bd b93d 9abe 26c4 78bf 8538 8dba
00000120: f62f 30bf fa27 953e 63ce 87be 7f97 46bd
00000130: 65cf e5bd 875b 8c3e 539a 60bd bea0 6b3b
00000140: 5650 6e3f f5aa bcbe 7d5a 2b3e 6b7d 293f
00000150: 8a67 19bd 1117 4d3f 7fd6 4cbe 77fe 05bc
00000160: ebd9 923f a21e ce3f f54e 15bf fad3 afbd
00000170: 31a9 0ebc d141 2e3f 5f06 93bc 82b6 1739
00000180: ff21 8fbf f61c 0cbf c859 11bf 2e49 96bd
00000190: 5f55 6d3b 8632 3bbf f07a bd3d c0f7 8c3a
000001a0: 531c d1be ed7b c7bd 20f4 873e db15 11bf
000001b0: 41a5 bdbe c874 e53e 6150 5b3f a8ca cf3c
000001c0: 3102 06bf 6945 6bbf 55d6 8bbd 717d 5b3f
000001d0: 0a8a a43b f8c5 6dbc f2e2 b43c 9d4d ee3b
000001e0: cf5e d0be d4fd 1fbf 0823 b03f 9021 dfbf
000001f0: e2dd 5abc df5b 3bbd 536c 5dbe e9bb 44bb

fc1.bias f4 [16]
-0.29116362 0.4228025 -0.80446905 0.16092697 0.10589122 0.6141284 1.1931202 0.2171602
-0.6558932 0.036515787 -0.18302684 -0.29017743 -0.78777796 -0.118729964 -0.023555627 -0.049534388
00000000: 6613 95be 9279 d83e aff1 4dbf 0aca 243e
00000010: 7fdd d83d 8537 1d3f 2ab8 983f 3e5f 5e3e
00000020: 9ee8 27bf 9491 153d 636b 3bbe 2392 94be
00000030: d1ab 49bf b228 f3bd bbf7 c0bc 92e4 4abd

fc2.weight f4 [256, 16]
-0.042767476 0.056471255 -0.43053812 -0.046136085 -0.023974683 -0.54435974 -0.36776873 -0.06212831
-0.18826695 -0.19213483 -0.3484748 -0.59989023 0.21652873 -0.189418 -0.12286729 -0.20411587
0.37948948 1.086006 -1.3838419 -0.08349331 0.4271201 0.38821214 -0.58260536 -0.24956533
0.08212382 0.06907223 0.20936786 -0.9239094 -0.12428424 0.11218922 -2.417934 0.34500486
0.7761519 0.45333004 -0.44489697 -0.40615606 -0.0199156 1.0620579 0.057895616 0.35779878
-0.083731286 0.17900836 0.19683532 -0.17823863 0.42022526 0.07583201 -1.3587743 -0.08201597
0.20767274 -0.4227274 -1.201467 -0.4392719 0.5184506 -1.3208535 0.045349397 0.42519963
-3.5193496 -0.938957 -0.073148675 0.6031972 -0.8945626 0.9662674 0.21552482 -0.16640788
-0.014379604 -0.181967 -1.1210228 -0.1727092 0.13670893 -2.165947 -1.634042 -0.52196795
-0.16702063 -0.35943386 0.009574583 -0.43178102 -0.44569367 -0.19308506 -0.11147616 -0.13215469
-0.17621353 -0.15848881 0.07147759 0.20586409 0.03448453 -2.8877685 -0.33489066 -0.064892784
-1.2493061 -0.13487226 -0.41037527 -0.41080946 -0.14706965 -0.7163326 -0.13846955 -0.37976703
-1.0780038 -0.2438045 -0.6374448 0.12729257 -0.01005783 -0.65952027 -1.0015345 0.21573298
-0.2351564 0.0014706671 0.8819778 -1.7058907 -2.4095275 0.51344097 0.1789894 -1.5076278
0.08976756 -0.18873657 -0.7332342 0.041018315 0.10990692 -0.6745082 -0.4976573 -0.012837693
-0.21514244 -0.26573643 -0.09294461 -0.404657 0.05781637 -0.08226642 -0.2306666 0.015533885
-0.08418535 0.13560936 -1.0002918 0.3466519 -2.5158415 -1.2479804 -0.8728117 -0.7694066
0.20252165 0.19797331 0.43433508 -0.6652314 -8.525207 -0.45188266 -0.003661865 0.43757102
-0.8047263 -0.25757498 0.35279888 0.94250137 -1.0067536 -1.1084619 0.27522868 0.54521734
-0.40029982 -0.3364763 0.34038392 -0.036998175 -0.076327935 -1.5895728 0.09295131 0.33292902
-0.46466336 -0.85703087 -0.28670397 0.21539208 -0.3433512 0.23558635 -0.81788397 0.6987862
-0.16719437 0.5506429 -6.0711823 -0.76533526 0.4156957 0.5774331 -1.1286521 -0.851023
-1.846903 -1.1798922 0.34933805 -0.042933032 -0.76941484 -2.05085 -0.8814447 -0.04298849
0.47630456 -0.08026578 -2.3057525 0.9562479 -1.1538534 0.5366924 0.82729286 -0.6766144
0.05725641 0.044333518 -0.76047784 -0.09286849 0.07724848 -0.93294233 -0.55301976 -0.17093743
-0.32748088 -0.34480482 -0.1882122 -0.41456893 0.19793746 0.0072577693 -0.0007746822 -0.2282103
-0.74091464 -0.0442333 -0.013420291 0.035978388 0.0984122 0.49996194 -1.3226067 0.80134183
0.44854522 -0.20557871 0.016651701 0.67026025 -1.3124666 0.25006697 0.20503852 0.40982634
-2.3721073 -1.0409427 -0.52636886 -0.8875837 -3.4475455 0.3096671 -0.761492 0.6635011
0.38077927 0.69438726 0.2795611 0.20953448 -0.013774578 0.47455543 0.111406535 -1.959745
-0.26149914 -0.3010635 -0.46933743 0.20011754 -0.3640206 -0.4096446 0.25464624 0.03552226
-0.21854225 -1.4822577 -0.46536687 -0.49112737 -0.11295003 0.30550537 -0.6508308 1.1511072
00000000: f32c 2fbd 674e 673d 7e6f dcbe 31f9 3cbd
00000010: 8e66 c4bc 295b 0bbf 2f4c bcbe 417a 7ebd
00000020: 0dc9 40be febe 44be 4a6b b2be 6892 19bf
00000030: b5b9 5d3e cbf6 41be d9a1 fbbd c003 51be
00000040: 724c c23e 3f02 8b3f bb21 b1bf 8afe aabd
00000050: 7caf da3e bec3 c63e a025 15bf 0e8e 7fbe
00000060: 8930 a83d be75 8d3d 8764 563e 5485 6cbf
00000070: bc88 febd 76c3 e53d 6ebf 1ac0 7aa4 b03e
00000080: e4b1 463f e01a e83e 89c9 e3be b0f3 cfbe
00000090: 0a26 a3bc 83f1 873f f423 6d3d 6731 b73e
000000a0: 4f7b abbd f84d 373e 338f 493e 3084 36be
000000b0: c427 d73e d04d 9b3d 51ec adbf fdf7 a7bd
000000c0: 2aa8 543e ba6f d8be acc9 99bf 3fe8 e0be
000000d0: 2eb9 043f ba11 a9bf 4ac0 393d c4b3 d93e
000000e0: 063d 61c0 7c5f 70bf f9ce 95bd 226b 1a3f
000000f0: 0e02 65bf 4d5d 773f 8ab2 5c3e d466 2abe
00000100: 6e98 6bbc 8f55 3abe ad7d 8fbf aeda 30be
00000110: 6dfd 0b3e e09e 0ac0 4a28 d1bf b19f 05bf
00000120: 7507 2bbe b707 b8be b6de 1c3c 6712 ddbe
00000130: f631 e4be 17b8 45be 9d4d e4bd 8f53 07be
00000140: 5271 34be e44a 22be d862 923d 09ce 523e
00000150: a73f 0d3d 33d1 38c0 ca76 abbe 82e6 84bd
00000160: 43e9 9fbf f41b 0abe b51c d2be 9e55 d2be
00000170: 6d99 16be 9361 37bf f6ca 0dbe d370 c2be
00000180: 07fc 89bf e3a7 79be 952f 23bf fc58 023e
00000190: 99c9 24bc 52d6 28bf 4832 80bf 1be9 5c3e
000001a0: d7cc 70be 66c3 c03a 4cc9 613f a05a dabf
000001b0: b335 1ac0 de70 033f ff48 373e f3f9 c0bf
000001c0: 0ed8 b73d 2944 41be 3db5 3bbf d202 283d
000001d0: e116 e13d 92ac 2cbf f0cc febe 3055 52bc
000001e0: 4d4e 5cbe 9b0e 88be be59 bebd 342f cfbe
000001f0: dcd0 6c3d 4c7b a8bd dd33 6cbe d681 7e3c
00000200: 5e69 acbd 2edd 0a3e 9009 80bf 5c7c b13e
00000210: 8c03 21c0 d2bd 9fbf 9670 5fbf d5f7 44bf
00000220: d661 4f3e 84b9 4a3e 2b61 de3e 9b4c 2abf
00000230: 3f67 08c1 2a5d e7be e6fb 6fbb 4f09 e03e
00000240: 8b02 4ebf dee0 83be 0ea2 b43e c547 713f
00000250: 4ddd 80bf 14e2 8dbf c6ea 8c3e 5d93 0b3f
00000260: 19f4 ccbe 9f46 acbe cd46 ae3e 668b 17bd
00000270: d251 9cbd 1f77 cbbf 425d be3d ac75 aa3e
00000280: 5be8 edbe 6066 5bbf ddca 92be be8f 5c3e
00000290: bacb afbe 8c3d 713e d860 51bf a7e3 323f
000002a0: 0035 2bbe eff6 0c3f 2047 c2c0 03ed 43bf
000002b0: 11d6 d43e a8d2 133f ac77 90bf a5dc 59bf
000002c0: 5167 ecbf b506 97bf 70dc b23e 8cda 2fbd
000002d0: 5ff8 44bf 2041 03c0 5ca6 61bf b314 30bd
000002e0: 31de f33e 6362 a4bd 7391 13c0 aacc 743f
000002f0: 78b1 93bf ac64 093f 77c9 533f 9a36 2dbf
00000300: b385 6a3d 1097 353d adae 42bf d631 bebd
00000310: 7334 9e3d 4fd5 6ebf b492 0dbf 390a 2fbe
00000320: 93ab a7be 428a b0be b3ba 40be 6142 d4be
00000330: 1eb0 4a3e 95d2 ed3b 0b14 4bba f6af 69be
00000340: 95ac 3dbf fa2d 35bd c8e0 5bbc 135e 133d
00000350: 568c c93d 03fb ff3e 2d4b a9bf bd24 4d3f
00000360: b8a7 e53e 3a83 52be 2669 883c 2d96 2b3f
00000370: e8fe a7bf c708 803e 9ef5 513e c2d4 d13e
00000380: 9bd0 17c0 9c3d 85bf 1cc0 06bf af38 63bf
00000390: 96a4 5cc0 b08c 9e3e 24f1 42bf 35db 293f
000003a0: 80f5 c23e 5dc3 313f a222 8f3e 3590 563e
000003b0: c5ae 61bc eef8 f23e 1c29 e43d edd8 fabf
000003c0: 37e3 85be ff24 9abe ff4c f0be 9deb 4c3e
000003d0: e860 babe f0bc d1be fe60 823e ca7f 113d
000003e0: 8ac9 5fbe 9fba bdbf 9144 eebe 0c75 fbbe
000003f0: 5852 e7bd 336b 9c3e d99c 26bf 7b57 933f

fc2.bias f4 [256]
0.08803743 -0.54195035 -0.22907634 -0.2871354 0.42808396 -0.21197082 -0.76291096 0.00074967823
-0.24626994 -1.5270991 0.20362104 0.36289588 0.021321397 -0.64725715 0.002183361 -0.6179682
-0.630359 -0.24848169 -0.063426085 -0.62632364 -0.740052 0.27083924 0.4448126 0.36849463
0.7933723 0.15079635 0.2318384 0.9400056 1.1739084 -0.7095696 -1.1941029 -0.48167327
0.81269985 -0.27714884 0.8507904 0.9642858 -0.28268906 -0.5107289 -0.6087699 0.42904007
-0.82579 0.06783801 -0.5858156 0.7420401 -0.25478554 -0.6598371 0.2777062 0.3550028
-0.8012271 0.93128973 -0.45593542 -0.3746764 -0.59486914 0.2945442 -0.0042686495 0.06533286
0.8683621 0.704385 0.64733315 0.06652702 -0.13575137 -0.22873138 -0.43050236 -1.2697859
0.06321303 -0.18179011 0.33640432 -0.9687772 -0.2430086 0.1815589 -0.7153138 -1.3167046
-0.303823 -0.23688675 -0.38566896 0.25136974 -0.07542501 -0.16057281 0.5487945 -0.47100654
-0.727885 -0.009367653 -0.013622336 0.36700943 -0.89689523 -0.19510524 -0.33442128 -1.5890746
-0.2239951 -0.055747215 -0.10297793 -0.030286465 0.817031 0.76028913 0.06154524 -0.7609878
-0.820704 -0.2564072 0.5422566 -0.78603494 -0.026532702 0.09209776 -0.58981836 -1.046146
0.85209495 -1.0981627 0.1001886 -0.26194248 -0.49159843 -1.1570572 0.035037134 -0.38873267
0.7150717 0.1130472 0.010648992 -0.25327396 0.6319777 0.14592837 -0.08363829 -0.191762
-0.16079462 -0.8955315 0.5756914 0.08754752 -0.41486096 0.03245201 0.30563965 -0.29180917
-1.2104229 -1.1288579 -0.8351899 0.97194725 -0.14222062 -0.3242313 0.28858218 0.14114884
0.47947884 0.5542813 1.4860588 0.34471112 -0.28275397 0.011295747 -1.2754718 0.2568225
0.37316746 -0.56973463 -0.6620403 0.35131043 0.23979963 -0.30206564 0.24878861 -0.54749477
-1.1030048 -0.022333546 -0.4641418 -0.24338157 1.070428 0.8025092 0.5039497 -0.09086805
0.9416018 -0.046288837 0.27434245 -0.23979113 -1.3840919 0.20946735 -0.06685465 -0.16111535
-1.0698429 -0.7160621 0.5279929 0.818295 -0.36202365 0.23054174 -0.18657544 0.020701895
0.062801264 -1.4046967 -1.1728126 -0.6299752 -0.22258072 -0.00455359 0.27150786 -0.07609742
-0.1291843 -0.042863153 -0.19105828 0.67552173 0.35887173 -0.37079108 -0.5206534 -0.48868364
-1.0555303 -0.38594854 -0.65472776 -1.0374867 -0.5641722 0.1618101 -0.28664634 0.32671762
0.8258387 -0.2074491 -0.90065557 -0.28390297 -0.5590274 -0.42874599 -0.6600585 -1.0130847
0.40469414 -1.0500467 0.5981654 -0.8974973 0.9364213 0.24004762 -0.069399856 0.2597247
0.67529273 -0.021707984 -0.8496499 0.5526331 0.0085225655 0.010871393 -0.2304783 -0.038832035
0.00047327965 -0.07826811 1.539378 0.2098279 0.76417786 -0.086394005 -0.3563526 -1.2314292
-0.41160432 0.64684165 -1.1903646 0.53037775 -0.19666526 -0.23823106 0.40113348 0.66499734
-0.32949847 -0.06421381 0.61951244 -0.21482013 0.03209033 -0.097428046 0.95439214 0.19482382
-1.4884237 -0.26888496 0.15601759 -0.7194929 0.03638695 0.1700514 0.8891445 0.2894655
00000000: f84c b43d 42bd 0abf fd92 6abe 6903 93be
00000010: d22d db3e e10e 59be 224e 43bf 0e86 443a
00000020: 302e 7cbe fc77 c3bf 0982 503e 7dcd b93e
00000030: 36aa ae3c a5b2 25bf b816 0f3b 2a33 1ebf
00000040: 355f 21bf fc71 7ebe 89e5 81bd bf56 20bf
00000050: 0c74 3dbf 71ab 8a3e 7abe e33e 54ab bc3e
00000060: 721a 4b3f 5c6a 1a3e 0c67 6d3e 35a4 703f
00000070: a142 963f 5aa6 35bf 5dd8 98bf e19d f6be
00000080: 190d 503f 74e6 8dbe 66cd 593f 6fdb 763f
00000090: 9fbc 90be 21bf 02bf 58d8 1bbf 24ab db3e
000000a0: f966 53bf a8ee 8a3d 03f8 15bf 57f6 3d3f
000000b0: 4073 82be 16eb 28bf 822f 8e3e edc2 b53e
000000c0: 381d 4dbf 0169 6e3f 5e70 e9be 96d5 bfbe
000000d0: 5849 18bf 7fce 963e 07e0 8bbb 3ccd 853d
000000e0: fb4c 5e3f 9352 343f a0b7 253f 513f 883d
000000f0: 6802 0bbe 8f38 6abe ce6a dcbe 5888 a2bf
00000100: d575 813d 3027 3abe 303d ac3e c801 78bf
00000110: 3fd7 78be 94ea 393e ce1e 37bf c789 a8bf
00000120: b08e 9bbe 7192 72be 6776 c5be 89b3 803e
00000130: 6d78 9abd 336d 24be cc7d 0c3f c527 f1be
00000140: ac56 3abf c97a 19bc 3830 5fbc a9e8 bb3e
00000150: ed9a 65bf abc9 47be 4439 abbe cc66 cbbf
00000160: f95e 65be 3157 64bd 18e6 d2bd 521b f8bc
00000170: f228 513f 4fa2 423f dd16 7c3d 19d0 42bf
00000180: a819 52bf ce47 83be 54d1 0a3f 9639 49bf
00000190: 1c5b d9bc c09d bc3d 56fe 16bf 1de8 85bf
000001a0: e522 5a3f 9890 8cbf ae2f cd3d 531d 86be
000001b0: cab2 fbbe 731a 94bf 1983 0f3d f807 c7be
000001c0: f00e 373f 4a85 e73d 1c79 2e3c 20ad 81be
000001d0: 4ac9 213f 3f6e 153e 8d4a abbd 425d 44be
000001e0: 58a7 24be 8d41 65bf 8360 133f 1d4c b33d
000001f0: a868 d4be 66ec 043d cd7c 9c3e 0368 95be
00000200: 23ef 9abf 6a7e 90bf 01cf 55bf 89d1 783f
00000210: 48a2 11be a501 a6be 0bc1 933e 5289 103e
00000220: 407e f53e 61e5 0d3f 2d37 be3f fa7d b03e
00000230: 21c5 90be cc11 393c a942 a3bf 3d7e 833e
00000240: ce0f bf3e 21da 11bf 797b 29bf f6de b33e
00000250: 098e 753e 59a8 9abe 71c2 7e3e 9e28 0cbf
00000260: 432f 8dbf d7f4 b6bc fea3 edbe 0539 79be
00000270: c903 893f 3e71 4d3f d902 013f 0719 babd
00000280: d10c 713f 5d99 3dbd 9d76 8c3e ce8b 75be
00000290: ec29 b1bf 9c7e 563e 17eb 88bd 6cfb 24be
000002a0: 9df0 88bf d94f 37bf 8b2a 073f c87b 513f
000002b0: 2a5b b9be 2213 6c3e a20d 3fbe 0597 a93c
000002c0: f39d 803d 1acd b3bf b91e 96bf 0e46 21bf
000002d0: 33ec 63be 4836 95bb 1403 8b3e f7d8 9bbd
000002e0: e448 04be 4691 2fbd c8a4 43be feee 2c3f
000002f0: 09be b73e 54d8 bdbe 8b49 05bf be34 fabe
00000300: 9e1b 87bf 0c9b c5be 3d9c 27bf 5dcc 84bf
00000310: 976d 10bf 8cb1 253e 4fc3 92be 8847 a73e
00000320: 2a6a 533f 896d 54be 5d91 66bf bb5b 91be
00000330: 6b1c 0fbf 9884 dbbe 98f9 28bf c2ac 81bf
00000340: 1234 cf3e ee67 86bf 5e21 193f 62c2 65bf
00000350: 4eb9 6f3f 0bcf 753e 8321 8ebd a3fa 843e
00000360: fcdf 2c3f f1d4 b1bc a882 59bf 5d79 0d3f
00000370: 3ba2 0b3c ed1d 323c 8102 6cbe 570e 1fbd
00000380: 8522 f839 084b a0bd 570a c53f 20dd 563e
00000390: 29a1 433f 57ef b0bd d973 b6be 799f 9dbf
000003a0: cdbd d2be 6a97 253f de5d 98bf d6c6 073f
000003b0: 9e62 49be d8f2 73be 5e61 cd3e 443d 2a3f
000003c0: 06b4 a8be 8882 83bd 5e98 1e3f cff9 5bbe
000003d0: 2671 033d 5b88 c7bd 0b53 743f e57f 473e
000003e0: ab84 bebf 4aab 89be 13c3 1f3e b030 38bf
000003f0: 7c0a 153d f421 2e3e f99e 633f d234 943e

fc3.weight f4 [128, 256]
-0.011880596 -0.055567317 -0.01955942 -0.01212133 0.04141132 0.018375657 -0.034369003 0.014371356
-0.07195064 -0.010078355 -0.03812487 0.030390862 -0.035453487 -0.031993054 -0.006301477 0.0472574
-0.017596016 0.012772246 0.0073482324 -0.053036828 -0.03423615 0.004715762 -0.069408104 0.023898639
-0.021685254 0.010752681 0.0031411985 0.036738 -0.045442354 -0.09855598 -0.04308462 -0.011260584
-0.019291857 -0.05592876 -0.06379072 0.007061546 -0.08026887 0.0066089234 -0.049423788 -0.07123612
-0.009577159 0.03417891 0.0006965182 -0.06065929 -0.08869941 -0.068307154 -0.0064794696 -0.06123701
-0.02604998 -0.03097616 -0.011405979 0.030463096 -0.015871046 -0.03441173 -0.028220057 -0.060167305
-0.057215273 0.015591275 0.017702697 -0.047405474 0.011708544 0.037199087 0.0007543692 -0.011683289
-0.040369242 0.016029539 -0.048842005 0.013800134 -0.028453365 -0.041291088 0.009727152 -0.06063635
-0.08538716 -0.03865472 0.00066434155 -0.054568905 0.021285435 -0.028832586 -0.0012876083 -0.07636754
-0.051630106 -0.031507414 0.0214619 0.024327751 0.004662428 -0.08857484 -0.09851068 -0.031205792
-0.066638514 0.011979461 -0.08582833 0.019694576 0.015632587 -0.06911207 -0.05044782 -0.04157833
-0.059184052 0.003944473 0.008277634 -0.03406546 0.045719326 -0.104626395 0.03770776 0.02835361
-0.04375176 -0.068127185 -0.028694458 0.043791518 -0.054657903 0.0029557224 0.01722656 0.01902194
0.052297324 -0.07006346 -0.024557222 -0.09233564 0.015244827 0.040552076 0.039605934 0.0058187395
-0.056656763 -0.050121386 0.01746733 -0.02368247 -0.019713128 -0.0033782236 -0.036568113 0.006562449
-0.080925465 -0.0021358 -0.0056911977 -0.036145125 -0.029209001 -0.037243184 0.04077384 -0.033588715
-0.04151319 -0.022934863 -0.028643126 -0.042359535 -0.06423129 -0.00086068356 0.019377114 0.04105287
-0.04604465 -0.090080865 -0.04829065 -0.013612047 -0.0076083806 -0.00043744926 0.050780766 -0.018334828
-0.09296453 -0.05314222 0.023938946 0.009733132 0.042616155 0.008875325 -0.010666241 -0.009042531
-0.084301725 -0.002869586 -0.09857046 0.012302496 -0.04574842 -0.016442118 -0.06891095 -0.04805108
-0.042921565 -0.078124896 0.011257294 -0.10148604 0.02757512 0.038666848 -0.0347973 0.05047959
-0.027449114 0.04450655 -0.0057427688 0.0097724395 0.010091005 0.034536473 0.02322963 0.008919299
0.016026303 -0.054414604 0.0030564964 0.020604067 0.051211994 0.011983226 0.023281483 -0.04592706
-0.06317385 -0.019592382 -0.011489042 -0.013261582 -0.06825572 0.012849074 -0.059146773 0.042026125
-0.03389684 0.015258493 -0.024895068 0.021802522 -0.08472907 0.0023198663 -0.030875528 -0.04969768
-0.055187896 -0.11194482 -0.05996212 0.031826906 0.047552887 0.032825314 -0.10055137 -0.09343521
-9.685708e-05 0.016259804 -0.09127282 0.025292503 -0.026139533 -0.077055775 -0.072182976 -0.06074569
-0.039469488 0.016347906 -0.08449362 -0.054266434 0.047641084 0.007394331 -0.038053103 0.015874747
-0.014225734 0.008028452 -0.07065503 -0.010222201 -0.00599456 -0.017529141 -0.09811931 -0.020945847
-0.03171195 -0.045682546 -0.048013534 -0.077907436 0.016439822 -0.020612491 0.014472654 -0.09783609
-0.0044476744 -0.061403528 -0.12516616 -0.030128278 0.024788417 -0.00216749 -0.07254116 -0.04664711
00000000: d5a6 42bc 8e9a 63bd 143b a0bc 8b98 46bc
00000010: eb9e 293d 8c88 963c 83c6 0cbd d675 6b3c
00000020: db5a 93bd af1f 25bc d328 1cbd 42f6 f83c
00000030: ad37 11bd 260b 03bd 9f7c cebb fa90 413d
00000040: 8525 90bc af42 513c 71c9 f03b 253d 59bd
00000050: 353b 0cbd ae86 9a3b d625 8ebd 14c7 c33c
00000060: 46a5 b1bc 032c 303c 91dc 4d3b 967a 163d
00000070: c321 3abd b8d7 c9bd 8079 30bd 507e 38bc
00000080: f509 9ebc 8e15 65bd b6a4 82bd 8b64 e73b
00000090: 0164 a4bd ab8f d83b 9970 4abd 3ee4 91bd
000000a0: 84e9 1cbc 2fff 0b3d 8c96 363a e075 78bd
000000b0: 09a8 b5bd 9fe4 8bbd bb51 d4bb a9d3 7abd
000000c0: c566 d5bc b7c1 fdbc 25e0 3abc be8d f93c
000000d0: ff03 82bc 50f3 0cbd c02d e7bc fe71 76bd
000000e0: 905a 6abd 8c72 7f3c 3f05 913c 3e2c 42bd
000000f0: 31d5 3f3c 125e 183d dcc0 453a 446b 3fbc
00000100: 385a 25bd 6150 833c 8e0e 48bd f519 623c
00000110: 0817 e9bc d820 29bd a25e 1f3c d25d 78bd
00000120: 77df aebd 6954 1ebd 3527 2e3a a583 5fbd
00000130: cb5e ae3c 5132 ecbc f7c4 a8ba 9666 9cbd
00000140: 177a 53bd eb0d 01bd ded0 af3c fe4a c73c
00000150: 48c7 983b ba66 b5bd f8bf c9bd 4aa3 ffbc
00000160: c679 88bd 8045 443c c3c6 afbd 8556 a13c
00000170: e90f 803c a18a 8dbd 60a2 4ebd 0a4e 2abd
00000180: fa6a 72bd a340 813b ea9e 073c 3988 0bbd
00000190: 3044 3b3d 5d46 d6bd 7473 1a3d d445 e83c
000001a0: 0c35 33bd 4486 8bbd a410 ebbc bc5e 333d
000001b0: f7e0 5fbd cbb4 413b b71e 8d3c e6d3 9b3c
000001c0: b835 563d 6e7d 8fbd 3a2c c9bc 781a bdbd
000001d0: 70c5 793c ef19 263d d539 223d 20ab be3b
000001e0: ec10 68bd 154c 4dbd a517 8f3c bd01 c2bc
000001f0: 6d7d a1bc 3065 5dbb 72c8 15bd d009 d73b
00000200: 40bc a5bd c7f8 0bbb 3a7d babb e90c 14bd
00000210: b747 efbc 4f8c 18bd 7802 273d 5294 09bd
00000220: bc09 2abd e5e1 bbbc fda4 eabc 3181 2dbd
00000230: b28b 83bd 7f9f 61ba c1bc 9e3c 0e27 283d
00000240: 5199 3cbd 517c b8bd 6bcc 45bd 1005 5fbc
00000250: b94f f9bb 7259 e5b9 7eff 4f3d ec32 96bc
00000260: 3064 bebd a8ab 59bd 9c1b c43c b777 1f3c
00000270: 478e 2e3d d069 113c 75c1 2ebc 2027 14bc
00000280: 62a6 acbd aa0f 3cbb 4fdf c9bd 6890 493c
00000290: b262 3bbd 9fb1 86bc 2f21 8dbd 36d1 44bd
000002a0: 86ce 2fbd f2ff 9fbd 8370 383c ead7 cfbd
000002b0: 38e5 e13c 2161 1e3d 9d87 0ebd b0c3 4e3d
000002c0: f7dc e0bc 804c 363d d62d bcbb 951c 203c
000002d0: be54 253c 1e76 0d3d 114c be3c 4022 123c
000002e0: 9849 833c d9e1 5ebd 804f 483b dcc9 a83c
000002f0: abc3 513d 4b55 443c cfb8 be3c 031e 3cbd
00000300: 4b61 81bd 3480 a0bc 893c 3cbc 1b47 59bc
00000310: a8c9 8bbd ec84 523c e343 72bd 9623 2c3d
00000320: 6ad7 0abd c2fe 793c bef0 cbbc 349b b23c
00000330: 6f86 adbd e608 183b adee fcbc cb8f 4bbd
00000340: b40c 62bd 5343 e5bd d79a 75bd ee5c 023d
00000350: d1c6 423d d673 063d e0ed cdbd f65a bfbd
00000360: c01f cbb8 4833 853c 3fed babd 3932 cf3c
00000370: 9322 d6bc 6bcf 9dbd abd4 93bd 79d0 78bd
00000380: c2aa 21bd 0bec 853c fe0a adbd 7b46 5ebd
00000390: 4c23 433d 254c f23b 92dd 1bbd c20b 823c
000003a0: 0e13 69bc c589 033c 96b3 90bd 057b 27bc
000003b0: 046e c4bb 4699 8fbc c7f2 c8bd a096 abbc
000003c0: 64e4 01bd 9f1d 3bbd d7a9 44bd ef8d 9fbd
000003d0: ceac 863c 87db a8bc b61e 6d3c 4a5e c8bd
000003e0: ccbd 91bb 4482 7bbd 8f2b 00be 94cf f6bc
000003f0: 1411 cb3c 730c 0ebb 7690 94bd 0a11 3fbd

fc3.bias f4 [128]
-0.08528915 -0.03117186 -0.18160135 1.2906132 -0.22246341 -0.09372172 0.4708414 -0.03908056
1.0818685 -0.13386644 -0.09113564 -0.09111852 -0.0979222 -0.8480404 1.1941582 -1.4699029
-0.09870824 0.68589747 0.943141 -0.011199719 -0.14057495 1.2052647 -0.14399356 1.0510713
-0.17149866 -0.101449974 -0.012055716 0.6647798 -0.13317327 1.0547162 0.6331382 -0.04932084
-0.00640765 -0.34604952 0.94799966 -0.6749023 -0.07487968 -0.120277144 -0.01649563 1.0396236
-0.05276977 0.6096215 -0.0811969 0.24279793 -0.9213977 -0.11392443 -0.12425021 0.55743194
-0.052059837 -0.68670124 1.0450722 -0.520899 0.94877195 -0.020520778 0.5947339 0.79800874
1.3568741 -0.086029515 1.0590155 1.0595887 0.34441411 -0.91651154 -0.11051433 -0.4480349
0.616339 -0.108172916 0.011522256 1.2770262 1.0933906 1.0294428 0.6765469 -0.3739219
-0.260766 -0.039808016 -0.10150868 -0.10225496 -0.10274527 0.48839512 0.7570558 -0.5208106
-0.14861177 0.95260435 0.8642287 -0.11707182 -0.031989146 0.6597394 0.91535705 0.8102982
-0.038438607 -0.11620338 -0.16315362 0.835582 1.1146624 0.29465932 -0.0974466 -0.07072479
-0.044290654 -0.0958072 0.22460619 0.24566302 -0.14009723 0.9144081 -0.07603497 -0.18406968
0.75851536 0.99798536 -0.38706297 0.9251948 0.92877024 -0.72497576 0.15725535 -0.40929583
1.1187932 0.5295107 -0.2824227 0.1984572 -0.060407076 -0.5612203 -0.06857102 0.4449738
-0.05621603 -0.08650834 1.1149167 0.94616765 -0.11925978 -0.23177566 -0.3760582 0.6882556
00000000: 14ac aebd 215c ffbc b4f5 39be d032 a53f
00000010: 73cd 63be 2cf1 bfbd 2012 f13e f012 20bd
00000020: ab7a 8a3f 4914 09be 53a5 babd 599c babd
00000030: 6f8b c8bd 2d19 59bf 2dda 983f c725 bcbf
00000040: 8c27 cabd fa96 2f3f b071 713f 077f 37bc
00000050: e1f2 0fbe 1d46 9a3f 0c73 13be 8189 863f
00000060: 589d 2fbe 01c5 cfbd 5685 45bc 022f 2a3f
00000070: 935e 08be f100 873f 5815 223f a604 4abd
00000080: 44f7 d1bb 672d b1be 1bb0 723f 66c6 2cbf
00000090: 855a 99bd dd53 f6bd d821 87bc 6312 853f
000000a0: 1d25 58bd 2810 1c3f 8f4a a6bd 05a0 783e
000000b0: b8e0 6bbf 3651 e9bd e576 febd dcb3 0e3f
000000c0: b23c 55bd a7cb 2fbf edc4 853f a359 05bf
000000d0: b8e2 723f 311b a8bc 7b40 183f 4d4a 4c3f
000000e0: 0dae ad3f 3e30 b0bd d28d 873f 9aa0 873f
000000f0: 0c57 b03e 80a0 6abf 5655 e2bd d564 e5be
00000100: 65c8 1d3f c389 ddbd d8c7 3c3c 9875 a33f
00000110: 39f4 8b3f c8c4 833f 2d32 2d3f b172 bfbe
00000120: 1f83 85be bb0d 23bd c8e3 cfbd 0c6b d1bd
00000130: 1d6c d2bd ed0e fa3e 69ce 413f d853 05bf
00000140: af2d 18be e1dd 733f 183e 5d3f 5ac3 efbd
00000150: 0d07 03bd aee4 283f d754 6a3f b46f 4f3f
00000160: cd71 1dbd 0afc edbd be11 27be b4e8 553f
00000170: 42ad 8e3f 96dd 963e 1592 c7bd 29d8 90bd
00000180: 1e6a 35bd 9136 c4bd 2aff 653e 168f 7b3e
00000190: a675 0fbe a616 6a3f 39b8 9bbd c37c 3cbe
000001a0: 102e 423f f87b 7f3f 1e2d c6be 91d9 6c3f
000001b0: e3c3 6d3f 0398 39bf 8c07 213e 398f d1be
000001c0: 9e34 8f3f 038e 073f b599 90be 5d38 4b3e
000001d0: 696d 77bd 22ac 0fbf f76e 8cbd 9bd3 e33e
000001e0: c842 66bd 492b b1bd 97b5 8e3f 0b38 723f
000001f0: 793e f4bd 9956 6dbe b38a c0be 8531 303f

conv.weight f4 [64, 128, 1]
-0.0712988 -0.051542316 0.14095034 0.20341758 -0.8669643 0.076023884 -0.35255226 -0.049592603
-0.036312934 0.0031964863 -0.06549803 0.10943492 -0.0031016632 -1.1539738 0.05816646 -0.32400236
-0.0014371851 -0.023950078 0.051853634 -0.0077551506 -0.06384641 0.16400896 -0.019029606 -0.23304667
0.04662914 -0.08027366 0.075079136 0.03148688 0.11245736 0.11586353 -0.09024846 -0.02018589
-0.012275775 0.016908279 -0.31061053 -0.14612731 -0.10160922 0.08245968 0.017148986 0.030765109
0.021593805 0.05028446 -0.062275358 -0.2737867 -1.7024684 -0.057181716 -0.013794027 0.51608497
-0.060408704 -0.17588201 -0.12009168 0.4711823 -0.18192498 -0.10171953 0.3162057 -0.12588744
0.14670703 -0.0008917133 -0.14196506 -0.008976512 -0.4660495 -0.85741633 0.085727856 -0.75967824
0.094495036 0.085400626 -0.15333165 0.094644666 -0.014552029 -0.07700601 -0.12434552 0.43027717
-0.7374284 0.039671417 -0.03535142 -0.043465674 0.07633309 -0.5467942 0.013369264 -0.32612795
0.36914125 1.970998 -0.28583375 -0.0032132338 0.067814834 0.20576453 0.011913638 -0.14833182
-0.066014946 -0.023400038 0.031211736 -0.19090584 0.09900035 -0.3997216 -1.6029726 0.82808924
0.02714048 -0.050839428 -1.2671454 -0.082434736 0.41701052 0.023666024 0.036680482 0.008993649
-0.07217686 0.23202853 -0.66936636 -0.018874163 -0.2590264 -0.75931126 0.27089408 0.018730469
-0.047519583 0.26360005 -1.1941098 -0.67775 0.04554067 -0.505902 -0.008397721 -0.020409718
-0.03899039 -0.10969149 -0.122851916 -0.09863312 -0.016289614 -2.2213254 -0.13000803 -0.13596071
0.036513906 -0.023959769 -0.5861607 -0.49548516 1.0830815 0.049020078 -0.10699039 -0.06896196
-0.27887222 0.10714868 -0.020049158 0.0139720645 -0.012163705 0.896471 -0.5119413 0.24546102
0.030112673 -0.2874405 -0.6620164 -0.008963434 0.069753624 -0.7355107 -0.61313015 -0.23035024
0.036417376 0.09553077 0.027563445 -0.52943134 0.026691427 -0.61427844 -0.41314352 0.05426022
-0.003674894 -0.039014723 -0.05176034 -0.10601975 -0.04731717 0.0033332629 0.071110405 -0.5501787
-0.035641577 -0.6634028 -0.0015533504 -0.12808838 1.3520023 -0.07621751 -0.01349887 -0.9333819
0.055615302 0.050748587 -0.14359088 -0.6021626 -0.23061375 -0.052854713 -0.8122701 -0.2964156
-0.6174315 0.025130533 -0.26828477 -0.46287084 0.45965874 1.2728454 0.029765764 0.989424
-0.30716723 0.035112683 -0.36370823 -0.5917927 -0.6197227 -0.22410096 -0.35351762 -0.9739597
1.5445085 -0.27934444 -0.10069834 -0.054739907 -0.07245599 -0.073093876 -0.42553043 -0.4083628
-0.7800468 -1.9860967 -0.33414048 -0.07065121 0.046058033 -0.59530616 -0.38381565 -0.42549777
0.07076986 0.05778093 0.09648944 -0.22450325 -0.47053033 -0.52410144 2.01951 -0.8550289
0.041312803 -0.0019491325 1.5563439 -0.43978462 -0.65615183 -0.37775728 0.07108251 -0.09282799
-0.17433266 -0.6742257 1.1367346 -0.4192628 -0.1563854 0.9860972 -0.5332851 0.0034317123
-0.5642187 -0.86405694 1.3970108 0.5652279 -0.14545928 0.7635286 -0.0512156 -0.43901888
-0.07300561 0.029266581 -0.27001876 -0.39858466 0.02250309 2.1893573 -0.10681468 -0.4896632
00000000: 1b05 92bd 091e 53bd 4955 103e b34c 503e
00000010: 5ff1 5dbf 69b2 9b3d bb81 b4be 9d21 4bbd
00000020: dfbc 14bd 247c 513b d523 86bd 6a1f e03d
00000030: 4645 4bbb 6ab5 93bf f43f 6e3d a3e3 a5be
00000040: ee5f bcba f432 c4bc 7a64 543d eb1e febb
00000050: e8c1 82bd f7f1 273e fae3 9bbc c9a3 6ebe
00000060: 32fe 3e3d 8466 a4bd 17c3 993d 63f8 003d
00000070: 0b50 e63d dc49 ed3d 2fd4 b8bd e15c a5bc
00000080: 5520 49bc 3b83 8a3c 5808 9fbe 66a2 15be
00000090: 7f18 d0bd 9fe0 a83d 087c 8c3c 1c07 fc3c
000000a0: 7ee5 b03c 14f7 4d3d 7214 7fbd c52d 8cbe
000000b0: 7cea d9bf 6037 6abd 5800 62bc 251e 043f
000000c0: 1e6f 77bd 6a1a 34be a0f2 f5bd ce3e f13e
000000d0: 8b4a 3abe 5452 d0bd b7e5 a13e a3e8 00be
000000e0: 5e3a 163e dec1 69ba 4a5f 11be 3812 13bc
000000f0: 0a9e eebe a37f 5bbf 1692 af3d 467a 42bf
00000100: 9d86 c13d 86e6 ae3d f902 1dbe 10d5 c13d
00000110: a26b 6ebc 54b5 9dbd dda8 febd 4a4d dc3e
00000120: 1cc8 3cbf 7f7e 223d a7cc 10bd 1009 32bd
00000130: 8654 9c3d b4fa 0bbf c20a 5b3c 3efa a6be
00000140: 1500 bd3e aa49 fc3f cd58 92be 1e95 52bb
00000150: 81e2 8a3d f0b3 523e 6b31 433c 4ce4 17be
00000160: d832 87bd 70b1 bfbc c1af ff3c d27c 43be
00000170: b2c0 ca3d 4fa8 ccbe 352e cdbf a8fd 533f
00000180: b655 de3c 013d 50bd d231 a2bf 8bd3 a8bd
00000190: 6782 d53e 40df c13c 463e 163d 195a 133c
000001a0: 76d1 93bd e398 6d3e 985b 2bbf fd9d 9abc
000001b0: 1c9f 84be 3962 42bf a1b2 8a3e a470 993c
000001c0: e5a3 42bd 96f6 863e 97d8 98bf 0681 2dbf
000001d0: db88 3a3d cb82 01bf 9896 09bc 4832 a7bc
000001e0: 63b4 1fbd efa5 e0bd c999 fbbd 2900 cabd
000001f0: cc71 85bc 322a 0ec0 d320 05be 4939 0bbe
00000200: 9b8f 153d 4747 c4bc a10e 16bf 3bb0 fdbe
00000210: 6aa2 8a3f 47c9 483d c71d dbbd ee3b 8dbd
00000220: 57c8 8ebe c470 db3d 223e a4bc 16eb 643c
00000230: 474a 47bc 207f 653f 960e 03bf 225a 7b3e
00000240: daae f63c 672b 93be e879 29bf 5edb 12bc
00000250: fdda 8e3d 6e4a 3cbf 19f6 1cbf efe0 6bbe
00000260: 632a 153d a3a5 c33d bccc e13c d088 07bf
00000270: fba7 da3c 5a41 1dbf 8c87 d3be f73f 5e3d
00000280: 7ed6 70bb e7cd 1fbd a602 54bd e220 d9bd
00000290: a6cf 41bd df72 5a3b 55a2 913d 83d8 0cbf
000002a0: e7fc 11bd c4d4 29bf ca99 cbba 9a29 03be
000002b0: 690e ad3f ed17 9cbd 5d2a 5dbc 1ef2 6ebf
000002c0: dfcc 633d c0dd 4f3d 7d09 13be 5427 1abf
000002d0: 0326 6cbe 2f7e 58bd eff0 4fbf c9c3 97be
000002e0: fe0f 1ebf 8cde cd3c 9f5c 89be 68fd ecbe
000002f0: 6458 eb3e 99ec a23f 55d7 f33c e44a 7d3f
00000300: 0645 9dbe 51d2 0f3d f737 babe ba7f 17bf
00000310: 26a6 1ebf b97a 65be 4300 b5be 6c55 79bf
00000320: 74b2 c53f 3c06 8fbe ee3a cebd f436 60bd
00000330: ce63 94bd 3eb2 95bd 20df d9be ee14 d1be
00000340: 26b1 47bf 6b38 febf 7614 abbe 95b1 90bd
00000350: 59a7 3c3d fc65 18bf 7c83 c4be d8da d9be
00000360: caef 903d b2ab 6c3d 419c c53d 2ee4 65be
00000370: 5ae9 f0be 832b 06bf a73f 0140 2de3 5abf
00000380: 9d37 293d 097a ffba 4736 c73f 732b e1be
00000390: 91f9 27bf 6769 c1be b593 913d 9a1c bebd
000003a0: 4384 32be 0e9a 2cbf 8580 913f 9da9 d6be
000003b0: 7f23 20be de70 7c3f 5f85 08bf 94e6 603b
000003c0: a370 10bf d632 5dbf 40d1 b23f c7b2 103f
000003d0: 47f3 14be 9c76 433f 73c7 51bd 15c7 e0be
000003e0: f783 95bd 78c0 ef3c e63f 8abe 4a13 ccbe
000003f0: 6658 b83c 6e1e 0c40 a8c1 dabd 23b5 fabe

conv.bias f4 [64]
1.0409266 -1.568613 1.5077584 1.2857608 -1.6021422 -0.6687753 0.47850555 -1.5068647
1.3124762 1.4436792 -0.9993625 -1.3653662 -1.5748614 1.4241692 1.4592289 0.8411132
-1.5940284 -1.4053242 -1.4448066 1.3968599 -1.4613853 1.5156642 1.5291995 -0.7648231
1.5191158 -1.4506289 -1.2951 0.91084564 -1.5980442 1.1282516 -1.5857223 0.6579666
2.116663 0.6750263 -1.471082 -1.566083 0.83559203 1.3516898 1.3559746 -1.5414088
-1.2460736 1.4696434 -0.7080043 -1.3022238 -1.178076 1.2934878 1.4432969 -1.5405945
-1.2953225 -1.4083815 1.1482134 1.4910771 -1.4770105 1.49958 1.4653575 -1.5787542
1.4843653 1.4349064 -1.4495462 -1.403151 1.0501906 1.2754233 -1.5870453 -1.4911333
00000000: 153d 853f 50c8 c8bf 3afe c03f cf93 a43f
00000010: ff12 cdbf dc34 2bbf aefe f43e f1e0 c0bf
00000020: 38ff a73f 7bca b83f 39d6 7fbf 52c4 aebf
00000030: 0f95 c9bf 2d4b b63f 03c8 ba3f 3253 573f
00000040: 1f09 ccbf aae1 b3bf 6cef b8bf 4ecc b23f
00000050: ac0e bbbf 4901 c23f cfbc c33f 72cb 43bf
00000060: 6372 c23f 35ae b9bf d6c5 a5bf 2e2d 693f
00000070: b68c ccbf 8c6a 903f f3f8 cabf 8070 283f
00000080: 6877 0740 86ce 2c3f 6a4c bcbf 6875 c8bf
00000090: 5ce9 553f 2c04 ad3f 9390 ad3f e24c c5bf
000000a0: 577f 9fbf 461d bc3f c53f 35bf 45af a6bf
000000b0: 32cb 96bf 0291 a53f f4bd b83f 3332 c5bf
000000c0: 21cd a5bf d845 b4bf a8f8 923f 9ddb be3f
000000d0: ae0e bdbf 3df2 bf3f d690 bb3f 9e14 cabf
000000e0: afff bd3f 03ab b73f bb8a b9bf 749a b3bf
000000f0: a56c 863f 1241 a33f 4d24 cbbf 75dd bebf

conv2.weight f4 [64, 64, 1]
0.3981319 -0.12011589 0.112769626 0.03265362 -0.026875626 -0.015342139 0.07698929 0.012057859
0.11348387 -0.01857499 -0.3613509 0.06767084 -0.007540579 -0.13969903 0.1956746 -0.19811529
-0.05075189 0.046036705 0.117944136 -0.0032468592 -0.011515022 0.07757899 -0.10198885 -0.48996043
-0.08251737 0.046986945 -0.036036078 -0.24314104 -0.19207472 -0.21621226 -0.024017822 -0.26025215
1.8981961 -0.25216264 0.043068156 -0.21477894 -0.12324324 -0.14751635 0.12025047 0.08692428
-0.05186669 -0.01684444 0.21220453 -0.08474476 -0.06810164 -0.09349282 -0.05404392 -0.122042514
0.12011775 0.01462013 -0.050202794 0.03854034 0.022725912 -0.025791919 -0.084792085 -0.12402878
-0.09138872 0.15192623 -0.0017806239 0.077105135 0.65472746 0.025324058 0.11845624 -0.027819838
0.03394633 0.01757517 0.009818588 0.073913656 0.14763202 0.0852895 -0.024447251 0.119964376
0.018984815 0.066412866 -0.007963341 -0.0078169415 0.08903034 -0.04193871 0.0059381085 -0.111424915
-0.09583203 0.09949292 0.07470222 0.023477055 0.094910726 -0.09714052 0.009474808 -0.024941884
0.068025686 -0.101444624 0.078957915 -8.014811e-05 -0.13408004 0.0977623 0.058231182 0.06519805
-0.102164984 5.531033e-05 -0.009285348 0.0937238 -0.079350285 0.048316985 0.07060963 -0.14118955
0.08704217 -0.02634691 0.030381978 -0.054248597 -0.07272642 0.055728775 0.08779541 0.04091776
-0.076137654 -0.10235975 0.04758757 -0.12620872 -0.05610127 -0.057210602 0.028721673 0.0066171354
-0.106291674 -0.08488947 0.013106296 -0.046562582 0.14640857 0.020029547 -0.11756389 0.00776138
0.10982043 -0.0327332 -0.11644804 0.03769972 -3.1619547e-05 0.06834615 -0.1995775 -0.058042005
-0.038211044 0.10722238 0.065546915 0.13537548 -0.03642975 -0.042485345 -0.0834822 -0.003689472
-0.09071456 -0.08601522 0.06831401 0.15873225 -0.06479805 0.045209587 0.021000179 0.14346975
0.04710195 0.111370556 0.12092429 -0.14486238 0.06230209 0.061882574 -0.005716143 0.022818672
0.10990886 -0.13516803 0.01953357 0.12088032 0.05607899 0.018648671 0.06195123 0.018091459
-0.002659909 -0.06121492 0.1208039 0.10983336 0.10081698 0.041057415 -0.07604649 0.012137703
-0.0115292 -0.05510458 0.016332988 0.025334114 -0.032559134 0.06299832 0.03641229 0.0057994844
0.05123688 0.0160093 0.09549187 0.12019091 -0.052876133 0.0031356104 0.04454164 -0.022502245
-0.19484143 0.1176916 0.075948566 -0.18077561 0.005576481 0.08657528 -0.027181027 0.14630438
0.03213454 -0.09412404 0.4365541 -0.01778431 -0.03756677 -0.08954344 0.024206018 0.0943967
0.013459208 -0.034575105 -0.10412295 0.004220562 -0.060644124 0.12189326 -0.11154065 0.053014793
0.0729503 -0.14638832 -0.057801478 0.15073204 0.082991295 0.04316325 0.14873222 -0.077090226
-0.7552181 -0.0103066405 0.02586899 0.02522802 0.048340376 0.0876863 -0.21876964 -0.040608667
-0.018929703 0.06202655 0.02358761 -0.06873566 -0.118729725 -0.016531361 -0.045287214 0.05465375
0.035083912 -0.040767323 0.009121411 0.09192095 0.050603196 0.06803488 -0.13373178 0.024209129
-0.030662112 -0.14882867 -0.06458458 0.0039917585 -0.005000284 0.089716874 -0.06465384 0.10825851
00000000: f2d7 cb3e 52ff f5bd c3f3 e63d cdbf 053d
00000010: 462a dcbc 985d 7bbc 90ac 9d3d 548e 453c
00000020: 3b6a e83d 942a 98bc fc02 b9be 0297 8a3d
00000030: f616 f7bb 430d 0fbe ec5e 483e bcde 4abe
00000040: 37e1 4fbd fc90 3c3d b28c f13d 42c9 54bb
00000050: 81a9 3cbc bce1 9e3d 88df d0bd 18dc fabe
00000060: defe a8bd 6275 403d 919a 13bd f7f9 78be
00000070: 3caf 44be bf66 5dbe 06c1 c4bc c53f 85be
00000080: 17f8 f23f 761b 81be 3c68 303d 03ef 5bbe
00000090: f466 fcbd 870e 17be e145 f63d 5b05 b23d
000000a0: 2b72 54bd 5afd 89bc 254c 593e a98e adbd
000000b0: df78 8bbd 2a79 bfbd 285d 5dbd 6df1 f9bd
000000c0: 4b00 f63d 4589 6f3c 72a1 4dbd 7adc 1d3d
000000d0: b12b ba3c 9349 d3bc 79a7 adbd cd02 febd
000000e0: 022a bbbd 8d92 1b3e d363 e9ba 4ce9 9d3d
000000f0: 389c 273f 6674 cf3c 2f99 f23d 6ee6 e3bc
00000100: 4f0b 0b3d cef9 8f3c 25de 203c 0b60 973d
00000110: d92c 173e 43ac ae3d 9a45 c8bc e2af f53d
00000120: 0b86 9b3c 7803 883d ac78 02bc a112 00bc
00000130: 8a55 b63d edc7 2bbd 7794 c23b bf32 e4bd
00000140: 9543 c4bd f2c2 cb3d 7afd 983d f452 c03c
00000150: 8e60 c23d 9cf1 c6bd 3a3c 1b3c ec52 ccbc
00000160: 0d51 8b3d 33c2 cfbd b0b4 a13d 3015 a8b8
00000170: 474c 09be 9a37 c83d d283 6e3d 8e86 853d
00000180: e03b d1bd 04fd 6738 9221 18bc 43f2 bf3d
00000190: 6782 a2bd 08e8 453d c89b 903d fe93 10be
000001a0: 2a43 b23d 7ad5 d7bc a0e3 f83c c733 5ebd
000001b0: 97f1 94bd db43 643d 14ce b33d 6299 273d
000001c0: 0fee 9bbd fda1 d1bd 2feb 423d dc3c 01be
000001d0: 72ca 65bd aa55 6abd b749 eb3c 8ed4 d83b
000001e0: 73af d9bd 88da adbd cabb 563c 68b8 3ebd
000001f0: 21ec 153e 0115 a43c 56c5 f0bd 2d53 fe3b
00000200: 89e9 e03d 3f13 06bd 4f7c eebd 066b 1a3d
00000210: 3b9f 04b8 11f9 8b3d 0b5e 4cbe 74bd 6dbd
00000220: 2f83 1cbd 6897 db3d 763d 863d df9f 0a3e
00000230: 5d37 15bd 1d05 2ebd b7f8 aabd 12cb 71bb
00000240: 8ec8 b9bd bf28 b0bd 37e8 8b3d b58a 223e
00000250: d7b4 84bd b02d 393d 9108 ac3c bce9 123e
00000260: f9ed 403d 3f16 e43d 27a7 f73d ce56 14be
00000270: 7a30 7f3d 9578 7d3d 7c4e bbbb 39ee ba3c
00000280: e517 e13d 7d69 0abe de04 a03c 1a90 f73d
00000290: 15b3 653d 19c5 983c 93c0 7d3d 8a34 943c
000002a0: de51 2ebb 7fbc 7abd 0968 f73d 50f0 e03d
000002b0: 2279 ce3d d22b 283d 43be 9bbd 37dd 463c
000002c0: f8e4 3cbc 57b5 61bd c2cc 853c 7d89 cf3c
000002d0: ba5c 05bd 4305 813d 0e25 153d 9a09 be3b
000002e0: c3dd 513d ef25 833c 3e91 c33d a726 f63d
000002f0: a594 58bd d07e 4d3b 4b71 363d a156 b8bc
00000300: 8384 47be 4b08 f13d ec8a 9b3d 3e1d 39be
00000310: eaba b63b 614e b13d bfaa debc d1d0 153e
00000320: 829f 033d 1bc4 c0bd 0584 df3e 67b0 91bc
00000330: 9ddf 19bd 8d62 b7bd b34b c63c 0f53 c13d
00000340: 0384 5c3c a09e 0dbd 6a3e d5bd a44c 8a3b
00000350: f965 78bd 2ca3 f93d 6d6f e4bd 0a26 593d
00000360: f866 953d d2e6 15be 3ec1 6cbd 8059 1a3e
00000370: 57f7 a93d f3cb 303d 424d 183e 7be1 9dbd
00000380: f955 41bf 2fdd 28bc 34eb d33c feaa ce3c
00000390: 8f00 463d e094 b33d 2605 60be 4655 26bd
000003a0: 7712 9bbc 8d0f 7e3d ce3a c13c 48c5 8cbd
000003b0: 9228 f3bd c76c 87bc 167f 39bd 9cdc 5f3d
000003c0: 26b4 0f3d a3fb 26bd f871 153c 0d41 bc3d
000003d0: 4c45 4f3d df55 8b3d fcf0 08be 3952 c63c
000003e0: 1c2f fbbc 8b66 18be ec44 84bd 4ccd 823b
000003f0: 6cd9 a3bb 7bbd b73d 3c69 84bd a3b6 dd3d

conv2.bias f4 [64]
3.3072307 -0.3499829 0.14969583 -2.0131946 -0.29945555 -2.1287637 -3.4886377 -2.0686572
2.3168266 -3.8610923 -2.2425344 -2.075626 2.2713203 0.9151969 -2.023183 -0.62721974
0.45050496 2.2971056 2.3098602 2.4525301 -1.7966781 -2.0525987 2.1816866 -0.62620974
3.6600473 2.1973152 2.2017741 1.9839709 2.1455305 -2.067922 2.0100963 3.5415986
2.0024598 2.3036096 -2.1391864 -2.2164278 -2.2710078 2.264106 2.3419807 2.4541156
3.4963424 -2.400636 -1.2801964 -2.2233617 -0.86888385 -2.131521 2.4331734 -2.2892182
2.151073 2.0477488 2.0876546 2.4066877 -2.0092955 2.3613603 2.024436 -3.6640708
-1.3846852 2.156007 1.3068235 -1.7975712 0.31590682 -0.48361173 0.23358718 2.0225563
00000000: aba9 5340 f530 b3be dd49 193e 2ed8 00c0
00000010: 3d52 99be aa3d 08c0 d745 5fc0 e164 04c0
00000020: e346 1440 231c 77c0 af85 0fc0 0ed7 04c0
00000030: 505d 1140 584a 6a3f d57b 01c0 7991 20bf
00000040: 96a8 e63e c703 1340 c0d4 1340 41f6 1c40
00000050: 8cf9 e5bf c75d 03c0 c1a0 0b40 484f 20bf
00000060: 373e 6a40 d0a0 0c40 dee9 0c40 c2f2 fd3f
00000070: 5f50 0940 d658 04c0 6ba5 0040 8da9 6240
00000080: 4d28 0040 576e 1340 6ee8 08c0 f4d9 0dc0
00000090: 3158 11c0 1de7 1040 03e3 1540 3b10 1d40
000000a0: 13c4 5f40 05a4 19c0 7add a3bf 8f4b 0ec0
000000b0: 2c6f 5ebf d76a 08c0 1db9 1b40 8d82 12c0
000000c0: 2eab 0940 510e 0340 229c 0540 2c07 1a40
000000d0: 4c98 00c0 8720 1740 5c90 0140 2380 6ac0
000000e0: 5d3d b1bf 05fc 0940 fe45 a73f d016 e6bf
000000f0: 8abe a13e f59b f7be 7a31 6f3e 9071 0140

conv3.weight f4 [32, 64, 1]
-0.098973475 -0.0052294335 0.105341 -0.09767872 -0.00797482 0.37547365 0.11779108 0.34397635
-0.34601092 0.07589541 0.389989 0.15677774 -0.35071918 0.050238978 0.23304339 -0.015486605
-0.11587134 -0.38099477 -0.3790597 0.10861513 0.25096923 0.37674046 -0.18660828 0.0039498284
-0.04845048 -0.50925195 -0.27688885 -0.17602126 -0.37917924 0.2961406 -0.3518048 -0.071373
-0.35913625 -0.30475584 0.46050283 0.36281446 0.38049844 -0.47970867 -0.43818823 -0.5159667
-0.043181635 0.45162418 0.09645693 0.27541175 0.13744721 0.36370742 -0.28944308 0.41148153
-0.31615534 -0.23695515 -0.23588538 -0.42339572 0.2086803 -0.264922 -0.19416797 0.030380275
0.0356695 -0.4550251 -0.12550348 0.2442035 -0.055383 0.11038164 -0.010989791 -0.2716768
-0.04313485 0.14582574 -0.12047163 -0.022315923 0.1199723 -0.09292283 0.033966552 -0.19511798
0.23484907 0.066538885 -0.21810667 -0.028083917 0.3743725 -0.07970352 -0.007908273 0.053115424
-0.106209375 0.33823833 0.44081196 0.071546726 -0.04145056 -0.31687486 0.1595505 -0.042032972
-0.047754917 0.32262912 0.34854418 0.11105973 0.20568672 -0.14416173 0.07195879 -0.025295265
0.060139667 0.35538805 -0.37754852 -0.3273621 -0.111376315 0.19635189 0.29120535 0.43458584
0.062300637 -0.20678407 -0.035738282 -0.3564947 0.069303215 -0.088041574 0.38183284 -0.18418658
0.36202973 0.17275794 0.20022693 0.28668988 -0.1789952 0.31400067 0.09584077 0.004073528
0.00898291 0.14721024 -0.04147066 0.05775627 0.0046963184 0.021152392 -0.0523496 0.06119472
0.0703089 -0.107090175 0.15262504 0.058473404 -0.15158133 0.28813684 0.05046158 0.21214814
-0.2367301 0.10638719 0.09323208 0.2457742 -0.20454971 0.047509328 -0.0030948 -0.041513845
0.035536926 -0.22914305 -0.26649433 -0.047655113 0.07209385 0.26494244 -0.18382809 0.014614407
0.09538316 -0.31159717 -0.120789036 -0.21596311 -0.11797381 0.102128804 -0.2190296 -0.089868315
-0.13486446 -0.34324217 0.2681147 0.27417353 0.12314022 -0.30418354 -0.14180034 -0.35133845
-0.14263834 0.3392554 -0.09780883 0.22609383 0.073755175 0.109040715 -0.34595978 0.23574364
-0.33585453 -0.07130447 -0.10731492 -0.19562799 0.12878343 -0.24639203 -0.11867572 0.052936055
-0.0021741681 -0.13927278 0.073812 0.090746574 0.10591575 0.042491503 0.08986833 0.0049310112
0.13744444 0.061464805 -0.048056263 -0.40208924 0.10053199 -0.009680492 0.12458766 0.037034206
-0.01720747 0.15716521 -0.10392229 0.11937679 0.10115958 -0.07462699 0.14446768 0.07193473
-0.084575884 -0.05780014 0.010226536 0.3591775 -0.00961338 -0.097857215 -0.043317202 0.06222971
0.033689078 0.03145702 -0.12239431 -0.093877465 0.10192216 -0.05115682 -0.119807124 0.11204444
-0.022492131 -0.11506053 0.020602908 0.057839178 0.07730711 -0.08606558 -0.02429166 0.1170587
0.19545004 -0.10900328 0.08185417 -0.10135202 -0.20561251 -0.00015423015 0.050684743 -0.09690746
-0.05313173 -0.1043061 0.004319668 0.032689907 0.12457861 -0.041518927 -0.16285257 0.062449828
0.073197864 0.11327036 0.0374039 -0.02131635 0.09948265 0.06695986 -0.026988678 0.035169605
00000000: 9bb2 cabd ab5b abbb 06bd d73d c80b c8bd
00000010: d2a8 02bc 153e c03e 733c f13d ab1d b03e
00000020: 5828 b1be 0d6f 9b3d a3ac c73e 588a 203e
00000030: 7791 b3be 63c7 4d3d eda2 6e3e 88bb 7dbc
00000040: f44d edbd bf11 c3be 1d14 c2be 9c71 de3d
00000050: 0a7f 803e 20e4 c03e 3e16 3fbe 906d 813b
00000060: 0374 46bd 565e 02bf 60c4 8dbe eb3e 34be
00000070: c823 c2be be9f 973e c21f b4be 022c 92bd
00000080: b5e0 b7be f508 9cbe 07c7 eb3e d1c2 b93e
00000090: b1d0 c23e 609c f5be 355a e0be 6516 04bf
000000a0: 3adf 30bd 493b e73e 368b c53d c502 8d3e
000000b0: f6be 0c3e dc37 ba3e e231 94be b5ad d23e
000000c0: 1ddf a1be 5fa4 72be f08b 71be 53c7 d8be
000000d0: 4ab0 553e dba3 87be f8d3 46be 0ee0 f83c
000000e0: 2e1a 123d 0df9 e8be fc83 00be 7b10 7a3e
000000f0: 49d9 62bd c50f e23d 860e 34bc 3919 8bbe
00000100: 2bae 30bd 5853 153e d4b9 f6bd e2cf b6bc
00000110: 0ab4 f53d 534e bebd 8320 0b3d 02cd 47be
00000120: 467c 703e 8a45 883d 5b57 5fbe 3e10 e6bc
00000130: c1ad bf3e 993b a3bd b391 01bc 8f8f 593d
00000140: 4d84 d9bd 932d ad3e 1bb2 e13e 1787 923d
00000150: 10c8 29bd 6c3d a2be 3561 233e c42a 2cbd
00000160: a99a 43bd a52f a53e 6274 b23e 4973 e33d
00000170: 8a9f 523e 229f 13be 215f 933d 0438 cfbc
00000180: 0355 763d 6cf5 b53e 0a4e c1be 019c a7be
00000190: 4419 e4bd 7810 493e de18 953e 0982 de3e
000001a0: f42e 7f3d 34bf 53be 4e62 12bd 7986 b6be
000001b0: d8ee 8d3d 244f b4bd 987f c33e 689b 3cbe
000001c0: f65b b93e 75e7 303e 4a08 4d3e 04c9 923e
000001d0: 854a 37be b2c4 a03e 2a48 c43d 3b7b 853b
000001e0: 0e2d 133c 48be 163e 24dd 29bd d791 6c3d
000001f0: 93e3 993b c847 ad3c 896c 56bd 51a7 7a3d
00000200: 1dfe 8f3d 1852 dbbd bd49 1c3e cf81 6f3d
00000210: 2338 1bbe ac86 933e cdb0 4e3d 5d3d 593e
00000220: 6069 72be 87e1 d93d 76f0 be3d 3bac 7b3e
00000230: 7b75 51be 2499 423d 21d2 4abb 6c0a 2abd
00000240: 2b8f 113d 7aa4 6abe f271 88be 0232 43bd
00000250: f1a5 933d 89a6 873e 6e3d 3cbe 4471 6f3c
00000260: 3f58 c33d aa89 9fbe 3e60 f7bd 6f25 5dbe
00000270: 419c f1bd e828 d13d 4c49 60be e10c b8bd
00000280: e919 0abe 70bd afbe 5446 893e 7960 8c3e
00000290: f130 fc3d f2bd 9bbe 1c34 11be a2e2 b3be
000002a0: c90f 12be e2b2 ad3e ff4f c8bd 2485 673e
000002b0: f40c 973d bd50 df3d a421 b1be c866 713e
000002c0: 20f5 abbe 1408 92bd edc7 dbbd b452 48be
000002d0: cedf 033e 314e 7cbe 420c f3bd 7ad3 583d
000002e0: 7d7c 0ebb 869d 0ebe bf2a 973d 57d9 b93d
000002f0: 5bea d83d 920b 2e3d e30c b83d 5294 a13b
00000300: 3cbe 0c3e 85c2 7b3d a5d6 44bd a4de cdbe
00000310: b7e3 cd3d ed9a 1ebc d127 ff3d 2eb1 173d
00000320: aef6 8cbc ebef 203e 36d5 d4bd d27b f43d
00000330: c12c cf3d 09d6 98bd 56ef 133e 8452 933d
00000340: 1f36 adbd d7bf 6cbd 338d 273c 1de6 b73e
00000350: 7081 1dbc 5d69 c8bd 616d 31bd 95e4 7e3d
00000360: 8ffd 093d 14d9 003d dea9 fabd d442 c0bd
00000370: 91bc d03d d089 51bd 705d f5bd 8e77 e53d
00000380: 6b41 b8bc dba4 ebbd 6ec7 a83c c6e8 6c3d
00000390: 3153 9e3d 2743 b0bd 4eff c6bc 79bc ef3d
000003a0: 0e24 483e 1d3d dfbd 29a3 a73d a691 cfbd
000003b0: 168c 52be d7b8 21b9 ce9a 4f3d 6b77 c6bd
000003c0: a8a0 59bd 709e d5bd 008c 8d3b dae5 053d
000003d0: 1223 ff3d c00f 2abd d3c2 26be 64cb 7f3d
000003e0: c3e8 953d 4afa e73d d534 193d a09f aebc
000003f0: 8fbd cb3d 4022 893d 5c17 ddbc 010e 103d

conv3.bias f4 [32]
-2.9909165 2.9948685 -2.9412723 -1.4189683 -2.5520275 -2.2620072 1.8018268 -0.04463014
-2.5620012 -4.1739144 -4.658382 3.036806 2.7541986 -3.0983715 1.2683522 -6.217984
6.5009294 2.152984 -3.0844872 -2.9069903 -2.912984 2.9222703 4.3628445 -4.9471593
2.5179102 -0.116000265 -7.080193 3.0922356 -2.90324 6.3955455 -3.034346 3.0527463
00000000: 2d6b 3fc0 edab 3f40 ce3d 3cc0 c1a0 b5bf
00000010: 6b54 23c0 bac4 10c0 43a2 e63f 18ce 36bd
00000020: d4f7 23c0 b590 85c0 7711 95c0 085b 4240
00000030: ca44 3040 b84b 46c0 5d59 a23f baf9 c6c0
00000040: 9d07 d040 7dca 0940 3d68 45c0 210c 3ac0
00000050: 546e 3ac0 7a06 3b40 6c9c 8b40 214f 9ec0
00000060: 7125 2140 8c91 edbd f190 e2c0 30e7 4540
00000070: afce 39c0 4fa8 cc40 ba32 42c0 3260 4340
