New folder/price_prediction_model2.pth (torch, 98930 bytes, 11 tensors)

fc1.weight f4 [16, 8]
00000000: ec3e d3bf 9599 273d 76b3 a0bd 2532 1d3d
00000010: 42d9 aebd 9e50 a03f a7ef 72be 341b 79bb
00000020: 7787 0840 e021 b63d d22f 30be 9116 6a3f
00000030: 1197 813c 289f cdbe 90c6 c53d c76e 3a3c
00000040: a2f3 ad3f 40d0 cb3e 3319 ba3f b2eb 0140
00000050: 12e2 1ebc 3da2 abbe f408 003d 697d a5bb
00000060: 8ab8 633f 854e 1c3f b1c7 0f3f babb ce3f
00000070: d242 b0bb 5a76 f93c ccc6 073d 64ed 1abc
00000080: 1ffc edbf dc40 03bf 5ecf 7a3e 922d ebbe
00000090: d761 08bd 9ed8 e8be f16c 4fbe 76b6 cbba
000000a0: 2fcc cfbf 1b78 75be dc45 59be 452a 9c3d
000000b0: 8961 c9bd b02d 43be ce0d f23c c57d d9bc
000000c0: 8f5d 0ebf 64b0 a4be d15f 823f 883f a5bd
000000d0: d337 5fbe 6530 7abe 84fb 0a3f fa80 91bb
000000e0: 97a9 e33d 5611 513c ab04 07bd 585a c23c
000000f0: 95b8 833c 297f 9abf 3b41 8c3d 7617 18bb
00000100: 5d16 a4bf 91b1 a5bd ff2d f9bc 435c bc3c
00000110: 620a ac3d 0fa7 453f 9fd7 693e ac1a ba3b
00000120: e895 9dbf 2c7f 90bf 86d4 90bf 06d3 ba3f
00000130: db7a e5ba 47a9 c0be 9c5c a73b e682 cabc
00000140: 50f8 9cbf cdb8 9d3d 6f8c 463f 3010 5a3f
00000150: aee7 a73d 187f 8bbd 9900 c83c 1d1b 143c
00000160: 8f7a 6ebe 76a3 873e 0248 623f 049f 5c3f
00000170: 384f a1bc 6486 343f 86c2 dbbd 8ec0 9bbc
00000180: 11c1 cfbf 7ede 123f 239b 1c3f 55c6 06bf
00000190: aec8 86bd 8962 87bf 3c65 94be 8678 4439
000001a0: c4ce 50bf b0c0 e33f e9e6 353d d53d 1fbc
000001b0: 741f 9c3b 3074 55bf c8b5 643e fdaa c5b9
000001c0: 4008 513f fbfd fcbe cf54 b23f 0cc2 d23f
000001d0: eec0 9d3b 4b53 aabd d0dc 1dbd 9eb3 86bc
000001e0: a449 a9be 3155 13c0 796d fa3e 7034 7f3e
000001f0: 9209 0f38 8ae3 a8bd 24d9 ae3b afdd e1bb
-1.6503577 0.04091795 -0.078467295 0.0383779 -0.085375324 1.2524602 -0.23724233 -0.00380106
2.133268 0.0889318 -0.17205742 0.91440684 0.015819104 -0.4016049 0.096570134 0.01137895
1.3589976 0.3980732 1.453894 2.0300107 -0.009697454 -0.33522215 0.03125854 -0.0050503504
0.8895346 0.6105731 0.5616408 1.615104 -0.0053790594 0.030451942 0.03314857 -0.009456012
-1.8592566 -0.5127084 0.24493167 -0.45933205 -0.033296432 -0.45477766 -0.20256402 -0.0015542048
-1.6234187 -0.23971598 -0.21218055 0.0762525 -0.098330565 -0.19060397 0.029547598 -0.02654923
-0.5561151 -0.32165825 1.0185491 -0.08068758 -0.21798639 -0.24432524 0.5429003 -0.004440424
0.11116331 0.012760481 -0.032963436 0.02372472 0.016079227 -1.2070056 0.06848379 -0.0023207343
-1.2819325 -0.08090509 -0.03041744 0.022993213 0.08400418 0.77208036 0.22836159 0.005679449
-1.2311373 -1.128881 -1.1314857 1.4595649 -0.0017507927 -0.37629148 0.0051074754 -0.02472062
-1.2263279 0.077012636 0.77558035 0.8518095 0.08198486 -0.068113506 0.024414347 0.009039667
-0.2328894 0.26491898 0.88391125 0.8618014 -0.019691095 0.70517564 -0.10730462 -0.019012716
-1.6230794 0.57370746 0.6117422 -0.5264638 -0.06581245 -1.0576946 -0.28983486 0.00018736915
-0.815655 1.7793179 0.044409666 -0.009719332 0.0047644917 -0.83380413 0.22334969 -0.00037702164
0.81653214 -0.49412522 1.3932132 1.6465468 0.004814259 -0.08316668 -0.03854066 -0.01644307
-0.33063996 -2.3020747 0.48911646 0.24922347 3.410277e-05 -0.08246525 0.005335944 -0.006892882

fc1.bias f4 [16]
00000000: bcfb c0bd 552f 353f 8adb 8dbf 2840 bc3e
00000010: de22 d3be a624 87bf 3907 07be 1023 bc3f
00000020: 0725 403e 6c33 193e 0a85 50be 4b7e 3dbe
00000030: 2077 f0be 6a37 39bf 8e9b 333f 97b8 7a3d
-0.094230145 0.7077535 -1.1082623 0.36767697 -0.4123754 -1.0558059 -0.13186349 1.46982
0.18764125 0.14961022 -0.2036325 -0.18505208 -0.46965885 -0.7235018 0.7015923 0.061211195

fc2.weight f4 [256, 16]
00000000: f75d 07be 98a7 41c0 d821 3ec0 7693 943e
00000010: e651 8dbf 730c 50bf b95a b13d f76b ab3e
00000020: 4967 01be ed7b 25c0 a513 d03e 60ee 833e
00000030: aac3 aebf 6ab1 13bf 91e8 733f 59a1 48c0
00000040: a12e 28bd 164d d0be be68 06c0 eb7c b23e
00000050: 4bbf 923d 742f 373f e0ca 53bf 9aa8 22bf
00000060: 5491 4bc0 33bc 2fbe d58b aa3e 4c06 cd3d
00000070: f3f9 70bd 9ab6 9abf 9e82 003e c3c1 9bbf
00000080: 2e1a a8bd fd32 34c0 f179 b8bf 5294 243e
00000090: 0765 19bf 43c3 f4be 3ddf d83d 8302 903e
000000a0: 692e 78be ffbd a8bf c658 b23e b336 753e
000000b0: 212a a6bf 2f8e b5be 470a 1c3f a6c4 3dc0
000000c0: 5626 77bd 93fe 57bf 923e eebe f158 593e
000000d0: bde1 c8be 9453 463f 326d f73c 0036 923d
000000e0: 7a04 6ebe c7dc debe 288e 903e b911 e1be
000000f0: 6921 e0be 5d48 f4bd 92e7 4a3e 93c8 87be
00000100: f891 0fbf 90f5 7cbf b095 88bf ef59 96bd
00000110: 0351 0e3e dc43 0e3f dad6 79be b1b8 033f
00000120: fe9a a9be 606c 22c0 191f 013e 9836 2abe
00000130: 8c75 25bf eb27 41be 7ddf e83e 5b29 d9bf
00000140: 7aa5 5b3f 8652 dabc b99a 2ebf 414e 883f
00000150: 8b22 35bf 900d cc3e c753 8abf 6803 cdbf
00000160: d59e 82bd d4f2 19bf c34a 71bf 07fc 413e
00000170: 9e6c c9be ae69 e7bf 9e5b fd3e 4606 8fbf
00000180: 2022 d0be 65f8 02bf f2b9 8cbf 92ff 903e
00000190: 3140 e9be fc42 143f 7202 4cbe c177 9b3e
000001a0: 4f81 02bd af2a a2bf 63eb 463e 45b6 21be
000001b0: 56e2 65bf 6b52 14bf d360 a03d 0e4b b4bf
000001c0: e1c3 de3e 0d8d 6d3f ab66 0ec0 5052 c63d
000001d0: 299f 24ba 9e94 043f e6da b2be fd90 7bc0
000001e0: e293 023f b0a6 06bf 4864 f13e 80b9 35bf
000001f0: 70e2 463e 7c51 04bf 7ef7 c23e c846 0bbe
00000200: 98e1 41bf e1d5 1ebe 9bd3 5fbf 2aca 7d3e
00000210: a0bd 49bf 2d81 7ebf 04fb 9f3e 0d05 96c0
00000220: 8329 0c3e 2c8f 05c0 277f 78bc 13e4 c63e
00000230: db7b 34be e29d d13e 42ed 273f 3766 bd3e
00000240: be11 6cbc 9def 19c0 375e 10c0 3519 eb3e
00000250: c29d 51bf 0816 9e3f 0161 063e 169e c63d
00000260: d853 123e 29f4 22bf 0bc5 ea3e 217e 9dbc
00000270: 5905 bcbe 7177 5b3f 3371 6d3e 1031 87bf
00000280: 7100 b3bd b161 2b3f 66fc 1abf f7b1 cabf
00000290: 0ed7 dbbe db0c 793f fcd6 983f f809 8abe
000002a0: 1f81 073e 4712 133c eb6b 2c3f a512 613e
000002b0: 2284 46bf 2c08 4bc0 fc91 15c0 ad49 983e
000002c0: 37da b3bc c20d 98c0 9312 2bc0 4c9c 0c3f
000002d0: 70ad cabf ebd0 e8bf a670 42bd 9492 233f
000002e0: 34ad 7bbd be5a 8dbf ac57 e43e b358 d03e
000002f0: 4196 e3bf 5e7d 9bbf 63c0 4c3f f484 f9c0
00000300: 0d83 dbbc 81e5 88c0 4f86 04c0 5dc8 3f3f
00000310: ddd6 e23d 3561 483f ddc1 313f 8ab1 1bbf
00000320: c3ef c73e dbe7 02bf 8bbc 7e3f eef3 f73e
00000330: c6a2 153f e2c8 d2bc 7059 74be 7526 833d
00000340: 33d5 ee3e b4fd 643f c752 2cbf c1e8 f5bd
00000350: 67a3 c93e 3448 003f 78b1 0c3e e3cf d7be
00000360: b056 703f 645d 07c0 ae18 69bf 09ea 8cbf
00000370: 80b4 1fbf 77ef 413e f5c8 d23e 6530 2bbf
00000380: da04 3e3e 3dfc a33e 2762 90c0 1da2 5f3e
00000390: b558 893e 9ece 803f 306e d5be 0dae 7e3e
000003a0: 63d0 ce3e a7a2 fe3e 00cc db3e dfcf 14c0
000003b0: 4daa 38be 2b81 a5bf 9444 20c0 7c65 6abe
000003c0: 9b13 f73e af31 cbbe f145 5fbe 970a 823d
000003d0: bd53 67be 2793 473f f248 bb3d c775 93bd
000003e0: d61e 933f db47 a63e 6ad1 883d a324 cb3d
000003f0: a8ba 23bd b829 9abf b5d5 d73e d66d 8abf
-0.13219438 -3.025854 -2.9708157 0.29018754 -1.1040618 -0.81268996 0.08659882 0.33480808
-0.12637056 -2.5856888 0.40639988 0.25767803 -1.3653462 -0.5769259 0.95276743 -3.1348479
-0.041060094 -0.40683812 -2.100143 0.3486093 0.071653925 0.7155678 -0.8273144 -0.63538516
-3.1807451 -0.17161636 0.33309808 0.10010967 -0.05883212 -1.2086976 0.12549827 -1.2168506
-0.082081184 -2.815612 -1.4412214 0.16072205 -0.5991978 -0.47805223 0.10589454 0.28126916
-0.24236454 -1.3182982 0.34833354 0.23946647 -1.2981607 -0.3546004 0.6095318 -2.9651275
-0.060339294 -0.84372824 -0.46532112 0.21225335 -0.39234725 0.7747128 0.030203436 0.07139206
-0.23243895 -0.43527815 0.28233457 -0.43958834 -0.4377549 -0.11927865 0.198149 -0.26520213
-0.56082106 -0.988122 -1.0670681 -0.07341372 0.13898091 0.55572295 -0.24398366 0.5145369
-0.33126062 -2.5378647 0.12609519 -0.16622388 -0.6463249 -0.18862884 0.45483008 -1.6965746
0.8579937 -0.026650678 -0.6820484 1.0648881 -0.70755833 0.39854097 -1.0806817 -1.6016665
-0.06377951 -0.6013615 -0.942547 0.18943797 -0.3934068 -1.8079126 0.4948396 -1.117379
-0.40651035 -0.5116027 -1.0994246 0.28319985 -0.45556787 0.5791471 -0.19922808 0.30364802
-0.0318616 -1.2669276 0.1942573 -0.15792187 -0.89798486 -0.5793826 0.07830968 -1.4085405
0.4350882 0.9279335 -2.2250164 0.096836686 -0.000627982 0.5178927 -0.3493263 -3.9307244
0.510069 -0.52598095 0.4714682 -0.70986176 0.19422317 -0.51686835 0.38079447 -0.1360122
-0.75734854 -0.15511276 -0.8743226 0.2478415 -0.7880497 -0.99415857 0.31246197 -4.6881166
0.1368771 -2.0868635 -0.015167034 0.38845882 -0.17625372 0.40940768 0.655964 0.36992046
-0.014408527 -2.4052498 -2.2557504 0.4591767 -0.81881344 1.2350473 0.13122942 0.09698121
0.14289796 -0.6365381 0.45853457 -0.019225182 -0.3672283 0.8572913 0.23187713 -1.0561848
-0.087403186 0.6694594 -0.6054138 -1.583556 -0.4293751 0.9728524 1.1940608 -0.2696073
0.1323285 0.008976526 0.6735217 0.21979769 -0.7754537 -3.1723738 -2.3370352 0.2974371
-0.021954639 -4.7516794 -2.6730087 0.5492599 -1.5834179 -1.8188757 -0.04747071 0.63895535
-0.061444476 -1.1043317 0.44598138 0.40692672 -1.7780229 -1.2147634 0.7998106 -7.7974796
-0.026795888 -4.2780156 -2.0706975 0.74915105 0.11076138 0.78273326 0.69436437 -0.6081778
0.3905011 -0.51135033 0.99506444 0.4842829 0.584515 -0.025730554 -0.23862243 0.064038195
0.46647033 0.8944962 -0.6731381 -0.12007285 0.3938248 0.50110173 0.13739574 -0.42150792
0.93882275 -2.115075 -0.91053283 -1.1008922 -0.62384796 0.18939005 0.41168943 -0.6687072
0.18556538 0.3202838 -4.5119815 0.21839185 0.2682549 1.0063055 -0.4168563 0.24871083
0.4039336 0.4973347 0.42929077 -2.3251874 -0.18033715 -1.2930044 -2.5041857 -0.22890276
0.48257145 -0.39686343 -0.21804024 0.06349676 -0.22590537 0.7795891 0.091447726 -0.072001986
1.1493785 0.32476696 0.066805676 0.09919097 -0.03997293 -1.2043982 0.42155233 -1.0814769

fc2.bias f4 [256]
00000000: 0cea c73d 135f 373f fc50 943d 5908 05be
00000010: ded2 00be 1f54 2d3f d025 96be 4035 a23e
00000020: 205b 513f 700a f9be 47f2 a8be 7f34 5e3e
00000030: 6728 88be d678 3b3f 1996 733f 2b72 913f
00000040: ccb3 333f 2c07 3ebf 5aa7 d4bd 6b86 8fbe
00000050: c7de 1bbe a725 e53d 2ba9 fe3d bfab 42bd
00000060: 20ef 89be cf06 b93e 544d 1b3e 60d0 e13c
00000070: f89b 36bf c4be 3cbd 0c4f 3bbe 111a dabd
00000080: fd24 94bd 63ad 2bbf 4db5 2bbe 0d49 e1bc
00000090: f138 8ebf 0a9a 063f 15b8 eabe be30 04bf
000000a0: 6dd1 b23d 3acc 3ebd 4538 c83c 71be ec3d
000000b0: bca4 023f 5d9e ab3e 3665 edbe 0351 cabd
000000c0: f663 7c3c e1f0 c73f 8725 26be a70c 593b
000000d0: 132a 7abd 94bd 9e3e 1ad0 54bf 9786 efbe
000000e0: ce78 e63f b8b1 ee3c de1b 223f 5579 5fbe
000000f0: 3736 06bf acef 0c3c 068c 4fbe 7df2 143f
00000100: 2d16 923e 653f 76bf 3d16 493d 9118 ac3e
00000110: c208 8ebe 89a3 f6bd 5b31 93bf f2a8 3dbe
00000120: 8c8b 5a3e 469e 12be 1a83 2f3c 9b06 34bf
00000130: b913 3d3f c4ca 68bd f0b8 34bf 0641 f9be
00000140: 7357 b23e 447b 96be 25a3 8c3f 6424 af3e
00000150: b693 623c 407e b8be dd60 36bf b722 3ebf
00000160: 9fb4 55be 99d7 e83e c190 863e 2a61 34bf
00000170: 06dc 89bb be7f 4b3d ffc4 5f3f ea3a a4bc
00000180: 03a0 9a3f 01c2 9c3d 8ed8 2c3d f321 423f
00000190: 7931 24bf 48b8 b5bf 1659 673f bff5 a33c
000001a0: b2fa d9bd b3ce 04bc b43b 11be 1096 2f3e
000001b0: 118e bd3e 301a 00bf d609 e63d a461 23bf
000001c0: 938c 6ebe 60f9 8b3f 4ca3 0fbe adf8 42be
000001d0: b01c 4fbe cc4e 8b3d 7692 abbf 113d 443e
000001e0: 8c21 813d c2fe ee3c 6314 03be c8be 45bf
000001f0: c687 0f3f 1ddf 6f3f b85b e1be 324b c03d
00000200: 3503 d13d ceeb 063c 1881 1dbe af23 163f
00000210: 7f83 d73d 40ed ffbe 99e5 b93e e1fc dcb7
00000220: a308 0bbe b2d5 35be aeea 463e 6127 86bd
00000230: abca 10be 0c2e 583c 28d9 143f fd02 84be
00000240: 3e3a 603f a687 61bf 12bb 0ec0 3b64 0ebe
00000250: 0f9e adbd 7676 06be 4142 a1bd 1929 6abe
00000260: f843 d4bd 325b 59be 151f 163a f153 4fbd
00000270: f457 473e 33da cc3d eb0e 903d 4a60 40bd
00000280: ceba 89bf 8a7c 2bbe 4466 85be 5a30 0fbe
00000290: adc6 bfbe ced8 163f c3ee bfbe 171a 9b3e
000002a0: 929f 773f caa5 cf3c 2628 70bf eed1 6a3d
000002b0: 133a 5d3d fa2b 01be 9d2a 82bf de8d c9bd
000002c0: cdab 223d 0f5a 813f 29a0 673e 98dc c9be
000002d0: fa78 dfbd 55de ba3d b2ff 1b3e 8ef2 65bf
000002e0: e498 8fbe c8c8 fd3e 3517 bfbe 0129 353f
000002f0: ed1e 153e f284 9ebf 3a96 06bb f5d6 783e
00000300: 89fe 043d e790 e5be bee9 993d 31cd 03be
00000310: f088 cd3e 6361 6bbe 5600 08be 49c9 dabd
00000320: 2a2b cc3b ac2c 0f3d 0841 f63e 79aa 9c3f
00000330: 091d 0dbe 31bd 9abd 3007 8abe 39a8 51bf
00000340: d933 a33e c6b3 85be 8ec7 6dbe 8467 a03f
00000350: d656 8dbd 8d03 4d3f 0441 703d a294 afbe
00000360: 1544 5fbf 28ae bbbf b163 09be 395f 5f3f
00000370: 3e14 173d 243a fbbe 87db 503e 1ebb 3bba
00000380: c6c0 4ebf aa6c 983c 0a5c 19bf 104f c13e
00000390: 1e1f a93e d710 e3bd 92d8 22be 2f31 cebe
000003a0: dc98 87bd 4c56 0fbe 9f16 b8be 2616 e0be
000003b0: 0093 d8bd 565d 88bf 8f75 4fbe d41a 3bbe
000003c0: 6e98 12be 6567 7c3b 845c 873f f92e 003e
000003d0: 7e4e ebbe 42f0 ae3f 7cd0 bfbe 4fa9 27bf
000003e0: 435b 043f 7d49 efbe 6feb 4a3e 06ef 9abe
000003f0: 2489 6ebe 4eca d3be fd2b 68be cbc6 383f
0.09761438 0.71629447 0.07242009 -0.12991466 -0.1258044 0.67706484 -0.29325724 0.31681252
0.8177967 -0.48640776 -0.32997343 0.21699713 -0.26593325 0.73231256 0.95150906 1.1362966
0.70196223 -0.74229693 -0.10383482 -0.2803224 -0.15221702 0.11188822 0.1243461 -0.04752707
-0.2694025 0.36138007 0.15166217 0.027565181 -0.7133174 -0.046080366 -0.18291873 -0.10649503
-0.072336175 -0.6706144 -0.1676838 -0.027500654 -1.1111127 0.52578795 -0.45843568 -0.51636875
0.08731351 -0.046581484 0.024440894 0.11559761 0.51032615 0.3351926 -0.4636628 -0.09878733
0.015404692 1.5620385 -0.16225253 0.0033119114 -0.06107528 0.31004012 -0.8313004 -0.4678237
1.8005617 0.029137477 0.6332377 -0.21823628 -0.52426475 0.008602064 -0.20268258 0.5818251
0.28532544 -0.9619048 0.049093474 0.33612493 -0.27741057 -0.120429106 -1.1499437 -0.18521479
0.21342295 -0.14318189 0.010712409 -0.7032258 0.7385822 -0.056833997 -0.7059469 -0.4868242
0.34832343 -0.2939092 1.0987288 0.3420745 0.013829162 -0.3603382 -0.7124155 -0.7427172
-0.20869683 0.45476988 0.26282313 -0.7046076 -0.004207137 0.04968237 0.8740997 -0.020047624
1.2080082 0.07654191 0.04219871 0.7583305 -0.6413799 -1.4196863 0.9037031 0.020014642
-0.106435195 -0.008105922 -0.14182931 0.17147088 0.3702245 -0.5003996 0.11232345 -0.6382086
-0.23295812 1.0935478 -0.14027137 -0.19040175 -0.20225787 0.06802139 -1.3404071 0.1916392
0.06305227 0.029174212 -0.12800746 -0.77244234 0.5606655 0.9369982 -0.44015288 0.09389342
0.1020569 0.008234931 -0.15381277 0.586482 0.10523128 -0.49985695 0.36307982 -2.63438e-05
-0.13577513 -0.177573 0.1942546 -0.0655048 -0.14139812 0.013194572 0.58143854 -0.2578353
0.8758887 -0.8809761 -2.2301679 -0.13905422 -0.08477413 -0.13131127 -0.07873965 -0.2286724
-0.103645265 -0.21226195 0.00057266775 -0.050617162 0.19467145 0.10002556 0.070340954 -0.04696683
-1.0760133 -0.16746727 -0.26054585 -0.13983288 -0.37456265 0.5892457 -0.37486848 0.30293342
0.9672786 0.02534761 -0.9381126 0.05732911 0.054010462 -0.12614432 -1.0169255 -0.09841512
0.039714623 1.0105609 0.2261969 -0.39426112 -0.10911746 0.09124438 0.15234259 -0.89823234
-0.28046334 0.49567246 -0.37322393 0.7076569 0.14562578 -1.2384322 -0.002053632 0.2430075
0.032469306 -0.44837114 0.07515286 -0.12871243 0.40143538 -0.22986369 -0.13281378 -0.10682923
0.0062307315 0.03495471 0.4809649 1.2239524 -0.13780607 -0.07555617 -0.2695861 -0.8189731
0.31875494 -0.2611372 -0.23220655 1.253159 -0.06901328 0.80083543 0.058655754 -0.34293085
-0.8721326 -1.4662523 -0.13416936 0.87254673 0.03688454 -0.49067795 0.20396243 -0.00071613665
-0.807629 0.018606503 -0.59906065 0.37755632 0.33031553 -0.11087196 -0.15902928 -0.402719
-0.066209525 -0.13997763 -0.3595476 -0.43766898 -0.10574913 -1.0653484 -0.20259689 -0.18271953
-0.1431596 0.0038513776 1.0575109 0.12517919 -0.45958322 1.3667071 -0.37463748 -0.6549272
0.51701754 -0.46735755 0.19816373 -0.30260485 -0.23294502 -0.41365284 -0.2267303 0.72178334

fc3.weight f4 [64, 256]
00000000: c6ea 1c3f 55b0 7dbf 378f e33d 067d 083d
00000010: 388e 34bf eb6e eebe 611e ff3b 9675 593f
00000020: 488f 78be 7cdd 8c3e fe19 343f c815 553f
00000030: 288c d13e e336 1f3f b1fc 7cbd 3adc 653e
00000040: a235 9a3f c1a9 5e3e 625d e03b 6de2 013e
00000050: 2bf1 4dbb 2fdb 2e3f 7dfa 4f3f d6f2 a13c
00000060: 82d6 acbd c696 e63c 139a 9f3e 7135 153f
00000070: 1864 4a3f 1984 1abd 087f 88bd 3a48 663e
00000080: aefd 793f dc34 573b a887 8f3b b0aa 5d3e
00000090: 9637 5040 f885 9b3d 7dc7 913c e7da f1bb
000000a0: cfbd 623f 516d 70ba e279 0c3e 8c1e bcbd
000000b0: f9da 55be cf68 473f fcab 563d 01e0 223e
000000c0: 4333 2e3f e613 693f 3a1e f4bc ab91 d63b
000000d0: 2c76 843f 29ad ab3d 30e4 233e da86 f13e
000000e0: 73fe d63f 0e10 e73d 8302 10bd 61cb 093f
000000f0: f21e d73d cf1a a53e 0703 873c 8d33 3bbe
00000100: 82ed 0f3e 71bc 6bbf fdc3 533f 7632 533e
00000110: 974e 5e3f 8df1 da3c 57e5 ce3f 7186 713d
00000120: 92e1 9c3e 05dc 473f b802 633f b015 cfbe
00000130: 7869 053f 50a7 e83d 911a 5abf f65d 4c40
00000140: 50c6 a53f f094 ec3f 2cac 0abf 6313 7cbf
00000150: 0236 2d3f 9ea6 33be 519e 113e f610 2cbc
00000160: a3b9 113f 8754 7d3e f324 ec3e b03e 833e
00000170: 45b7 92bc fd37 96bc c841 8b3f e1dd 473f
00000180: 8cdb 75be 882f 1d3f 1097 6b3f 49f2 1540
00000190: c6f1 173f 106f 11bd 1bce d6bf abda 83bd
000001a0: 08fc 9a3e 7fb8 26bc 55bd 083e 55fc 313f
000001b0: 6e1c 3e3f a4ac 983e a26e 94bc 4da0 acbd
000001c0: 9ed2 133e c2b7 5e3d 99b8 163e e174 403e
000001d0: f24b 22bd 56ba c63e 6765 ee3d 5067 68bf
000001e0: 7091 2bbe 0dfd 7d3f 02fd 8e3c 0eed 19bf
000001f0: 11ff e9bd c74c 543f a0f3 a0be 73c9 213c
00000200: c7bd 333e 5e8c c03c f737 aabb 1d0a 29bf
00000210: 570e 5a3f 79a8 aa3f 0d47 2c3f 6681 13bd
00000220: 6c01 f63e 17be 38bd 2e76 903e 3706 59bd
00000230: 00df dbbf 92ef 173e a3f3 a93e 77f8 0bbe
00000240: dde9 bf3e aa91 c63f bdd2 4b3e 4f4e 5e3c
00000250: 0b7f f03e d803 c53c 9354 13bd 5f56 d23d
00000260: a890 88bd bcc0 083d 28aa 193d b720 8a3f
00000270: 1493 043e 893d 6dbc 3138 82bc 8e5f 393f
00000280: 72dd a1bc 24bf 873e 2f9c 653f 6701 95be
00000290: 0505 3140 432a 493f 2459 debc 4d78 653f
000002a0: ff53 f5be 9a57 933f 28e3 4d3e bd63 513f
000002b0: 80c7 703f d6bf 0e3d 4397 8f3e 5cd0 633d
000002c0: f399 423f 2b0a e73d 37ab c33f 9822 713e
000002d0: bfcf babb e8ce 613f 6166 3e3f e2c9 55bf
000002e0: aada 8ac0 381d c8bf 679c 41be 5352 9cbf
000002f0: c57f c7bf 25a9 563f 2290 8d3f a181 933e
00000300: 83e3 df3e cd36 c33f 4345 e0bb a4e6 033d
00000310: e395 e63d a12d c33b 6a02 a23d 053b 0f3d
00000320: 06d1 943d e36d 613e bcb4 14c0 b5a2 bc3e
00000330: 8ea6 9d3e 4ed0 18bd 738c 323b e73f 98bf
00000340: 5902 d33e c207 10bf 9aaf 833f 3e0d 813e
00000350: 6df9 cd3c a488 883e 813e 633e 1d65 833f
00000360: c04e a53f ed98 923e 92d9 383c d4fe f8be
00000370: 643b 96bf 95ea 16be 2f7c d83e c480 31bf
00000380: a68b 1fbe ae1c 343e 30d4 9d3f 06fc 803f
00000390: 8902 c23d d2b1 2cbf 6427 2740 61bc 0bbe
000003a0: 282a 643e 0c66 68bd 5274 423e fff6 7b3f
000003b0: f6b4 783d 72c6 4fbf e967 b4bc d283 2dbe
000003c0: 0d27 433d 92c9 32bd 5c34 b6be 108a aa3f
000003d0: d070 4fbd ca5a 48be 95d5 a03e 76a5 e6be
000003e0: 1b11 853f 0d1a 0bc0 cbd7 b43e 057c 1a3c
000003f0: 262d 41bc 299f ee3e a3ea eebe 8825 18bf
0.61295736 -0.99097186 0.111113004 0.033322357 -0.7052951 -0.46569 0.007785604 0.84945047
-0.24273407 0.2751273 0.7035216 0.8323636 0.40927243 0.62193125 -0.061764423 0.22447291
1.2047617 0.21744443 0.0068470696 0.12684031 -0.0031424265 0.683032 0.8124159 0.019769114
-0.084393516 0.028148066 0.31172237 0.5828467 0.7905898 -0.037723634 -0.06664854 0.2248849
0.9765271 0.0032837903 0.004380185 0.21647143 3.2533927 0.07593912 0.017795319 -0.0073808315
0.88570875 -0.0009171563 0.1371837 -0.09185514 -0.20884313 0.778943 0.05241011 0.15905763
0.6804697 0.9104599 -0.02979957 0.0065481267 1.0348563 0.08382637 0.16005015 0.47173196
1.6796402 0.11282359 -0.035158645 0.53825957 0.10503949 0.32247016 0.016480936 -0.18281384
0.14055446 -0.92084414 0.8272093 0.20624718 0.8683867 0.026726509 1.6163739 0.058966104
0.30640846 0.780701 0.88676023 -0.40446234 0.5211406 0.11360037 -0.8519679 3.193235
1.2951145 1.8482952 -0.54168963 -0.9846708 0.67660534 -0.17544028 0.14220549 -0.010502091
0.56923884 0.24739276 0.4612194 0.25633764 -0.017909655 -0.018337244 1.087945 0.78072935
-0.24009532 0.6140065 0.9202738 2.342913 0.5935329 -0.035506308 -1.6781648 -0.06438192
0.3027041 -0.010175823 0.13353474 0.69525653 0.7426213 0.29819214 -0.01811916 -0.084290124
0.14435813 0.054374464 0.14718856 0.18794586 -0.03962321 0.38814038 0.11640435 -0.9078264
-0.16754699 0.9921425 0.017454628 -0.6012734 -0.11425603 0.8292965 -0.3143587 0.009874689
0.17552863 0.023504432 -0.00519466 -0.66031057 0.8517813 1.3332664 0.67295915 -0.036012076
0.4804796 -0.04510316 0.28215164 -0.052984443 -1.7177429 0.14837483 0.33193693 -0.13669
0.3748311 1.5513203 0.19904609 0.013568475 0.46971926 0.024049684 -0.035969328 0.1027038
-0.06668216 0.03338693 0.03751579 1.0791234 0.12946731 -0.014480003 -0.015895935 0.7241143
-0.019758914 0.26513016 0.8969144 -0.29102632 2.7659314 0.7858011 -0.027142115 0.8963669
-0.47915646 1.1511109 0.20106184 0.81792814 0.9405441 0.034850918 0.2804509 0.05561863
0.7601616 0.11281236 1.5286626 0.23548353 -0.005701035 0.8820634 0.7437497 -0.83511174
-4.3391924 -1.5633917 -0.18907319 -1.2212623 -1.5585867 0.83851844 1.1059611 0.28809837
0.43728265 1.5251099 -0.006844194 0.032202378 0.112590574 0.005956367 0.07910617 0.034968395
0.072664306 0.22014575 -2.3235312 0.36842886 0.30791134 -0.03730803 0.0027244359 -1.1894501
0.4121273 -0.5626184 1.0287964 0.25205415 0.02514335 0.2666675 0.22191812 1.0265232
1.2914658 0.28632298 0.011282342 -0.48631918 -1.1736875 -0.14737923 0.42282245 -0.69337106
-0.15580615 0.17589065 1.233038 1.0076911 0.0947314 -0.6745883 2.6117792 -0.1364608
0.22281706 -0.056737944 0.18989685 0.9842376 0.060719453 -0.8116218 -0.022022204 -0.16944817
0.047644664 -0.043649264 -0.35586822 1.3323383 -0.050644696 -0.19565883 0.3141295 -0.45048112
1.0395845 -2.173465 0.35320887 0.009428983 -0.011790549 0.46605805 -0.4666339 -0.5943227

fc3.bias f4 [64]
00000000: 3203 243f ff83 2d3f 2be4 8f3e 8d98 173f
00000010: a987 553e b18e d93e f975 113f 792d c93e
00000020: d7bb d6bd c3b9 063f aafe 35bd b8ee 513f
00000030: 04b3 c73e edc6 393f 1b88 363f f095 2abe
00000040: f07f b3bb dfea 56bb 560d e6bd 0767 163f
00000050: ae36 fabd 8689 363f 288c 0c3f ff15 9dbc
00000060: fd7f bebd e8a2 503f fe85 0a3f 5384 033f
00000070: b920 8a3e 1c0f 0c3d 1d96 673e 84eb eb3e
00000080: e142 d73e 29f6 4a3f 93ab 22bd b56f 173f
00000090: cc61 433f 4996 a43e 3efd 943f 5210 e63e
000000a0: 70a3 7e3c 2dba 51be 5a04 e33e fbaa 9cbd
000000b0: 0b6a 4d3f cd68 173f 3c7e 693e 4a56 e43e
000000c0: 4bcc 6c3e 5d2f a9bd fb1c 56bd df22 383e
000000d0: bf66 cc3e fd45 033f fbb1 213f e7e5 a3bd
000000e0: 1be9 113f b913 053f 57e9 2ebd 3a1e 283e
000000f0: 76dd 473f d63f 46bd 105f 363f 23d5 603e
0.64067376 0.67779535 0.28103766 0.5921715 0.20852531 0.42491677 0.56820637 0.39292505
-0.10485046 0.526272 -0.04443232 0.8200488 0.39003766 0.7256916 0.7130143 -0.16658759
-0.005477898 -0.0032793803 -0.112330124 0.5875096 -0.122174606 0.71303594 0.5490136 -0.019175528
-0.093017556 0.81498575 0.54110706 0.51373786 0.2697809 0.034194097 0.22615857 0.46078122
0.42043212 0.7928186 -0.039714407 0.59154826 0.763211 0.32145908 1.1639783 0.44934326
0.015541896 -0.20481177 0.44339257 -0.076497994 0.80239934 0.5914429 0.22802061 0.44597083
0.23124807 -0.08260987 -0.05227373 0.17982052 0.3992214 0.5127867 0.631622 -0.08002835
0.56996316 0.5198322 -0.042703 0.1641778 0.780723 -0.048400722 0.71238804 0.21956305

fc4.weight f4 [32, 64]
00000000: bdb5 1bbe 634d b4bd 45bb b7bd 4533 96bd
00000010: 956a 0b3d 8eb2 6ebd ea5f 1abe 9eab c439
00000020: 1c24 c2bd f2ff aabd 0d77 623d aeda 13be
00000030: 4d25 2abe 07f3 d73b f80e 01be 688d c0bc
00000040: c879 babd 668c ebbc dda3 693d 915c 19be
00000050: 844e 09bd 45ea 013c e131 4ebe b6f9 debd
00000060: 90f4 593c 1be9 cbbd 394b 22bd c3c7 1fbd
00000070: 4e24 d2bd 640b b9bb 01c1 c5bb d383 e7bb
00000080: bcb0 4bbd 3f29 0fbe 40c6 933c ebc2 e5bd
00000090: 75aa b7bd 7ca6 10be bdb2 cdba 672a 9bbc
000000a0: 3891 a0bd 210a b63d 453d ffbd 20dc 9ebd
000000b0: e000 4abd 78a5 0e3d b11a b03c 5a66 7e3c
000000c0: b8f3 cebd 82a9 0abd 53a7 993d f19e a93c
000000d0: ead8 a639 29ef a03d 656c 44bd 9a37 7cbd
000000e0: 4d72 593d 4a0c 0dbe dc3e ecbd e4eb 943d
000000f0: b434 22bb 408d e8bc caf1 eabd 443b 74bb
00000100: 9277 033d b1de cdbd 809a 1fbe 86ef 2a3d
00000110: d7cb d0bd 11c5 6bbc 36bd 11bd 898d 503d
00000120: 05c1 b53b 4df9 b23d 7e84 d5b9 e4d1 1ebe
00000130: ed7c d33c c97c bcbd 773d 513d 60f2 8ebd
00000140: b684 8d3d c2e0 3cbd 3d7e 66bc ad3b 01bd
00000150: 9f6a ac3d c398 fbbd 07c4 f6bb 2c60 bfbd
00000160: 1dc1 8a3d 40b1 3ebd b2bf 55be 41e8 4ebd
00000170: 74ca 053b ec8e 263e de99 a93b a617 40be
00000180: 2f36 98bd 9219 13bd 1655 6c3d d81e 2e3d
00000190: 13fa 213e 74e3 9dbd 532d 7bbd 93ce bc3d
000001a0: a544 a23d c0fb f5bd 8686 9bbd 5683 d3bd
000001b0: 62a3 6b3c 7751 c9bd 7973 c4bd c62d 7eba
000001c0: c591 92bd 7737 cc3c 5759 43bd 8e7b 82bd
000001d0: 381b 5cbd 6812 2dbe 0229 5ebe 4550 8c3d
000001e0: d9b8 5a3d a86a 82bc de93 a83d 8c8f 84bd
000001f0: a573 843d 1a40 3bbd 797e 933d ff60 1cbe
00000200: 8b0b 9d3e 2a75 a63e ae9e 533e d906 123f
00000210: 8083 cebf 0b6d 313e 2cf7 a33e 7cc5 253f
00000220: 8c06 073e 7dfa 51bd 166d 183e 57d2 a73d
00000230: 704e 153e 290a 2d3d 5fda 613e c4f0 c3bd
00000240: c985 4d3d a680 083d e07f 21bb a1cc e13e
00000250: 90b3 013e 8ef6 c83e 8895 2dbe d094 dc3d
00000260: 95e4 b0bd 5146 6abe e957 583f c141 3b3f
00000270: 8f2c ea3d 271e 9fbf b6c2 873f 644d 663e
00000280: c57c 153f 86d6 2d3e 7513 613c 1d75 213e
00000290: 9c75 e4c0 1cfb c83e 1ee0 e8c0 e21f 853e
000002a0: e3bd 1e3b ec31 5bbd c898 893e e334 1f3d
000002b0: 9964 1b3f e332 073e 4573 7c3f 4ca6 d63e
000002c0: 0da3 533f f670 163e ec87 943d e82b d33d
000002d0: 61b1 6c3f 163d 033f 4acb 3dc0 f763 4cbd
000002e0: cc68 10be aa9d c53e 9903 36bd ed88 983c
000002f0: 6dbd 6dc0 cebd 103e 933d 62c0 ba5f 1a3f
00000300: b328 913d f316 19be 15de 04be ccb3 8bbc
00000310: ecb0 513c 16b6 19be 9344 16be f0b4 dabc
00000320: 666b eb3d c190 823c 39ec e4bd 2bdd 86bc
00000330: cdf2 d9bd cb2d 2fbe 4dab 75bd 04f7 20bd
00000340: dc27 db3d d08b b23c 54a4 cf3d c3f1 28be
00000350: 58fc cf3a fb26 e6bd 82b0 45be a201 a5bd
00000360: 48fd d8bc 5bef f5bc 191b 18be 32ce 4cbe
00000370: e98f e9bd b119 96bd 2ce2 84bd bc1c ea3c
00000380: 53dc 243d 0e03 08bb a757 883d ac90 96bd
00000390: 9728 af3d d3c0 24be 4e9d f3bd 11cd 903d
000003a0: 37a0 cfbd 97f2 c53d 173d d0bd 5424 9a3d
000003b0: 3c5e f5bd 3773 39bd 49bf 013b 894e 7f3c
000003c0: 80c2 14bd 31c4 94bc 4ba5 a2bd 56b4 d8bc
000003d0: 1b77 9abd d4fe b2bd 3e42 80bc 3431 20bd
000003e0: aa6e 033d 77f0 18be e7e0 c53b f988 733b
000003f0: a085 1bbd d0dd 04be e01a 96bd 6dd4 dabd
-0.15206046 -0.08803823 -0.08971266 -0.07333998 0.03403719 -0.05827575 -0.15075651 0.00037511898
-0.094795436 -0.08349599 0.055289317 -0.14438888 -0.16615792 0.0065902504 -0.12603366 -0.023504928
-0.09105259 -0.02875347 0.057041038 -0.14976718 -0.033522144 0.007929389 -0.20136215 -0.10887472
0.013302937 -0.09956571 -0.03962252 -0.039008867 -0.10260831 -0.00564711 -0.0060349707 -0.007065275
-0.049729094 -0.13980578 0.018038869 -0.11218818 -0.08968059 -0.14126009 -0.0015693527 -0.018941117
-0.07840198 0.08888651 -0.12462858 -0.07756829 -0.04931724 0.034825772 0.021497102 0.015527332
-0.101050794 -0.03385306 0.07502618 0.020705672 0.000318236 0.07858116 -0.047954936 -0.061576463
0.05308752 -0.13774219 -0.11535427 0.07271555 -0.0024750652 -0.028387666 -0.11471899 -0.003726677
0.032096453 -0.10052241 -0.15586281 0.041732334 -0.10195129 -0.014390246 -0.035580836 0.05091623
0.0055466914 0.087389566 -0.0004072524 -0.15509754 0.025816405 -0.092034884 0.051084008 -0.06979823
0.06910078 -0.046112783 -0.0140681835 -0.031551052 0.08418774 -0.12284996 -0.0075306925 -0.09344515
0.06775115 -0.046555758 -0.20873907 -0.050514463 0.002041486 0.16265458 0.005175813 -0.18759021
-0.0743221 -0.035913058 0.05769833 0.042509884 0.15818052 -0.07709399 -0.06132252 0.092190884
0.07923249 -0.12010908 -0.07594018 -0.10327785 0.014382215 -0.09829991 -0.09592337 -0.0009696152
-0.071567096 0.024928791 -0.047692623 -0.063712224 -0.053736895 -0.16901553 -0.2169533 0.06851248
0.05339894 -0.015919998 0.082313284 -0.06472692 0.0646737 -0.04571543 0.07201857 -0.15271376
0.3067287 0.32511264 0.20666 0.570417 -1.6133881 0.17326753 0.32024515 0.6475446
0.13186091 -0.051264275 0.14885363 0.08194416 0.14580703 0.042246018 0.22055958 -0.09567407
0.050176416 0.033325814 -0.002464287 0.44101432 0.12666154 0.39250606 -0.16951573 0.10770571
-0.086373486 -0.22878386 0.8450914 0.7314721 0.1143428 -1.2431077 1.0606296 0.2249046
0.5839351 0.16976365 0.013737549 0.15767331 -7.1393566 0.3925408 -7.277358 0.26000887
0.0024222068 -0.053514406 0.26874375 0.038868796 0.60700375 0.13203005 0.9861339 0.4192375
0.8267067 0.14691529 0.072524875 0.10311109 0.9245816 0.51265085 -2.9655328 -0.04990002
-0.14102477 0.3859685 -0.044437025 0.018619979 -3.7146866 0.14134905 -3.5350082 0.6030232
0.07087841 -0.1495016 -0.12975343 -0.017053507 0.012798529 -0.15010867 -0.14674596 -0.026697606
0.11495094 0.015938165 -0.111778684 -0.016462883 -0.10642014 -0.17107312 -0.05997782 -0.039298072
0.10700962 0.021795183 0.10138765 -0.16498475 0.0015868051 -0.11237904 -0.19305614 -0.08056952
-0.026487961 -0.03002136 -0.14854087 -0.20000532 -0.11404402 -0.07329119 -0.06488451 0.028578155
0.04024918 -0.0020753774 0.06657343 -0.07351813 0.08552664 -0.16089182 -0.11895238 0.07070363
-0.101379804 0.09665411 -0.10167902 0.0752646 -0.119808644 -0.045275893 0.0019797853 0.015582689
-0.036318302 -0.018159958 -0.079416834 -0.026453178 -0.07542249 -0.08740011 -0.015656587 -0.039109424
0.03208796 -0.1493548 0.0060387733 0.00371605 -0.03796923 -0.1297524 -0.07329345 -0.10685048

fc4.bias f4 [32]
00000000: 61e0 13be ced7 4ebd 20a2 4d3f 8935 da3c
00000010: 04b5 253e d6e0 753f fd95 3cbe d780 a83f
00000020: 406c 70bd a22c e43a d64f 4f3f 30af 1a3d
00000030: 4948 113a 161f f2bd 5d91 f23b 2534 243f
00000040: 9a10 b73f 89ba 6b3e 69fd 4dbd 5ed4 2dbd
00000050: fa0f fd3e 55d6 663f 7faf d93f c4c5 7a40
00000060: 347e 913f 5a4a 4c3f e4aa 0abe 46ea 423f
00000070: 6a3a c93e d633 3240 8b67 1dc0 016d 3a3f
-0.14441063 -0.050498776 0.8032551 0.026636856 0.16182333 0.960462 -0.18416591 1.3164319
-0.058696985 0.0017408321 0.80981195 0.037764728 0.00055420824 -0.118223354 0.0074025826 0.64142066
1.4301941 0.23020376 -0.0502905 -0.042438857 0.49426252 0.90170795 1.7006682 3.9183207
1.1366639 0.7980095 -0.13541752 0.7613872 0.3930238 2.7844138 -2.4594448 0.72822577

fc5.weight f4 [16, 32]
00000000: 0740 1ebd 81bc 60bd 47f2 453f 56d5 063e
00000010: 81a1 00c1 b748 353f fe02 c0bd 39a2 443f
00000020: 4448 1cbe fcfc b23c 4697 463f 90ea 3a3e
00000030: 4646 083e 250a 0d3d 6fa6 9ebd bc25 4c3f
00000040: dae3 4f3f 46ca 1640 3663 ee3d 1c06 0b3e
00000050: bc8e 1a3f df9a 353f 589e 3c3f 8b8e 80be
00000060: 8b89 213f 7f69 3b3f 639c d1bd 50ff 443f
00000070: 1c2a 03c1 9d16 cb3f 36a5 e53e e1e9 543f
00000080: aed8 aa3d d034 2abe 1f52 5f3e e084 87bc
00000090: 3b98 90bd 98cc 64bb 646e 2d3d ea51 85be
000000a0: 9c6d 19be 99a0 1d3e 3170 603e 435e 143e
000000b0: ee2c 26be c2aa 08be d86b 40bd 3716 023e
000000c0: 468c b8be c67f 8b3e c0b0 4dbc 55cc 1c3e
000000d0: e091 67bc 1ac7 44be 2d33 90bd f708 1bbf
000000e0: 0b22 6cbe f830 2d3e d38f a5bd a7be 7ebd
000000f0: 8b22 33be 4879 343d 8bd2 353e fda2 5a3d
00000100: 11c9 e5bc 90ca 143e 0928 c7be cd02 213e
00000110: e676 9440 3e20 6dbe 8ada ae3d b642 cabe
00000120: 8ff3 473d 77ca 75bd 6944 863e 20f4 fb3d
00000130: 60e8 19bc 7721 2cbe bf66 d8bd dea7 b3be
00000140: 6990 1abf cf1b 62c0 3581 2dbe 4cd9 0c3d
00000150: 9f34 91be a95e 81bd ab1e f6be f396 2a3f
00000160: 82cf 4dbe f1f2 a33e 1a15 d5bd 8f24 773e
00000170: 6dc8 a140 b28f 77bf cda5 47bf 7cb7 cd3e
00000180: 522d 153e e7e7 d6bd f90b ab3f 8256 92bd
00000190: 3061 a640 11f2 d23c 006b 6a3c 5993 a7be
000001a0: c921 db3d dbd3 dbbd 3fce 85bf 8311 b3bd
000001b0: 2e2c a13d 208f e7bd 87b4 ab3d 257d 263f
000001c0: 116e 2fbe 89f9 30bf 0015 d83d 3af4 e93d
000001d0: 583d 843d e025 7a3e caad 9d3e 5c59 c03e
000001e0: 733e febd 8d72 61bf f72f 213e ec81 36bf
000001f0: a16b b640 d557 56bf 88b4 66bf 380c 77bf
00000200: 050f 933c 4601 2f3d bcf5 5c3d 5cf0 c93d
00000210: c01a bb3c 68e0 ac3c ac96 88bd 4a5b ea3d
00000220: 41ba e8bd 62ef 2b3d 022a d13d c8d2 53bd
00000230: b0dd 10bc 1654 cb3a db2e b1bd 0069 40be
00000240: 7669 40be 9c4a f6bd 886f 593d b238 8e3d
00000250: 2c7c 85bd 3808 32bc 7d3c 8c3d bb5e 2cbd
00000260: e116 20be 5d94 0a3e 2b51 1dbe 3d3f b1bd
00000270: f675 2ebe 9f08 a23a 15fc 1a3c 4526 d4bd
00000280: 0215 d43d 34eb 5b3e 726c 593f b718 0e3e
00000290: e224 9bc0 1dd6 463f d6b5 a0bd 34a0 473f
000002a0: dc2c efbd 29fd a33d 4905 763f a050 01be
000002b0: 5d00 39bd 412f 233d 288c 793d a239 4f3f
000002c0: e9a1 5e3f 8fc1 ea3e d4a6 32bd 0743 0fbe
000002d0: fa53 3a3f 022c 1e3f db62 503f 2679 47be
000002e0: 6021 3f3f 7cb4 6d3f 697f 2b3e 4700 763f
000002f0: 94ee 7cc0 3d48 e73f c668 29bd e764 853f
00000300: a1f2 51be 53fd e4bd ee70 a5be c56d cbbd
00000310: 5373 8340 1580 2ebe c660 483e 7825 debe
00000320: d4df 82bb 660c 3cbe 4238 1c3f d2c8 ec3d
00000330: 6871 66bd f2ce 7bbd a8ca af3d 4195 97bd
00000340: 0568 cdbe 2cdf 0c40 a63f c03d ba59 2ebe
00000350: d62a b7be ad60 3a3e d587 efbe 6ab6 513f
00000360: 3096 05bf 2513 ee3e 5bc1 d1bd a429 b33e
00000370: 4353 b640 7f49 d2bf ae74 893d dbb0 b33e
00000380: 1e5d 1bbe 7db8 4cbd 55ad 00c0 b097 a93d
00000390: da19 10c0 68be 5a3d 73fe 1abc bc66 f83c
000003a0: 3081 6e3d 7079 4c3e bccb 79bd d087 e7bc
000003b0: 0a35 b1bb 8837 a53d bcdc 13bd e288 1dc0
000003c0: 762c 4fbd b845 95c0 e7c5 24be b46e 133d
000003d0: c076 30be c726 1dc0 e00a ad3e d45e d13f
000003e0: 7d63 25bd bb22 04bf 0d5e be3d fc67 cfbe
000003f0: a082 14c0 85c0 0a40 ec56 a6bf 9145 8c3e
-0.03863528 -0.05486727 0.7732281 0.13167319 -8.03943 0.7081408 -0.09375571 0.7681003
-0.15261942 0.021849148 0.77574575 0.18253541 0.13308057 0.034433503 -0.077465884 0.7974508
0.8120705 2.3560958 0.11640017 0.1357655 0.60374045 0.7093944 0.73679113 -0.25108752
0.631005 0.7320785 -0.102349065 0.76952076 -8.197781 1.5866276 0.44852608 0.8316937
0.083421096 -0.16621709 0.2180867 -0.016542852 -0.07060286 -0.0034911986 0.042341605 -0.26039058
-0.14983219 0.15393294 0.21917798 0.14489083 -0.16228077 -0.13346389 -0.046977848 0.12703787
-0.3604452 0.2724592 -0.0125543475 0.15312321 -0.0141339 -0.19216576 -0.07041011 -0.60560554
-0.23059861 0.16913211 -0.08084073 -0.06219354 -0.17493646 0.044060975 0.17756097 0.053378094
-0.028049977 0.14530396 -0.38897732 0.15723725 4.639514 -0.2315683 0.08537777 -0.3950402
0.04881626 -0.06000754 0.26224068 0.123024225 -0.009393781 -0.16809641 -0.10566472 -0.3508901
-0.603766 -3.5329473 -0.1694382 0.034386918 -0.2836046 -0.06316883 -0.48070273 0.6663658
-0.20098689 0.32021287 -0.104044154 0.2413504 5.055716 -0.96703637 -0.77987367 0.4017905
0.1456807 -0.104934506 1.3363029 -0.07145406 5.1993637 0.025750192 0.014307737 -0.32729605
0.106998034 -0.107337676 -1.0453566 -0.087435745 0.07869755 -0.11306596 0.08384042 0.65034705
-0.17131831 -0.6913076 0.105508804 0.11423536 0.06457013 0.2442851 0.30796653 0.37568176
-0.12414255 -0.88065416 0.15740953 -0.71291995 5.7006383 -0.8372777 -0.9011922 -0.9650302
0.017951498 0.042725824 0.053945288 0.09860298 0.022839904 0.021103099 -0.066693634 0.11443193
-0.1136365 0.04197634 0.102130905 -0.05171469 -0.008841917 0.001551273 -0.08651515 -0.18790054
-0.1879023 -0.12025949 0.05308488 0.069444075 -0.065178245 -0.010866217 0.06847475 -0.04208253
-0.15633728 0.13533159 -0.15362994 -0.0865464 -0.17037186 0.0012362188 0.009459515 -0.10358862
0.103555694 0.21476442 0.849311 0.13876615 -4.8482523 0.7767046 -0.078471825 0.77978826
-0.11678478 0.08007271 0.96101815 -0.12628412 -0.045166362 0.039839987 0.06092468 0.80947316
0.86965805 0.45850798 -0.04361613 -0.13990413 0.7278439 0.617859 0.8140084 -0.19479808
0.746603 0.9285352 0.16747822 0.96094173 -3.9520617 1.806892 -0.041359685 1.0421418
-0.20502712 -0.1118113 -0.3231272 -0.09933046 4.1078277 -0.17041047 0.19568166 -0.4338796
-0.0039939675 -0.18364105 0.6102334 0.11561741 -0.056260496 -0.061476655 0.085835755 -0.07401515
-0.40118423 2.2011213 0.0938714 -0.17026415 -0.3577487 0.18200941 -0.4678332 0.81918967
-0.5218229 0.4649898 -0.10241958 0.34992707 5.697664 -1.6428679 0.06711708 0.35095868
-0.1517224 -0.04998063 -2.0105793 0.08280885 -2.2515779 0.05340424 -0.0094600795 0.030322425
0.05822867 0.199682 -0.060985312 -0.028263003 -0.005407934 0.08067232 -0.03609918 -2.4614797
-0.05057951 -4.6647606 -0.16091119 0.035994247 -0.172328 -2.4554918 0.3379736 1.6357064
-0.040378083 -0.51615494 0.092952825 -0.4050902 -2.3204727 2.1680005 -1.2995276 0.27396825

fc5.bias f4 [16]
00000000: a19b be3f 4968 d93e c360 87bf 4171 07c0
00000010: 99cb 03be 0c15 e03f 64a1 b4bf 27b0 8a40
00000020: d4ce 0140 4f80 ca3f 189c 59c0 6031 d03f
00000030: ee71 16be 6057 e23f 4617 e83f 573a ac40
1.4891244 0.42462376 -1.0576404 -2.1162875 -0.12870635 1.7506423 -1.4111753 4.334003
2.0282488 1.5820407 -3.4001522 1.6265068 -0.14691898 1.7682915 1.8132102 5.3821216

output.weight f4 [1, 16]
00000000: d89d 6b3f d8ac 80bf cfe5 dfbe 7e6e 24c0
00000010: e32a 13be e784 5c3f d391 babe 0b65 4840
00000020: 781a 9b3e 9a8b 6a3f df03 e1bf eefa 5e3f
00000030: 638a 5ebb 566f 633f c856 7c3f 658a 7e40
0.92037725 -1.0052748 -0.43730018 -2.569244 -0.14371829 0.8614029 -0.3643938 3.1311672
0.30293632 0.91619265 -1.7579306 0.8710164 -0.0033956997 0.8884176 0.9856992 3.977197
