New folder/price_prediction_model5.pth (torch, 28712 bytes, 6 tensors)

dense1.weight f4 [100, 8]
0.27445546 0.33331773 0.2661266 -0.2476888 0.01184988 0.0418157 0.007014543 -0.2825454
-0.32540637 -0.08183527 0.19410762 0.12316269 -0.23164746 -0.05099991 -0.06836268 -0.20931411
-0.14904512 -0.104533955 0.055244654 -0.3205605 0.056033403 -0.1504143 0.2268444 -0.010848522
0.09216866 0.28600428 0.13484648 -0.32101837 -0.040800214 -0.19003247 -0.13464965 0.32380047
-0.13194834 0.13870269 0.3149267 -0.34263444 0.1430906 -0.24138853 0.03350115 -0.04112166
-0.24861161 0.08996484 0.16464153 -0.0027484894 -0.30703434 0.18932602 0.19180748 -0.15766752
0.30304632 0.17096129 0.16323635 0.06208995 -0.17662606 0.06551924 -0.25116238 -0.023720682
0.31300434 0.10307425 -0.10951345 -0.15187603 -0.3186394 -0.0036415756 -0.05050212 -0.30403325
-0.22208649 0.27845207 0.09764728 -0.30545965 -0.2769603 -0.070941776 0.27139828 -0.20034327
0.10903582 0.04279965 -0.2835585 -0.34682652 0.03202814 0.14908478 0.022698402 0.14838693
0.30483267 -0.3007873 0.35113654 0.11768514 0.08621943 0.21959028 0.33250442 -0.22688112
0.19297501 0.27730963 -0.0749926 0.34463087 0.11909658 -0.0022461414 -0.3236008 0.21466771
-0.15461242 -0.21997784 -0.25063175 -0.09207106 -0.02347374 0.15755549 -0.25126946 -0.29658058
0.04446274 -0.29263976 0.31222948 -0.033263385 -0.1828511 0.1014131 0.2891443 0.32732037
0.04332328 -0.32561526 0.13233766 0.0417535 -0.17540413 0.26924172 -0.3528205 -0.01938501
-0.2831409 0.012475461 -0.14257002 -0.32681173 -0.052141547 0.19893816 -0.1804962 0.14150065
0.06866893 0.35294887 -0.33944333 -0.24514031 -0.31654137 -0.11898346 0.14662579 -0.13848059
0.33488843 -0.1937263 -0.0144278705 -0.2518686 -0.06227225 0.22279403 -0.024064213 -0.14782876
-0.25825435 0.17784849 0.09358835 -0.1321648 -0.2752205 -0.055750668 -0.06451726 0.15698686
0.1808143 -0.2628518 0.10169032 0.29371038 0.10500294 -0.28046274 -0.16661379 -0.056331336
-0.34657812 -0.20081957 -0.29097927 0.056262136 -0.179766 -0.3114513 -0.010521442 -0.30734906
0.18254438 -0.15904994 0.25045297 -0.22298653 -0.3491456 -0.2741647 -0.035043 0.089959025
-0.117459476 -0.30386657 -0.14846666 -0.07555184 -0.12667088 0.12777537 0.22823456 0.30889562
0.08936185 0.07519895 0.10426831 0.277576 0.23359564 -0.2224281 -0.03213975 -0.30001274
-0.106035486 -0.016537994 0.30558237 0.009983212 0.24106309 -0.29197 0.07683894 -0.30342254
-0.27201727 -0.04310888 0.03657478 -0.18439086 -0.012896478 0.23194948 0.008583039 0.32057557
0.15975216 -0.2882828 0.11044899 0.110398114 0.2998567 0.20675513 -0.32878706 -0.26765174
-0.3352557 -0.08776453 -0.17253542 -0.020469457 -0.25339735 0.2325606 0.0011618733 0.18365511
-0.106990114 -0.08102879 0.17004874 -0.29017007 0.072018206 -0.033890188 -0.2034766 0.05880016
-0.20692542 0.12920302 0.18139341 0.33956113 0.17145398 -0.28392833 -0.15219902 -0.1741169
0.20159754 0.28598198 0.016735971 0.3489268 0.10540518 -0.16283965 0.094834566 -0.010489285
-0.08758178 -0.0955956 -0.19614524 0.30520406 0.2360309 -0.023273736 -0.2652517 0.3452609
00000000: 6d85 8c3e 9fa8 aa3e bf41 883e 22a2 7dbe
00000010: 0026 423c f046 2b3d 40da e53b caa9 90be
00000020: aa9b a6be 4099 a7bd 26c4 463e b83c fc3d
00000030: fe34 6dbe 48e5 50bd bc01 8cbd 7056 56be
00000040: 499f 18be e615 d6bd 3848 623d 8120 a4be
00000050: 4883 653d 3506 1abe e649 683e 00be 31bc
00000060: ecc2 bc3d 276f 923e 3215 0a3e 855c a4be
00000070: 201e 27bd df97 42be 99e1 09be 2dc9 a53e
00000080: 771d 07be 1408 0e3e 133e a13e c86d afbe
00000090: 5886 123e 8e2e 77be 8038 093d 306f 28bd
000000a0: 0b94 7ebe 7c3f b83d ca97 283e 0020 34bb
000000b0: 9b33 9dbe aede 413e 2e69 443e 9873 21be
000000c0: e328 9b3e 7a10 2f3e 6e27 273e 0852 7e3d
000000d0: 76dd 34be f42e 863d 5b98 80be e051 c2bc
000000e0: 1b42 a03e 9818 d33d 9648 e0bd 6485 1bbe
000000f0: b424 a3be 80a7 6ebb 50db 4ebd 3faa 9bbe
00000100: a46a 63be 4591 8e3e 4cfb c73d 3565 9cbe
00000110: becd 8dbe ec49 91bd b7f4 8a3e c926 4dbe
00000120: 2c4e df3d b04e 2f3d 942e 91be 3f93 b1be
00000130: f02f 033d aea9 183e 00f2 b93c bef2 173e
00000140: 0713 9c3e cb00 9abe 2bc8 b33e e804 f13d
00000150: d093 b03d 46dc 603e 053e aa3e 8653 68be
00000160: 3e9b 453e 87fb 8d3e b895 99bd 7573 b03e
00000170: e8e8 f33d 0034 13bb 01af a5be dad1 5b3e
00000180: b852 1ebe df41 61be ce52 80be c08f bcbd
00000190: 004c c0bc 3a56 213e 64a6 80be 69d9 97be
000001a0: 901e 363d e1d4 95be 8bdc 9f3e 303f 08bd
000001b0: 523d 3bbe acb1 cf3d b90a 943e 8996 a73e
000001c0: c073 313d 0bb7 a6be 8683 073e b805 2b3d
000001d0: 249d 33be 0dda 893e e3a4 b4be 50cd 9ebc
000001e0: d8f7 90be e065 4c3c e0fd 11be de53 a7be
000001f0: 6092 55bd 72b6 4b3e ffd3 38be 8ce5 103e
00000200: 4ca2 8c3d b7b5 b43e 84cb adbe 1006 7bbe
00000210: b611 a2be 9aad f3bd 1225 163e dbcd 0dbe
00000220: 7f76 ab3e 3060 46be e062 6cbc ecf4 80be
00000230: 3011 7fbd 1e24 643e 5022 c5bc 6c60 17be
00000240: ea39 84be ea1d 363e 40ab bf3d 3656 07be
00000250: b4e9 8cbe d05a 64bd a021 84bd 2ac1 203e
00000260: 6227 393e 8394 86be 0443 d03d 3561 963e
00000270: c80b d73d d098 8fbe ce9c 2abe b0bb 66bd
00000280: b072 b1be a5a3 4dbe 3cfb 94be 2073 663d
00000290: 9414 38be 8b76 9fbe 2062 2cbc db5c 9dbe
000002a0: eaec 3a3e fddd 22be 5f3b 803e 9556 64be
000002b0: 36c3 b2be 515f 8cbe 4089 0fbd 703c b83d
000002c0: 988e f0bd 6694 9bbe a507 18be ecba 9abd
000002d0: 03b6 01be 8cd7 023e 52b6 693e 9127 9e3e
000002e0: 5803 b73d e801 9a3d a08a d53d 711e 8e3e
000002f0: b233 6f3e 31c4 63be f8a4 03bd 459b 99be
00000300: 2229 d9bd b07a 87bc 4b75 9c3e a090 233c
00000310: 3ed9 763e 187d 95be bc5d 9d3d 335a 9bbe
00000320: d945 8bbe f092 30bd 70cf 153d f5d0 3cbe
00000330: c04b 53bc 2a84 6d3e e09f 0c3c 7b22 a43e
00000340: 1296 233e ce99 93be 1433 e23d 6818 e23d
00000350: d186 993e 9eb7 533e c756 a8be a609 89be
00000360: a3a6 abbe e4bd b3bd 20ad 30be 90af a7bc
00000370: 4cbd 81be 5e24 6e3e 004a 983a 1610 3c3e
00000380: a21d dbbd 6cf2 a5bd 4221 2e3e 2c91 94be
00000390: 487e 933d 70d0 0abd 2b5c 50be 70d8 703d
000003a0: 42e4 53be cc4d 043e 32bf 393e f5da ad3e
000003b0: a291 2f3e 0e5f 91be 0fda 1bbe b34b 32be
000003c0: 966f 4e3e 3b6c 923e e019 893c 89a6 b23e
000003d0: acde d73d 70bf 26be a038 c23d 40db 2bbc
000003e0: 145e b3bd a0c7 c3bd 4cda 48be b543 9c3e
000003f0: 16b2 713e 90a8 bebc 12cf 87be 09c6 b03e

dense1.bias f4 [100]
-0.127694 -0.1042998 0.13459986 -0.30259258 0.13492027 0.31389728 0.32142547 -0.25839978
0.30984858 0.14185256 -0.3378603 0.32673052 -0.24530384 -0.21785296 -0.07686961 0.081201226
0.12011102 -0.086030245 -0.31554914 -0.26440912 0.0025226176 -0.07399309 -0.25442058 0.24216345
-0.21000391 -0.25759044 0.20070091 -0.13261898 -0.23626275 -0.114076436 -0.35028145 0.3285887
0.31894854 -0.23547354 0.31956777 0.19930783 -0.20021962 -0.285746 0.28385606 -0.26464546
0.2682453 0.1182096 0.10066584 0.3044496 -0.2647636 -0.25701916 0.15943477 -0.23010877
0.09491512 -0.14637095 0.21994814 -0.10269725 0.014796704 0.053496897 -0.33229312 0.24492481
0.041131824 -0.03777364 -0.009115398 -0.05394578 0.31417254 -0.30285543 0.28631005 -0.024856478
-0.11650838 0.03497389 0.33261183 -0.2876872 -0.3029829 -0.31869638 0.068936765 -0.23578337
0.019955784 0.19491968 -0.05647716 0.12813842 0.34230837 0.16249475 -0.3458768 -0.21133125
0.1271962 -0.34136617 0.21258512 0.3241746 0.090598404 -0.28084278 -0.24444616 0.081623524
0.34136656 -0.007566452 0.03765002 0.13812205 0.22788402 0.2017856 -0.02787453 0.056467474
-0.2826273 -0.10044727 0.14500263 -0.11105198
00000000: 37c2 02be 229b d5bd 8cd4 093e 6aed 9abe
00000010: 8a28 0a3e 25b7 a03e e191 a43e fa4c 84be
00000020: 79a4 9e3e cc41 113e 06fc acbe 3949 a73e
00000030: ee30 7bbe d914 5fbe d06d 9dbd d44c a63d
00000040: c4fc f53d a030 b0bd a88f a1be a260 87be
00000050: 8052 253b b089 97bd 6a43 82be b2f9 773e
00000060: 440b 57be e5e2 83be 8a84 4d3e 45cd 07be
00000070: ddee 71be e8a0 e9bd 1758 b3be c73c a83e
00000080: 394d a33e fa1f 71be 639e a33e 5a17 4c3e
00000090: 5f06 4dbe 4d4d 92be 9555 913e 9c7f 87be
000000a0: 7357 893e e017 f23d e429 ce3d d1e0 9b3e
000000b0: 188f 87be 0498 83be de42 233e a2a1 6bbe
000000c0: dc62 c23d 44e2 15be 163a 613e f052 d2bd
000000d0: e06d 723c 901f 5b3d 5322 aabe 92cd 7a3e
000000e0: d879 283d 88b8 1abd c058 15bc 40f6 5cbd
000000f0: 39db a03e de0f 9bbe 3b97 923e d09f cbbc
00000100: f29b eebd c840 0f3d 194c aa3e bd4b 93be
00000110: 9320 9bbe 2c2c a3be b82e 8d3d 3271 71be
00000120: 507a a33c 0699 473e 9854 67bd b836 033e
00000130: 0b43 af3e 0665 263e c416 b1be 3867 58be
00000140: b83f 023e 8cc7 aebe eaaf 593e 37fa a53e
00000150: a88b b93d a0ca 8fbe 1850 7abe 3c2a a73d
00000160: 99c7 ae3e 00f0 f7bb e836 1a3d de6f 0d3e
00000170: 6e5a 693e e2a0 4e3e 2059 e4bc 704a 673d
00000180: 87b4 90be 4cb7 cdbd 927b 143e 386f e3bd

dense2.weight f4 [50, 100]
0.054269366 -0.040067162 -0.056679856 0.08705903 -0.03709706 0.086514704 0.09760625 0.024834827
0.08403694 0.06015467 0.08298916 0.030924447 0.079211794 0.082075365 -0.09496889 -0.09305922
0.093063585 0.044149227 0.05143159 -0.03358437 0.007989787 -0.055366505 -0.029796675 0.091572545
0.03727264 -0.022536933 0.081879295 -0.07016645 -0.076481745 -0.027645126 0.04237055 0.010135725
-0.0374467 0.014840506 -0.05709945 0.018004276 0.062004097 0.08754597 0.024330914 0.01062946
0.068172865 0.027629785 -0.003157422 0.012757622 -0.032870635 0.07851795 0.0761969 0.02871091
0.06723722 0.09141389 -0.091030575 -0.04963652 -0.07224201 0.03142684 -0.08090235 -0.012892187
-0.032128572 -0.090207435 0.08565702 -0.014494732 0.05551938 0.03515186 -0.045895338 0.05768747
-0.07805939 -0.04579872 0.0990404 -0.0039169416 -0.0057414174 0.08884878 0.013750717 0.09199489
0.0994957 -0.024125956 0.061070703 -0.029472604 -0.07604663 -0.037063524 -0.07296632 -0.08708413
0.06768351 0.08272941 -0.058516014 -0.06117816 -0.079419255 0.035897337 0.06531339 -0.0995338
0.06941482 -0.008193746 0.023983099 -0.09240029 0.033571027 -0.056809854 0.0874157 0.017546594
0.05745431 -0.07270588 0.08215391 -0.02465465 0.03848032 -0.074516095 0.06540512 -0.048398305
-0.098161116 -0.09991192 0.099375285 -0.0368163 -0.021516338 0.05998362 0.059475698 0.078141354
0.099893294 0.052248247 -0.06454514 0.042317994 0.09200706 0.086979516 0.07738864 -0.029467262
-0.056937553 0.034780152 -0.083416246 -0.03818251 -0.039504863 0.0036421418 0.009224273 -0.040981304
0.020984486 -0.046694446 0.016506374 0.037665688 0.09129227 0.09333021 -0.08730252 0.09281405
0.056136377 -0.023398519 0.0059448928 0.0265655 -0.025737777 -0.07928558 0.0553338 0.042245157
-0.07961501 -0.03158661 -0.011943623 0.07636977 0.053567 -0.06487952 -0.055052128 0.052009888
0.0049762726 0.029207774 -0.0127971545 -0.022992335 0.065967284 -0.07905395 -0.02986715 0.09480045
0.044944756 -0.07362084 0.08359731 0.051920258 0.018855408 -0.058481444 0.006961845 0.06868044
-0.09796605 0.086657725 -0.051095236 -0.092827156 -0.025152937 -0.06930442 0.08288897 0.060902394
-0.04779588 -0.06927947 0.043302692 0.0016722903 0.016017303 -0.06926002 -0.02392155 0.08020247
-0.05320395 0.008962557 -0.057348132 -0.037137732 -0.053078424 -0.07677491 -0.06995426 -0.07775929
-0.013958767 0.054360114 -0.062021412 -0.011042975 0.052356176 0.044394977 0.033469863 0.08900478
0.06756932 0.034060635 -0.01975628 0.0897185 0.0995465 0.057441838 0.03793206 -0.013903677
0.06545956 0.019300535 0.072143085 -0.093431704 -0.0070743933 -0.09506321 -0.006525077 -0.050545942
-0.0029336065 0.049974225 -0.031541035 -0.08527555 0.06135004 -0.07681958 0.017938815 -0.09440311
-0.09660442 -0.06678975 -0.06409258 -0.01156801 0.008058451 0.09212012 0.06666807 0.032062285
-0.046619203 -0.0650007 -0.03618922 -0.022271767 -0.06938139 -0.09646618 0.024917647 0.04048551
-0.030015752 -0.079720594 0.03441406 0.02642081 -0.02327349 0.051895328 -0.028907016 0.0022907108
0.07714694 -0.090175845 -0.07525875 -0.09659977 0.028295048 -0.041928507 -0.08437059 -0.046905756
00000000: 8e49 5e3d 771d 24bd 2329 68bd 014c b23d
00000010: 16f3 17bd 9f2e b13d c9e5 c73d 6872 cb3c
00000020: 8f1b ac3d be64 763d 39f6 a93d 4455 fd3c
00000030: cb39 a23d 2117 a83d 0d7f c2bd d595 bebd
00000040: 1f98 be3d d2d5 343d eea9 523d c48f 09bd
00000050: 98e7 023c fdc7 62bd 2818 f4bc 638a bb3d
00000060: 32ab 183d 609f b8bc 55b0 a73d 6eb3 8fbd
00000070: 76a2 9cbd 0878 e2bc be8c 2d3d 5010 263c
00000080: b661 19bd 9825 733c 1de1 69bd b47d 933c
00000090: 02f8 7d3d 4d4b b33d a051 c73c 3027 2e3c
000000a0: 379e 8b3d dc57 e23c c0ec 4ebb 5805 513c
000000b0: 5ca3 06bd 05ce a03d 1f0d 9c3d 2433 eb3c
000000c0: abb3 893d 3537 bb3d 3d6e babd aa4f 4bbd
000000d0: 9ef3 93bd 6eb9 003d 22b0 a5bd c039 53bc
000000e0: 4099 03bd adbe b8bd f36c af3d 507b 6dbc
000000f0: 4a68 633d 66fb 0f3d c0fc 3bbd b249 6c3d
00000100: 9add 9fbd 7097 3bbd b1d5 ca3d b059 80bb
00000110: 8022 bcbb 59f6 b53d b04a 613c d167 bc3d
00000120: 67c4 cb3d cca3 c5bc 4625 7a3d 8870 f1bc
00000130: 56be 9bbd eccf 17bd 5e6f 95bd 2a59 b2bd
00000140: a79d 8a3d 096e a93d 7dae 6fbd f395 7abd
00000150: 90a6 a2bd 1609 133d 07c3 853d 60d8 cbbd
00000160: 5b29 8e3d 103f 06bc 3478 c43c 5d3c bdbd
00000170: c681 093d 73b1 68bd 0107 b33d e0bd 8f3c
00000180: 3655 6b3d d2e6 94bd 4f40 a83d 8cf8 c9bc
00000190: 8a9d 1d3d e59b 98bd 1ff3 853d 4d3d 46bd
000001a0: b208 c9bd 9f9e ccbd 4585 cb3d b0cc 16bd
000001b0: 0843 b0bc 62b1 753d ca9c 733d 9308 a03d
000001c0: db94 cc3d 4202 563d 3e30 84bd a255 2d3d
000001d0: 336e bc3d 5122 b23d ef7d 9e3d 5465 f1bc
000001e0: 5a37 69bd a275 0e3d 23d6 aabd 4365 1cbd
000001f0: dacf 21bd 00b1 6e3b 6821 173c 03dc 27bd
00000200: a8e7 ab3c ad42 3fbd 6038 873c 5647 1a3d
00000210: 71f7 ba3d e923 bf3d aacb b2bd 4b15 be3d
00000220: 42ef 653d 40ae bfbc 60cd c23b e49f d93c
00000230: 08d8 d2bc 7a60 a2bd b2a5 623d 4209 2d3d
00000240: 320d a3bd f660 01bd 30af 43bc c167 9c3d
00000250: 1269 5b3d 8edf 84bd 577e 61bd 5208 553d
00000260: 0010 a33b 2445 ef3c 28ab 51bc 6c5a bcbc
00000270: db19 873d 0ae7 a1bd f4ab f4bc bd26 c23d
00000280: fe17 383d 86c6 96bd 1135 ab3d 56aa 543d
00000290: a876 9a3c 3d8a 6fbd 3020 e43b 55a8 8c3d
000002a0: 6da2 c8bd 9b79 b13d 3d49 51bd 2a1c bebd
000002b0: 880d cebc 7aef 8dbd b1c1 a93d ca74 793d
000002c0: 9dc5 43bd 65e2 8dbd 2a5e 313d c030 db3a
000002d0: b836 833c 33d8 8dbd 20f7 c3bc 3141 a43d
000002e0: 63ec 59bd b0d7 123c e0e5 6abd bc1d 18bd
000002f0: c368 59bd 2a3c 9dbd 2e44 8fbd 4340 9fbd
00000300: 50b3 64bc b6a8 5e3d 2a0a 7ebd 98ed 34bc
00000310: 6e73 563d 82d7 353d b217 093d 2348 b63d
00000320: c961 8a3d 2a83 0b3d ecd7 a1bc 55be b73d
00000330: 09df cb3d 2248 6b3d a65e 1b3d 40cc 63bc
00000340: a90f 863d 281c 9e3c c1bf 933d 1f59 bfbd
00000350: 50d0 e7bb 80b0 c2bd 50d0 d5bb 4309 4fbd
00000360: c041 40bb c6b1 4c3d 2c31 01bd f3a4 aebd
00000370: 2e4a 7b3d 9553 9dbd 6cf4 923c 6b56 c1bd
00000380: 8ad8 c5bd 10c9 88bd f842 83bd c087 3dbc
00000390: 9807 043c 79a9 bc3d 4589 883d be53 033d
000003a0: c7f3 3ebd 161f 85bd 263b 14bd 4873 b6bc
000003b0: d517 8ebd 1090 c5bd 1820 cc3c 22d4 253d
000003c0: 98e3 f5bc 8d44 a3bd c2f5 0c3d 7470 d83c
000003d0: 0ca8 bebc 3290 543d 68ce ecbc c01f 163b
000003e0: 37ff 9d3d 1dae b8bd 4221 9abd 1ad6 c5bd
000003f0: 04cb e73c 3abd 2bbd 7dca acbd 4020 40bd

dense2.bias f4 [50]
0.08827538 0.065376185 -0.09588666 -0.0029720515 0.030836396 -0.05652819 -0.02234777 0.08547593
-0.04395641 -0.021111146 0.025238939 0.057680912 0.016183242 -0.08315779 -0.09969594 -0.0393168
0.08688558 -0.08446238 0.03684432 0.08440331 -0.038309038 -0.0050665885 -0.04973334 0.033050053
-0.027097866 -0.0930797 -0.012965322 -0.0676049 0.057420604 -0.083716616 -0.060076382 -0.024016872
0.08694104 0.05739432 -0.0039477944 -0.025581695 -0.09848683 -0.06915484 0.04065389 -0.06695561
0.044595607 0.0512797 0.0408142 -0.054372754 -0.06282444 -0.05159917 -0.004035853 0.09468048
0.033506222 0.09270532
00000000: b9c9 b43d f3e3 853d 3a60 c4bd c0c6 42bb
00000010: 9c9c fc3c 1a8a 67bd ac12 b7bc 010e af3d
00000020: a30b 34bd 48f1 acbc e4c1 ce3c d242 6c3d
00000030: b892 843c a24e aabd 632d ccbd a70a 21bd
00000040: 11f1 b13d 9dfa acbd 12ea 163d a5db ac3d
00000050: f0e9 1cbd a005 a6bb 30b5 4bbd 7e5f 073d
00000060: 58fc ddbc 92a0 bebd 806c 54bc 7074 8abd
00000070: de31 6b3d 9e73 abbd a712 76bd 08bf c4bc
00000080: 250e b23d 4e16 6b3d 805c 81bb b490 d1bc
00000090: 77b3 c9bd 0ea1 8dbd b284 263d 0620 89bd
000000a0: e2a9 363d aa0a 523d ca2c 273d f7b5 5ebd
000000b0: 1aaa 80bd a759 53bd 303f 84bb d7e7 c13d
000000c0: d23d 093d 49dc bd3d

output.weight f4 [10, 50]
0.07351133 -0.027738594 -0.016151711 -0.12490096 0.034595937 -0.116909616 0.106341854 -0.1254607
-0.12776548 -0.107741915 -0.13430981 -0.102301516 0.06698723 0.005813241 -0.09846831 -0.01933898
-0.04552821 -0.08475973 -0.13844216 -0.021804541 0.06615934 -0.081885755 0.071628526 0.050401554
-0.02899164 -0.059659436 0.06352268 0.00996989 0.045942962 0.011265233 -0.045962557 0.07727651
0.05145958 0.08343984 -0.12778878 0.04050821 0.07880849 -0.05716352 -0.13260344 -0.03295201
0.00737077 0.1023801 -0.041573234 -0.03970754 -0.1332069 0.11540125 -0.037132286 0.10962494
-0.025366873 0.030154347 -0.043546245 -0.10406914 -0.089070976 0.10449083 -0.06825222 -0.026573576
0.11474736 -0.07381397 0.10729551 -0.08940628 0.041040346 0.10704672 0.03443502 -0.13367112
0.012882903 -0.04207997 0.018467858 -0.13268638 0.11156608 -0.104497686 -0.011048034 0.13806988
-0.12589476 0.11109425 -0.051100828 0.11689024 -0.024026133 -0.08791862 0.1289366 0.13563631
0.041897878 -0.10958244 0.018628374 0.08417861 -0.0791942 -0.0879548 0.13663436 0.064622104
0.11667846 -0.00017620623 0.07643062 0.09504698 -0.13456348 0.105849445 -0.10520339 -0.0041704625
0.0714972 0.13222922 0.052547768 0.07483104 0.061578214 -0.04342992 0.08891994 0.13413419
0.05567053 -0.070356056 0.021882772 -0.077772856 -0.07062821 -0.09681958 -0.10756959 0.09972304
0.122384086 -0.1195045 -0.09855075 -0.0003658533 -0.07988684 0.07496655 0.08931543 0.13649215
0.0772443 0.026132569 -0.12778589 -0.061526664 0.0324492 0.010070875 -0.11424519 0.009308532
0.103657454 0.07568321 0.008200392 0.06490114 0.05200365 -0.049709313 -0.029455118 0.13508315
0.062308222 0.13708673 -0.11689564 0.069509655 -0.022859491 -0.059466608 0.058022365 0.04655379
0.046808526 0.036656633 -0.13164869 0.105161026 0.08912602 0.13209699 0.10825023 -0.06165988
-0.018253446 0.07508911 -0.12484989 0.11767726 -0.037949547 -0.11283754 -0.07442378 0.11422093
0.13828556 -0.0152223855 0.10842538 -0.09102504 0.064563796 -0.0012341738 -0.10467951 -0.13612689
-0.14098057 0.11747427 -0.14011432 0.11235981 0.12710573 0.06855142 0.12995405 0.061893195
-0.13514043 0.07229364 0.03619045 0.1198747 0.01388973 0.04466082 -0.12301518 0.038108706
0.03799601 0.077879846 -0.038451113 -0.04885897 0.040656224 -0.0118715465 0.030714259 -0.086160034
-0.004674822 -0.114136435 0.04779975 0.06236887 -0.12517975 0.023231313 0.11104779 -0.11088939
-0.1151226 0.018708244 0.044212073 0.022261903 0.13616277 -0.11013301 0.016919598 -0.13561584
0.08147243 -0.10789393 -0.06508123 -0.049196333 0.06904113 0.06419183 -0.043382764 0.10379021
-0.009292051 0.056834385 -0.13652243 0.029482886 0.10264023 -0.08176074 0.08889645 0.120329425
-0.058644056 -0.11950593 -0.052695334 -0.013589919 0.010503143 -0.03064818 -0.09918452 0.11295824
-0.1327874 0.040027887 0.1164272 0.014678985 -0.049219392 -0.032948405 0.004428029 0.09587748
-0.08440016 -0.111128196 -0.027886175 0.039234996 -0.05274134 0.12677549 0.090735525 -0.056957692
-0.003914207 0.111318514 0.04078798 0.026363432 0.12194522 0.10610576 -0.06345623 0.1166306
00000000: 1c8d 963d 0c3c e3bc 9850 84bc 13cc ffbd
00000010: 78b4 0d3d 4f6e efbd c2c9 d93d c578 00be
00000020: f4d4 02be cba7 dcbd 8388 09be 7583 d1bd
00000030: 9a30 893d 007d be3b c1a9 c9bd c86c 9ebc
00000040: ca7b 3abd 8296 adbd c8c3 0dbe 709f b2bc
00000050: 8c7e 873d b8b3 a7bd fab1 923d dc71 4e3d
00000060: e07f edbc 745d 74bd 2e18 823d c058 233c
00000070: b02e 3c3d d091 383c 3c43 3cbd 2643 9e3d
00000080: 48c7 523d 82e2 aa3d 10db 02be f0eb 253d
00000090: 5866 a13d 4c24 6abd 32c9 07be b0f8 06bd
000000a0: 8086 f13b a8ac d13d b248 2abd 60a4 22bd
000000b0: 6467 08be 7e57 ec3d 0618 18bd 0a83 e03d
000000c0: 30ce cfbc 4006 f73c 8c5d 32bd 3422 d5bd
000000d0: d86a b6bd 4aff d53d d2c7 8bbd d4b0 d9bc
000000e0: aa00 eb3d c72b 97bd c0bd db3d a41a b7bd
000000f0: ec19 283d 503b db3d bc0b 0d3d 15e1 08be
00000100: d012 533c 0c5c 2cbd e849 973c f0de 07be
00000110: c27c e43d e202 d6bd d002 35bc 3162 0d3e
00000120: 8eea 00be 6285 e33d 1a4f 51bd 2664 ef3d
00000130: 74d2 c4bc ad0e b4bd f507 043e 3fe4 0a3e
00000140: 1c9d 2b3d c26c e0bd 889a 983c d665 ac3d
00000150: 9230 a2bd a521 b4bd e1e9 0b3e 9858 843d
00000160: 1ef5 ee3d 00c4 38b9 a887 9c3d fea7 c23d
00000170: 02cb 09be 98c7 d83d e074 d7bd 60a8 88bb
00000180: 206d 923d 1967 073e 543c 573d 0441 993d
00000190: 7039 7c3d 92e3 31bd a81b b63d 795a 093e
000001a0: c806 643d d616 90bd 8043 b33c 6047 9fbd
000001b0: 86a5 90bd 5849 c6bd 724d dcbd 983b cc3d
000001c0: 82a4 fa3d c6be f4bd fad4 c9bd 00d0 bfb9
000001d0: b69b a3bd 1088 993d 02eb b63d 99c4 0b3e
000001e0: 4232 9e3d f813 d63c 4eda 02be 6203 7cbd
000001f0: 74e9 043d 5000 253c 62f9 e9bd d082 183c
00000200: 5c4a d43d ccff 9a3d f05a 063c e4ea 843d
00000210: c801 553d fe9b 4bbd dc4b f1bc 3d53 0a3e
00000220: e836 7f3d 7760 0c3e fb66 efbd 145b 8e3d
00000230: d443 bbbc 4293 73bd dca8 6d3d 30af 3e3d
00000240: 4cba 3f3d 4425 163d eace 06be aa5e d73d
00000250: b487 b63d 6f44 073e 4cb2 dd3d 128f 7cbd
00000260: 4088 95bc 52c8 993d 4db1 ffbd c600 f13d
00000270: fc70 1bbd 5e17 e7bd 7f6b 98bd aaec e93d
00000280: bb9a 0d3e 5067 79bc 200e de3d 566b babd
00000290: 063a 843d 00c4 a1ba 3662 d6bd d964 0bbe
000002a0: 365d 10be 5a96 f03d 217a 0fbe e61c e63d
000002b0: 0128 023e b064 8c3d ad12 053e b883 7d3d
000002c0: 4162 0abe b00e 943d 703c 143d de80 f53d
000002d0: c091 633c 44ee 363d 62ef fbbd e017 1c3d
000002e0: b4a1 1b3d 787f 9f3d ea7e 1dbd 5820 48bd
000002f0: 2487 263d e080 42bc 789c fb3c ac74 b0bd
00000300: 402f 99bb 5dc0 e9bd acc9 433d 8076 7f3d
00000310: 1f2f 00be 984f be3c 066d e33d fa19 e3bd
00000320: 66c5 ebbd 0842 993c b817 353d 985e b63c
00000330: 416e 0b3e 6a8d e1bd f89a 8a3c e1de 0abe
00000340: 04db a63d 7ef7 dcbd 4f49 85bd 1882 49bd
00000350: 7065 8d3d 0277 833d 20b2 31bd f68f d43d
00000360: b03d 18bc 2ccb 683d 89cc 0bbe 1886 f13c
00000370: 0a35 d23d 2d72 a7bd 580f b63d 466f f63d
00000380: c034 70bd 86bf f4bd 10d7 57bd 40a8 5ebc
00000390: 6015 2c3c e411 fbbc 4121 cbbd a656 e73d
000003a0: 6cf9 07be 48f4 233d 6271 ee3d 2080 703c
000003b0: 469a 49bd e8f4 06bd 0019 913b 6a5b c43d
000003c0: fed9 acbd 2e97 e3bd 8c71 e4bc e0b4 203d
000003d0: 4e07 58bd 6fd1 013e 8cd3 b93d 784c 69bd
000003e0: c042 80bb f6fa e33d 4c11 273d 20f8 d73c
000003f0: 6abe f93d fa4d d93d 57f5 81bd 06dc ee3d

output.bias f4 [10]
0.041502967 -0.12913862 0.020069823 0.04894954 0.014919072 0.029731348 -0.089051895 0.00078317523
-0.14024265 0.1019886
00000000: 04ff 293d ea3c 04be 7869 a43c 507f 483d
00000010: 206f 743c 288f f33c d760 b6bd 004e 4d3a
00000020: c59b 0fbe 66df d03d
