New folder/price_prediction_model3.pth (torch, 28712 bytes, 6 tensors)

dense1.weight f4 [100, 8]
0	0xbde30c32	-0.110863104
1	0x3eb4d35f	0.35317513
2	0x3db5dd38	0.08880085
3	0x3e084dfc	0.13310999
4	0xbcd7ca20	-0.026341498
5	0x3df4fa1c	0.11961767
6	0x3e3a6866	0.18203887
7	0x3ceec9c0	0.029148936
8	0x3e3269d2	0.1742318
9	0x3eaa2ff9	0.33239725
10	0x3eaf2fe3	0.34216222
11	0xbe4dec8e	-0.2010977
12	0xbe93a714	-0.28838408
13	0xbdb695e8	-0.08915311
14	0x3e88358d	0.26603356
15	0xbd149370	-0.03627342
16	0x3c5663e0	0.0130853355
17	0xbe8f8b73	-0.2803608
18	0xbd795308	-0.0608702
19	0x3eaa640f	0.33279464
20	0x3d840e78	0.06448072
21	0x3e9b4415	0.3032538
22	0x3e3b254a	0.18275943
23	0x3c003d40	0.007827103
24	0xbbc08500	-0.00587523
25	0xbe04de77	-0.12975489
26	0xbdcd6a9c	-0.100301
27	0x3e8942cd	0.26808777
28	0xbe45d43f	-0.19319247
29	0x3e8d139d	0.27554026
30	0x3eb133ff	0.34609982
31	0x3e8d736f	0.2762713
32	0xbe840a1e	-0.2578897
33	0x3e2e533e	0.17023942
34	0x3e3a8616	0.18215212
35	0xbe8f0328	-0.27932096
36	0x3e562b6e	0.20915005
37	0xbe7889d0	-0.24271321
38	0x3ea16d57	0.31528732
39	0xbe98f90b	-0.29877505
40	0x3e31a19e	0.17346808
41	0x3dd76b70	0.10518539
42	0x3d624030	0.055236995
43	0xbd64d108	-0.05586341
44	0x3e8ab731	0.2709289
45	0x3cdf39e0	0.027249277
46	0xbe861b81	-0.2619286
47	0x3df00280	0.11719227
48	0x3d34ab98	0.044108957
49	0x3d9a4564	0.075327665
50	0xbe78b90b	-0.24289338
51	0xbe455355	-0.1927007
52	0x3d7ad350	0.06123668
53	0x3e37f472	0.17964342
54	0x3e400ec6	0.18755636
55	0x3e1dab92	0.1539748
56	0x3d54da00	0.051965714
57	0x3d369ad8	0.044581264
58	0xbe13a202	-0.1441727
59	0xbe016d82	-0.1263943
60	0xbe9c0ecb	-0.30480036
61	0xbe8d5ce8	-0.27609944
62	0xbdf1bac2	-0.11803199
63	0x3e80df2d	0.2517027
64	0x3e03b1f4	0.12860852
65	0x3e081560	0.13289404
66	0x3eafc985	0.34333435
67	0xbe06bd5a	-0.1315817
68	0xbe75d498	-0.2400688
69	0xbe95fa4e	-0.2929253
70	0x3e776bf2	0.24162272
71	0xbdc0e0a0	-0.09417844
72	0x3e854453	0.2602869
73	0x3d3792d0	0.044817746
74	0x3e346de6	0.17620048
75	0xbea20c54	-0.3165003
76	0xbe37f070	-0.17962813
77	0x3eaaa193	0.33326396
78	0xbeaa4ca1	-0.33261588
79	0x3e82f257	0.25575516
80	0x3e841313	0.25795802
81	0xbe52bccf	-0.20579837
82	0xbc1616c0	-0.009160697
83	0x3dbe655c	0.092966765
84	0xbe5b6c0e	-0.21427938
85	0xbdce7440	-0.10080767
86	0x3e3edb46	0.18638334
87	0x3c1ffda0	0.009765059
88	0xbea7d934	-0.327829
89	0x3e399ac6	0.18125448
90	0x3eb26481	0.34842303
91	0xbe9d2904	-0.30695355
92	0x3e8809f1	0.26570085
93	0x3df35388	0.11881167
94	0xbe7d5d2e	-0.24742576
95	0x3cc2b240	0.023766637
96	0x3dd476d0	0.10374224
97	0x3e6c4e76	0.23076805
98	0xbe9243ce	-0.28567356
99	0xbd7c7e68	-0.061643988
100	0xbc2e6160	-0.010643333
101	0x3d6c1968	0.057641417
102	0x3c82a430	0.015947431
103	0x3d150de0	0.036390185
104	0x3e78848a	0.2426931
105	0x3dfd0480	0.12354374
106	0x3ea9c2f5	0.33156553
107	0x3e81c1a1	0.2534304
108	0xbea36f50	-0.31920862
109	0xbe6a184b	-0.2286083
110	0x3d3839b0	0.04497689
111	0xbc4831a0	-0.012218863
112	0xbe82aede	-0.25524038
113	0xbe15045b	-0.14552443
114	0xbc944aa0	-0.01810199
115	0xbeaffa50	-0.3437066
116	0xbe2dece4	-0.16984898
117	0x3e3e1b82	0.18565181
118	0xbe040b98	-0.12895048
119	0x3e987637	0.2977769
120	0x3d87a5d8	0.06623429
121	0xbe9edd1d	-0.3102807
122	0x3ea95033	0.33069
123	0x3ea501dd	0.32227984
124	0x3e05d322	0.13068822
125	0x3c582940	0.0131934285
126	0x3e823c25	0.25436512
127	0x3e66ef1a	0.22552148
128	0xbe74f002	-0.2391968
129	0x3e24481a	0.1604313
130	0x3d303f60	0.04302919
131	0xbcc6e760	-0.02428025
132	0x3a190c00	0.0005838275
133	0xbd746c10	-0.05967337
134	0x3eb04d05	0.3443376
135	0x3d09eda8	0.033673912
136	0xbe4319e4	-0.19052845
137	0xbe962537	-0.29325268
138	0x3e8ee0b1	0.279058
139	0xbe9e9ef4	-0.30980647
140	0x3cbf60a0	0.023361504
141	0x3d170730	0.03687209
142	0xbe4b3830	-0.19845653
143	0x3e9db1df	0.30799767
144	0x3e92561f	0.2858133
145	0x3e4df7f2	0.20114115
146	0x3e988501	0.29788974
147	0x3dcaad94	0.09896389
148	0x3e8f6cdd	0.28012744
149	0xbe6e1476	-0.23249993
150	0xbe548df4	-0.20757276
151	0xbe73d0ec	-0.23810166
152	0x3d15ae08	0.036542922
153	0xbe65c721	-0.22439243
154	0x3e207222	0.15668538
155	0xbdef198c	-0.116747946
156	0x3dd200b4	0.1025404
157	0x3da4ef24	0.08053425
158	0x3d27ad18	0.04093656
159	0xbd345958	-0.044030517
160	0xbe8fe4ce	-0.28104252
161	0xbc33c180	-0.010971427
162	0x3e83b6d7	0.25725433
163	0x3eaffdb7	0.34373257
164	0xbe99ea4c	-0.30061567
165	0x3d99bd84	0.0750685
166	0xbdcd4bdc	-0.10024235
167	0x3de3afbc	0.11117503
168	0xbe0274ff	-0.12739943
169	0x3e6c6e12	0.23088863
170	0x3e0bf27e	0.13666722
171	0xbe83b37a	-0.25722867
172	0xbe7f651a	-0.24940911
173	0xbde12c34	-0.10994759
174	0x3eaf3fc1	0.34228328
175	0xbe4d87dc	-0.20071357
176	0xbe8a29ac	-0.26984918
177	0x3e8547bd	0.26031294
178	0xbe49667e	-0.19668004
179	0x3e95839b	0.2920197
180	0x3d7fb358	0.062426895
181	0x3dcb8e80	0.09939289
182	0xbe761bda	-0.24034062
183	0xbc897df0	-0.016783684
184	0xbe0b84a0	-0.13624811
185	0x3dbad488	0.09122568
186	0xbe3d0f75	-0.18462928
187	0x3e92a477	0.28641102
188	0x3e62b4ee	0.22139332
189	0x3e529b7e	0.20567128
190	0x3e1025f2	0.14076975
191	0x3e37a42a	0.17933717
192	0x3ea37ec7	0.3193266
193	0x3e36f332	0.17866209
194	0xbdf8a916	-0.121416256
195	0x3db864a4	0.09003571
196	0x3e832625	0.2561504
197	0xbe5e3066	-0.2169815
198	0xbd8cc48c	-0.06873426
199	0x3e854db7	0.26035854
200	0xbe68cdf4	-0.22734815
201	0x3ea96edd	0.33092394
202	0x3c9cb790	0.019130498
203	0xbde5c48c	-0.11219129
204	0x3ea65ec3	0.32494172
205	0x3e4093ea	0.18806425
206	0xbb81fcc0	-0.0039668977
207	0x3e81ea5b	0.25374112
208	0xbd077990	-0.033074915
209	0xbeb37710	-0.35051775
210	0xbe5a431d	-0.21314664
211	0x3d96eea4	0.07369736
212	0x3e35f2d6	0.17768416
213	0x3ea39e61	0.3195677
214	0xbeacb897	-0.3373458
215	0x3e9d0071	0.306644
216	0xbcf8a150	-0.030350357
217	0x3d89a394	0.06720653
218	0x3cddd240	0.027077794
219	0x3c3722c0	0.011177719
220	0xbe8b3576	-0.27189225
221	0xbea3025d	-0.3183774
222	0xbe70d3f2	-0.2351835
223	0x3eb3f1c1	0.3514538
224	0xbe4573d9	-0.19282474
225	0x3e8fd8c9	0.2809508
226	0x3db401f4	0.08789435
227	0x3bf8a7c0	0.0075883567
228	0xbe833e76	-0.2563359
229	0xbd169e70	-0.03677219
230	0xbd844a90	-0.06459534
231	0x3e716e9a	0.23577347
232	0xbdee122c	-0.1162456
233	0xbe4be557	-0.19911705
234	0x3d98f5b8	0.07468742
235	0xbd224940	-0.039620638
236	0x3e7cb43e	0.24678132
237	0x3e1352f6	0.14387116
238	0x3e9c8377	0.3056905
239	0x3d992550	0.0747782
240	0xbdb7a114	-0.0896627
241	0xbdbfcea0	-0.093655825
242	0x3e1ee83e	0.15518281
243	0xbe89649a	-0.26834565
244	0xbea8e94f	-0.329905
245	0x3ea958df	0.33075616
246	0xbe31290b	-0.17300813
247	0xbda013bc	-0.07816264
248	0x3e8059f1	0.2506862
249	0xbe7f5a54	-0.24936801
250	0x3c50f720	0.012754232
251	0xbce53320	-0.02797848
252	0x3e80efff	0.25183102
253	0x3daa6ad0	0.08321154
254	0xbe804156	-0.25049847
255	0x3df7b6b0	0.12095392

dense1.bias f4 [100]
0	0x3e165f62	0.14684823
1	0x3d874fc0	0.06607008
2	0xbe674e2c	-0.22588414
3	0x3e134832	0.14383009
4	0xbe0cf460	-0.13765097
5	0xbb031800	-0.0020003319
6	0x3c2060e0	0.009788722
7	0x3dea0e04	0.114284545
8	0xbc4f1720	-0.012639791
9	0x3e9ac28d	0.30226555
10	0x3e5584ae	0.20851395
11	0xbeb34aa5	-0.35017887
12	0x3e66f59a	0.22554627
13	0x3e9dd5e3	0.30827245
14	0x3e9c6911	0.3054891
15	0x3e8f3e7b	0.27977356
16	0x3e1de60a	0.15419784
17	0x3dd087f8	0.10182184
18	0xbe893371	-0.2679706
19	0xbe9cb7f6	-0.306091
20	0xbd8facc8	-0.07015377
21	0xbeb15a97	-0.34639427
22	0x3d6758f8	0.05648133
23	0x3e8ac22d	0.2710127
24	0x3ea99b1f	0.3312616
25	0x3add8300	0.0016900003
26	0xbdf1e1bc	-0.118106335
27	0x3df1784c	0.11790523
28	0xbe84b2f0	-0.25917768
29	0xbe9ae202	-0.30250555
30	0x3eb005c7	0.34379408
31	0xbe08839a	-0.13331452
32	0xbe6a17fc	-0.22860712
33	0xbe3a67ad	-0.18203612
34	0xbe0c5f06	-0.13708124
35	0x3e5b1b5a	0.21397153
36	0xbd9efa8c	-0.07762632
37	0x3af25f00	0.0018491447
38	0xbe8d8ee1	-0.2764807
39	0xbea452d2	-0.32094437
40	0xbe9cc7ab	-0.30621085
41	0x3eb139bf	0.3461437
42	0x3e8fd479	0.2809179
43	0xbe6aa3f0	-0.229141
44	0xbd83aa40	-0.06428957
45	0x3ea5decb	0.3239654
46	0x3e7deefe	0.247982
47	0x3cdd1ed0	0.026992232
48	0xbe96503f	-0.29358098
49	0x3cbe6aa0	0.023244202
50	0xbd75c390	-0.060000956
51	0x3e1cb396	0.15302882
52	0x3e727546	0.23677549
53	0xbe6333ad	-0.22187681
54	0xbe503e9a	-0.2033638
55	0xbe22ae28	-0.15886748
56	0x3e621fd6	0.22082457
57	0xbe6a2418	-0.22865331
58	0x3db1387c	0.08653352
59	0x3d927f64	0.07153204
60	0xbe4a8024	-0.19775444
61	0x3ea624c9	0.3244994
62	0x3c9c5b50	0.01908651
63	0xbea1b049	-0.31579807
64	0x3e8e36cf	0.2777619
65	0x3e7c85ca	0.24660411
66	0xbe3f51b8	-0.18683517
67	0xbd912bc4	-0.07088426
68	0xbe9b3a1e	-0.30317777
69	0x3cba7630	0.022761434
70	0x3cc16040	0.023605466
71	0xbe3de16a	-0.1854302
72	0xbeb47346	-0.35244197
73	0x3df826fc	0.12116811
74	0xbea32dc9	-0.3187087
75	0xbdc95de0	-0.09832358
76	0xbdca7e78	-0.09887403
77	0x3e99b8c3	0.30023775
78	0xbd3c4a80	-0.045969486
79	0x3e95ef65	0.29284206
80	0x3e01e79c	0.12686008
81	0xbe9c251f	-0.3049707
82	0xbe840766	-0.25786895
83	0xbe321b59	-0.17393245
84	0x3dce4f88	0.10073763
85	0xbe956c2c	-0.2918409
86	0x3e97bf55	0.29638162
87	0xbdcd1548	-0.10013825
88	0xbe8e405d	-0.2778348
89	0x3eab3ce3	0.3344489
90	0xbeaba77e	-0.33526224
91	0x3e60dd9a	0.21959534
92	0xbcd4df90	-0.02598551
93	0x3e2e3312	0.1701167
94	0xbd8632f0	-0.06552684
95	0x3e593816	0.21212801
96	0xbd056010	-0.032562315
97	0x3e61e3ea	0.22059599
98	0x3df79950	0.12089789
99	0xbbbe9440	-0.0058160126

dense2.weight f4 [50, 100]
0	0x3d78da16	0.060754858
1	0x3c6a6000	0.014305115
2	0xbd2f5273	-0.04280324
3	0x3bf612b0	0.007509552
4	0xbd1df9ca	-0.038568296
5	0xbd25c58a	-0.04047159
6	0xbdc9bba5	-0.098502435
7	0x3d849f27	0.064756684
8	0x3dc5423f	0.09631776
9	0x3d00c49e	0.03143751
10	0x3dade9ef	0.08491885
11	0xbd14f760	-0.036368728
12	0xbd0df41c	-0.03465663
13	0x3db16447	0.086617045
14	0x3b0c4a40	0.002140656
15	0xbdb05638	-0.08610195
16	0x3d445846	0.047935747
17	0x3dacedbb	0.08443781
18	0xbd9e5f4d	-0.07733021
19	0x3d431872	0.047630735
20	0xbc9b1768	-0.01893206
21	0x3ce3e02c	0.027816854
22	0x3daf25b7	0.085521154
23	0x3da61aa7	0.08110552
24	0x3d450ac2	0.048105963
25	0x3d690b66	0.056895636
26	0xbd96fb50	-0.07372153
27	0x3c2ec8d8	0.010668002
28	0x3d8f3399	0.06992263
29	0xbce1c388	-0.027559057
30	0x3db0223f	0.08600282
31	0x3da214d3	0.07914128
32	0xbdbbd85f	-0.09172129
33	0x3d990381	0.074713714
34	0x3d216b56	0.039409004
35	0xbd9e6ffd	-0.07736204
36	0xbc9095c8	-0.017649546
37	0xbd929945	-0.0715814
38	0xbc0b8ae8	-0.008517005
39	0x3bd20000	0.0064086914
40	0x3d88d419	0.066810794
41	0xbdb69a12	-0.08916105
42	0xbdb21aed	-0.08696542
43	0xbc81056c	-0.015749656
44	0xbd401807	-0.046897914
45	0x3d8cb3fb	0.06870266
46	0x3cbacff4	0.022804238
47	0x3c934dac	0.017981373
48	0x3d68cd52	0.056836434
49	0x3daca4d3	0.08429875
50	0xbdada89f	-0.084794275
51	0xbc915b40	-0.017743707
52	0x3d492c12	0.049114294
53	0x3d3e8aae	0.046518974
54	0x3db5a639	0.08869595
55	0x3da9686b	0.08271869
56	0x3d9a7423	0.075416826
57	0xbdb61512	-0.088907376
58	0xbd89b28a	-0.06723507
59	0xbd4f6670	-0.0506348
60	0xbd3309a0	-0.04371035
61	0x3dc4a5cb	0.09601935
62	0x3dccb65b	0.09995719
63	0xbd7f2ba7	-0.06229749
64	0x3d239802	0.039939888
65	0xbd6bc0cd	-0.057556916
66	0x3cd562ac	0.026048027
67	0xbc736ec0	-0.014857948
68	0x3d6edc12	0.058315344
69	0xbd360870	-0.04444164
70	0xbd64b5e0	-0.055837512
71	0x3d9ab2c3	0.07553627
72	0xbc30bf70	-0.01078783
73	0xbdafa54d	-0.085764505
74	0x3d964801	0.073379524
75	0xbba4bb60	-0.0050272197
76	0x3dc06637	0.09394496
77	0x3d0163da	0.031589366
78	0xbd8d683b	-0.06904646
79	0x3d081f16	0.03323277
80	0x3d6840b6	0.05670234
81	0x3c594430	0.013260886
82	0xbd64a00a	-0.055816688
83	0xbdac3f3b	-0.08410498
84	0x3c2b74b0	0.010464832
85	0x3d69f5c6	0.057119153
86	0x3cdddaa4	0.027081795
87	0xbd61256a	-0.05496732
88	0x3dc61fef	0.096740596
89	0x3d7ed03a	0.0622103
90	0x3db4d3e1	0.08829475
91	0x3ce846d4	0.028354086
92	0x3c13fa80	0.009031892
93	0xbdac7133	-0.084200285
94	0xbcb88274	-0.022523142
95	0xbdc0a3c0	-0.09406233
96	0x3d23485a	0.03986392
97	0x3b9915a0	0.0046717674
98	0xbd476c40	-0.04868722
99	0x3d72c66a	0.059271254
100	0x3dbe67f7	0.092971735
101	0x3d7e1a9a	0.062037088
102	0xbce76be8	-0.028249696
103	0xbd2d1bb7	-0.04226276
104	0x3ca22b68	0.019796088
105	0x3d9489d9	0.07252855
106	0x3d921ab1	0.07133997
107	0x3c644ef0	0.013934836
108	0xbdb88a5a	-0.090107635
109	0x3d1a9c06	0.03774645
110	0x3dbe9909	0.09306533
111	0x3d85b139	0.06527943
112	0x3dbf8fbd	0.09353588
113	0xbd796bfd	-0.060894
114	0xbd8d815d	-0.0690944
115	0x3caf5cf8	0.021406636
116	0xbda70803	-0.08155825
117	0xbd301237	-0.04298612
118	0x3c6e3390	0.014538661
119	0xbc614650	-0.013749674
120	0xbdb2ba85	-0.08726982
121	0xbd0365fc	-0.03207968
122	0x3cca8258	0.024720356
123	0x3c7f2b40	0.015574276
124	0xbdbe41ad	-0.092898704
125	0xbda19822	-0.07890345
126	0xbd7f67ad	-0.062354732
127	0x3da6a6b1	0.081372626
128	0xbd76a0c7	-0.060211923
129	0x3d1dbc4e	0.03850966
130	0xbd966ff0	-0.07345569
131	0xbdb391f7	-0.08768075
132	0xbdbd9a7b	-0.092579804
133	0xbd95b98a	-0.073107794
134	0x3cc040c0	0.023468375
135	0xbd8aff1c	-0.067869395
136	0x3da26489	0.07929332
137	0xbcdee654	-0.027209438
138	0x3d827bcb	0.06371268
139	0x3c7fc200	0.015610218
140	0xbdaf7be0	-0.08568549
141	0xbda80ef5	-0.08205978
142	0x3c6edd58	0.01457914
143	0x3dbe9639	0.093059964
144	0x3d76dd62	0.06026972
145	0x3bb5a530	0.0055433735
146	0x3b810d00	0.0039383173
147	0x3b8ea500	0.0043531656
148	0x3cc59eb8	0.024123535
149	0x3dcc6db1	0.099818595
150	0x3d8a9f51	0.067686684
151	0xbcff01a0	-0.031128705
152	0x3cfbe72c	0.03074988
153	0xbce2f948	-0.027706757
154	0xbd8851a5	-0.066561975
155	0xbd2cdf2a	-0.042205013
156	0x3d48c732	0.049018092
157	0xbd4df080	-0.050278187
158	0xbdc15a1a	-0.09441014
159	0x3db60345	0.08887342
160	0xbb1a7a00	-0.0023571253
161	0xbd7d9e73	-0.061918687
162	0xbd482d6d	-0.048871446
163	0x3d21534e	0.039386086
164	0x3cd33044	0.02577985
165	0xbdb43e82	-0.08800985
166	0x3dbb50e9	0.09146292
167	0xbd8fa330	-0.070135474
168	0xbd08c5fa	-0.03339193
169	0x3d95fff7	0.07324212
170	0x3d32b8ba	0.0436332
171	0x3dad6d75	0.08468143
172	0xbdab76db	-0.08372279
173	0xbdad3c70	-0.08458793
174	0x3db67509	0.089090414
175	0xbbcae360	-0.006191656
176	0xbc083240	-0.008312762
177	0x3d3fc26a	0.046816267
178	0xbd254197	-0.040345754
179	0x3d344c02	0.0440178
180	0x3c829f98	0.01594524
181	0x3c8d7654	0.017268337
182	0x3dcb34b5	0.099221624
183	0xbdaa4b4d	-0.08315144
184	0x3bf46880	0.0074587464
185	0xbd938c28	-0.07204467
186	0x3cc2910c	0.023750804
187	0xbdbd90e0	-0.09256148
188	0xbdae98b0	-0.085252166
189	0xbccb0e54	-0.024787106
190	0xbd94a93b	-0.07258841
191	0xbd55a70a	-0.052161254
192	0x3d13468a	0.035955943
193	0x3c9f164c	0.019419812
194	0xbd05d726	-0.032675885
195	0x3daaec4f	0.083458535
196	0xbd13cb04	-0.036082283
197	0x3caf2a54	0.021382488
198	0xbd79b7ad	-0.060966183
199	0xbceb28c0	-0.028705955
200	0x3c98eb68	0.018666938
201	0xbc948e88	-0.01813437
202	0xbd2976ed	-0.041373182
203	0x3d4b4662	0.04962767
204	0x3dbb5349	0.09146745
205	0x3d9103e5	0.07080821
206	0xbda84e38	-0.08218044
207	0x3d048776	0.032355748
208	0x3d6bd366	0.057574652
209	0xbcdd9f80	-0.027053595
210	0xbdb48518	-0.08814448
211	0xbd5a5663	-0.05330504
212	0xbc5511c0	-0.01300472
213	0xbda36c65	-0.07979659
214	0x3c10b028	0.008831061
215	0xbd13797a	-0.03600452
216	0xbdac8630	-0.08424032
217	0xbcbf48f8	-0.023350224
218	0x3b1dbdc0	0.0024069399
219	0x3dc4e7e1	0.0961454
220	0x3bc44d30	0.005990647
221	0xbdb8b6ff	-0.09019279
222	0x3cf5599c	0.029949956
223	0x3dc16775	0.09443561
224	0xbd9ddbd8	-0.077079475
225	0xbd3293aa	-0.043597855
226	0x3b27ad40	0.0025585443
227	0xbba88800	-0.0051431656
228	0x3d96ae67	0.07357483
229	0xbb908500	-0.004410386
230	0xbd7ad860	-0.061241508
231	0x3cc4d7d4	0.024028696
232	0xbda4be2b	-0.08044084
233	0x3db1d937	0.086840086
234	0x3d9d6793	0.07685771
235	0xbd8a2c45	-0.06746725
236	0xbaefc580	-0.0018293113
237	0xba33cc00	-0.00068587065
238	0xbca8f6ec	-0.020625554
239	0x3d6e22be	0.0581386
240	0x3c9883ec	0.018617593
241	0xbdc0b96f	-0.09410369
242	0x3d86ba05	0.06578449
243	0xbd5ffce7	-0.054684546
244	0xbdb9036a	-0.09033854
245	0x3d6b66ea	0.057471193
246	0xbcb95f20	-0.022628367
247	0x3d2c456e	0.0420584
248	0xbd962e92	-0.07333101
249	0xbcd979e8	-0.026547387
250	0x3c47ef98	0.01220312
251	0x3d5bf262	0.05369795
252	0xbd4affe3	-0.04956044
253	0x3da3d605	0.07999805
254	0x3c9d4c74	0.019201495
255	0x3c15f540	0.00915271

dense2.bias f4 [50]
0	0x3cc24d48	0.023718491
1	0x3d4f0dba	0.0505502
2	0xbd0c609a	-0.034271814
3	0xbdab7af6	-0.08373062
4	0xbb5e33a0	-0.0033905283
5	0x3db237f5	0.08702079
6	0x3bb6df60	0.0055808276
7	0xbdb4b78b	-0.088240705
8	0xbd1c4473	-0.038151216
9	0x3ab04880	0.0013449341
10	0x3db07261	0.08615566
11	0xbdc832b5	-0.097752966
12	0x3d86a289	0.0657397
13	0x3dc14d91	0.09438623
14	0x3d06a986	0.032876514
15	0x3d898479	0.0671472
16	0xbc6ad158	-0.014332138
17	0xbd62a24a	-0.055330552
18	0x3b473c40	0.0030400902
19	0x3d8c6d9b	0.06856843
20	0xbdbb1d1f	-0.09136414
21	0xbdbd60f5	-0.09247009
22	0xbc6b5698	-0.014363907
23	0x3d1fa37a	0.038974263
24	0x3d235e8e	0.039885096
25	0x3dbeeb67	0.09322243
26	0x3d89e935	0.06733934
27	0xbd91c4ab	-0.071175896
28	0xbd99f8a8	-0.075181305
29	0x3bdd2000	0.0067481995
30	0x3b6888c0	0.00354819
31	0x3ba14ba0	0.0049223453
32	0x3d418e8a	0.047255076
33	0xbdba5f38	-0.09100193
34	0x3d547696	0.051870905
35	0xbdb3bac7	-0.08775859
36	0xbcf5508c	-0.029945634
37	0xbdb2b875	-0.08726589
38	0xbdc89308	-0.09793669
39	0xbd7b76d3	-0.061392616
40	0x3da05c9f	0.07830166
41	0xbdc1beb3	-0.09460201
42	0x3d9ce799	0.07661361
43	0x3c8a2ea0	0.016867936
44	0xbc6ee2d8	-0.014580451
45	0xbc37e790	-0.011224642
46	0xbda8c57e	-0.08240794
47	0xbd4117d3	-0.04714186
48	0xbd80a050	-0.06280577
49	0x3db215eb	0.08695587

output.weight f4 [10, 50]
0	0x3dc80b3a	0.09767766
1	0x3d556a40	0.05210328
2	0x3e06a9e5	0.13150747
3	0x3e072929	0.13199295
4	0xbdc7e40a	-0.09760292
5	0xbdb2f1a6	-0.08737497
6	0x3caa1c50	0.020765454
7	0x3de7e986	0.11323838
8	0xbdf07491	-0.11740983
9	0xbd1cbe42	-0.03826738
10	0x3c80f268	0.015740588
11	0xbe06006e	-0.13086101
12	0xbb9105a0	-0.0044257194
13	0xbc3b64c0	-0.011437595
14	0x3d3b0eac	0.04566829
15	0xbd6b1a88	-0.05739835
16	0x3cf4f438	0.029901609
17	0xbe08be44	-0.1335383
18	0x3ca169d0	0.019703776
19	0x3da07d14	0.07836357
20	0xbd0d4e62	-0.03449858
21	0xbe0befee	-0.13665745
22	0x3d06be04	0.032896057
23	0x3d8b7f66	0.06811409
24	0xbc900fd4	-0.017585672
25	0xbc8fef44	-0.017570145
26	0xbdaeebd6	-0.08541076
27	0x3db13738	0.0865311
28	0x3b9634e0	0.00458394
29	0xbd8a750a	-0.06760605
30	0x3d314208	0.043275863
31	0xbdf1ade4	-0.11800745
32	0xbd382080	-0.04495287
33	0xbb9cbd40	-0.0047833025
34	0x3cd2afc8	0.025718585
35	0xbdee75f9	-0.11643595
36	0xbbb6af00	-0.005575061
37	0xbd30568c	-0.043051288
38	0xbe0e6619	-0.13906135
39	0xbdc422b4	-0.095769316
40	0x3d9c1b3a	0.076223806
41	0x3dae97cc	0.08525047
42	0x3d9ced96	0.076625034
43	0x3d578704	0.052618995
44	0x3df1c982	0.11806013
45	0x3da7183c	0.08158919
46	0xbd625194	-0.05525358
47	0x3d0a36c4	0.033743635
48	0x3da2c9c2	0.079486385
49	0xbcf21c00	-0.029554367
50	0x3d2ee10c	0.04269509
51	0x3dadb33a	0.084814504
52	0x3da7f1d8	0.08200425
53	0xbdb87388	-0.09006411
54	0xbdf20f28	-0.11819297
55	0xbddc6752	-0.10761894
56	0x3db09f36	0.08624117
57	0xbdad9fee	-0.0847777
58	0xbdf6ad99	-0.1204483
59	0x3c939b48	0.01801838
60	0xbe03bcb1	-0.12864949
61	0xbd0a4cbc	-0.033764586
62	0x3cec6478	0.028856501
63	0x3d4df6e8	0.050284296
64	0x3db010fa	0.08596988
65	0x3de1f07a	0.110321954
66	0x3d1f3d38	0.038876742
67	0xbc1c3100	-0.009533167
68	0x3e0ec413	0.13941984
69	0xbc16d0c0	-0.009205043
70	0x3d6c84b8	0.057743758
71	0xbe08d96a	-0.13364187
72	0x3ca71ad8	0.020398542
73	0xbe0e8dc7	-0.13921271
74	0x3da68930	0.08131635
75	0xbbc6d240	-0.006067544
76	0xbdd2ad6e	-0.10286985
77	0x3c2f18b0	0.010687038
78	0xbd93093e	-0.07179497
79	0x3dbc7fda	0.09204073
80	0x3c84c5a8	0.016207531
81	0xbd65da00	-0.056116104
82	0x3d506800	0.050880432
83	0x3dae5bce	0.08513604
84	0xbda7f9a8	-0.08201915
85	0x3d19387c	0.037407383
86	0xbdf7c9b2	-0.12099017
87	0xbc60a6b0	-0.013711616
88	0xbdc4fda8	-0.096186936
89	0xbd9699fe	-0.073535904
90	0xbdfe8c40	-0.12429094
91	0xbddc06be	-0.107434735
92	0xbdb67dba	-0.08910699
93	0xbdd525b1	-0.1040758
94	0xbdccf764	-0.100081235
95	0x3d5185e0	0.051153064
96	0xbd02c9b4	-0.03193064
97	0x3c119440	0.008885443
98	0xbd3abe80	-0.04559183
99	0xbdb6c914	-0.08925071
100	0xbd164f4e	-0.036696725
101	0xbdfdf676	-0.12400524
102	0xbb5033c0	-0.0031769127
103	0x3de37f0e	0.11108218
104	0xbd29f572	-0.04149384
105	0xbbe998c0	-0.007128805
106	0x3e065f85	0.13122375
107	0x3da07c48	0.07836205
108	0xbdcdc466	-0.10047226
109	0xbdddb92e	-0.10826336
110	0x3d2438ac	0.04009311
111	0xbd8cbc98	-0.06871909
112	0xbd0aa070	-0.03384441
113	0x3dbfb438	0.09360546
114	0xbdac1eae	-0.08404289
115	0xbdfdea16	-0.12398164
116	0x3ddf8f8e	0.10916053
117	0xbd85a899	-0.06526298
118	0xbc4fce20	-0.012683421
119	0x3da52970	0.08064544
120	0xbdb312f0	-0.087438464
121	0xbd07742e	-0.033069782
122	0x3d5336fc	0.05156611
123	0xbde065ea	-0.109569386
124	0xbddb375b	-0.107039176
125	0xba782d00	-0.0009467155
126	0x3d86abc6	0.06575732
127	0x3dac5178	0.084139764
128	0x3d7076d4	0.058707073
129	0xbdec1d27	-0.11528998
130	0x3e0459e3	0.12924914
131	0xbde94d20	-0.113916636
132	0x3d4980b4	0.049195006
133	0xbdec44a2	-0.11536528
134	0x3d8f40c2	0.069947734
135	0xbdf84fea	-0.121246174
136	0xbd72c164	-0.059266463
137	0x3e031619	0.12801398
138	0x3de26bba	0.110557035
139	0xbdc684b8	-0.09693283
140	0xbbdf8f60	-0.0068225116
141	0x3d978018	0.07397479
142	0x3bb4b180	0.0055143237
143	0x3e057191	0.13031603
144	0xbd675374	-0.05647607
145	0xbcf3e04c	-0.029770039
146	0x3dd42282	0.10358144
147	0xbdb74a9c	-0.089497775
148	0x3c5b7940	0.0133956075
149	0x3c41e650	0.011834696
150	0xbc85e890	-0.016346246
151	0x3dbbc91e	0.091692194
152	0xbced8108	-0.028992191
153	0xbd0fcf96	-0.03511008
154	0xbe102933	-0.14078216
155	0xbd90d195	-0.070712246
156	0xbd84bc81	-0.06481267
157	0xbc732e70	-0.0148426145
158	0xbd9255f9	-0.07145304
159	0xbdefc22c	-0.11706957
160	0x3d2a3bc0	0.04156089
161	0x3e0898bb	0.13339512
162	0xbccab3f4	-0.024744011
163	0xbe058cde	-0.13042018
164	0xbe0b69b7	-0.13614546
165	0xbdad471e	-0.0846083
166	0xbdf875c5	-0.12131838
167	0xbe0f4ff0	-0.13995337
168	0x3e101723	0.14071326
169	0x3cdfb548	0.027308121
170	0x3d345b04	0.04403211
171	0x3d2052d4	0.03914149
172	0xbd8e5e19	-0.069515415
173	0xbdca41c8	-0.09875828
174	0xbde11353	-0.10990014
175	0xbc9cf39c	-0.01915913
176	0xbe0e9376	-0.1392344
177	0x3d326358	0.043551773
178	0xbdf66bd2	-0.12032284
179	0xbe0775eb	-0.13228576
180	0xbd36dfd4	-0.044647053
181	0xbe0acd38	-0.13554847
182	0x3da06e3e	0.07833527
183	0xbdffb786	-0.12486176
184	0xbd339856	-0.04384645
185	0x3d93e230	0.07220876
186	0xbdc95105	-0.098299064
187	0x3dfd20ea	0.123597935
188	0x3dfbd3c6	0.12296252
189	0xbddb2fac	-0.10702452
190	0xbcb6baa8	-0.022305802
191	0x3d3704d4	0.04468234
192	0x3de17b9e	0.11009906
193	0xbe062b92	-0.13102558
194	0xbcceaec8	-0.025229827
195	0xbdba9f8e	-0.09112464
196	0x3dbe40c0	0.09289694
197	0xbe0117ad	-0.12606688
198	0xbd1e4a0c	-0.038644835
199	0x3d906070	0.07049644
200	0x3c3175a0	0.010831267
201	0xbdcbe46c	-0.099556774
202	0xbd91318a	-0.07089527
203	0x3c581ef0	0.01319097
204	0x3d677cec	0.05651562
205	0xbe022e54	-0.12712985
206	0xbcd76648	-0.026293889
207	0xbdbf31fc	-0.09335706
208	0xbd79aa22	-0.060953267
209	0x3d24c22c	0.04022424
210	0x3d850fce	0.06497155
211	0x3d3cec4c	0.046123788
212	0xbdfb9650	-0.12284529
213	0xbde987aa	-0.11402829
214	0x3de48eaa	0.111600235
215	0x3d80114a	0.062532976
216	0x3d888a4a	0.066670015
217	0x3d118084	0.035522953
218	0x3d62ce70	0.055372655
219	0xbdf84db8	-0.12124199
220	0x3d9aa22a	0.075504616
221	0x3c80b170	0.015709609
222	0xbb657640	-0.003501311
223	0xbdb62b52	-0.088949814
224	0x3cd17c40	0.025571942
225	0x3e03220b	0.12805955
226	0x3d1e656c	0.038670942
227	0xbd951fe2	-0.07281472
228	0x3dd75f38	0.105162084
229	0x3d4329bc	0.047647223
230	0xbb946120	-0.0045281798
231	0x3d9cf550	0.07663977
232	0x3d9907b0	0.074721694
233	0x3d13c73c	0.036078677
234	0x3d9fcb58	0.078024566
235	0x3d83b270	0.064305186
236	0xbd4479be	-0.047967665
237	0x3d2eb3c8	0.04265192
238	0xbd8b6861	-0.06807018
239	0xbd8240da	-0.06360026
240	0xbde1c16a	-0.11023219
241	0xbd7868a4	-0.060646668
242	0xbd755d34	-0.05990334
243	0xbd519fbc	-0.051177725
244	0xbdf6b43e	-0.12046097
245	0xbdb21dc8	-0.086970866
246	0xbda7503a	-0.08169599
247	0xbd2449de	-0.040109508
248	0x3dcbf06e	0.09957968
249	0xbcc6a880	-0.024250269
250	0x3c7bde50	0.015372828
251	0x3d28d6bc	0.04122041
252	0xbd41bc98	-0.047298998
253	0x3d89e41a	0.0673296
254	0x3cbbaf88	0.022910848
255	0xbdbb9910	-0.09160054

output.bias f4 [10]
0	0xbd6a42b8	-0.057192534
1	0xbd890fc5	-0.06692461
2	0x3d2032e4	0.039111033
3	0xbd4fea08	-0.0507603
4	0x3dd4e2c6	0.10394816
5	0xbe1059d2	-0.14096764
6	0xbdfcc880	-0.1234293
7	0xbce42bf8	-0.027852997
8	0xbd85cae7	-0.06532841
9	0x3df89aba	0.12138887
