New folder/price_prediction_model10.pth (torch, 198366 bytes, 13 tensors)

fc1.weight f4 [16, 8]
00000000: 2f19 a23f 2334 f5be b3da 393f 05b4 e63f
00000010: 45a6 92bc 36f1 0abf 5d1b 9bbc 181d 173c
00000020: 7a62 ecbc 8ca8 bd3e 49e7 823d 53e0 af3f
00000030: 3dad 803c b741 3abe 3909 9b3d 0e52 d4bc
00000040: e92b 983f 2b1e 073f e855 a0bf 6db1 f3be
00000050: b81a a0b9 af49 3e3f a0a1 62bd 5653 64bb
00000060: e515 083d 2e16 c93b 060d 883f 4ab4 513f
00000070: d5de 87bd 4625 713f a101 1cbe 6772 063d
00000080: 3936 993d bd53 a1be 9dcb 5fbf 9420 3f3f
00000090: 87e6 753a d9ef 6fbc 7047 c9bd 3f8f 99bc
000000a0: 23d5 2bbe 598e c93f 4b8a 0abf 699f 00bf
000000b0: f3ba a23a e72b 003f e7f9 94bc 82d6 a83b
000000c0: 0097 873d 14e1 173e fd8c a7be 752f 283f
000000d0: 5488 b53d 638a d13e 1ad0 57bf 3e9e c3bb
000000e0: 1247 bbbc 51e2 d63d 98d3 07bc da07 45bc
000000f0: 80fc 8bbe d38a a13f c675 40bf 844b 33bc
00000100: 8800 b0bf ea23 88bf 1bc6 9cbd 91bc f93e
00000110: d700 bf3b 2929 c2be 3b5e 8f3d bb10 9abb
00000120: f1c9 06bf a24b cebd a6aa c5be 1a23 c73e
00000130: 79a8 3c3d 8d6f b03f f251 9dbd 2b16 37bc
00000140: 7aa4 b1bd 551d 1d3d aeb2 51be c9c9 373e
00000150: f65c a13f 5425 a73d 3f3c 353f 5c60 fb3c
00000160: 8195 eebf 238f df3d 1664 463e 9e81 f6be
00000170: 74a5 293d 8ea8 8abe 95c2 d23d 1c2b bebb
00000180: 6225 52bf fc6f 573f 7c42 2e3c 61b7 3e3f
00000190: 42c1 ebbb 5fb7 d23d 59c3 3bbd b2e6 193c
000001a0: fdf0 b3bf b8db 3f3e 9cd0 52bf 7ab0 be3e
000001b0: 5e9c 72bd 62f0 66bf 00e9 96be 4d99 143c
000001c0: 4dfb 8cbe 07be 813d cdee 7fbf ec24 8d3f
000001d0: f16a fbbd 25bd 0d3e f625 893d a832 dfbb
000001e0: 35f9 15bf bc2e 29be cf46 ba3d b3ba 73be
000001f0: 6f20 143c 75dd 0a3f 3a40 12be 2bc8 223c
1.2663935 -0.4789134 0.72599334 1.8023688 -0.01790155 -0.5427431 -0.018933946 0.009223245
-0.028855551 0.37042654 0.063917704 1.3740333 0.015707606 -0.1818913 0.075701185 -0.025918033
1.18884 0.5278041 -1.2526217 -0.47596303 -0.00030537485 0.7433118 -0.05532992 -0.003483971
0.033224005 0.006136677 1.0628974 0.81915724 -0.06634299 0.941975 -0.15234996 0.032823946
0.07481045 -0.315092 -0.87420064 0.74659085 0.00093803596 -0.0146445865 -0.09828079 -0.018745063
-0.16780524 1.5746566 -0.5411727 -0.5024324 0.0012415334 0.5006699 -0.018185569 0.0051525244
0.06620598 0.14831954 -0.32724753 0.65697414 0.08863893 0.40925893 -0.8430191 -0.0059697917
-0.022861037 0.10492385 -0.008290194 -0.012025798 -0.2734108 1.2620491 -0.7517971 -0.010943297
-1.3750162 -1.063596 -0.07654973 0.48776677 0.0058289575 -0.37922028 0.07000395 -0.0047017015
-0.5265189 -0.100730196 -0.38606757 0.38893968 0.046059106 1.3784043 -0.076816455 -0.011174719
-0.086739495 0.03835805 -0.20478317 0.17948069 1.2606494 0.08161417 0.70795053 0.030685596
-1.8639375 0.10915973 0.19374117 -0.48145765 0.041417554 -0.27081722 0.1029102 -0.005803479
-0.8208829 0.8415525 0.010635968 0.74498564 -0.007194669 0.102888815 -0.045840595 0.009393381
-1.4057919 0.1873616 -0.8234956 0.37244016 -0.059231155 -0.90210545 -0.2947464 0.009069753
-0.27535477 0.06335073 -0.99973756 1.1026893 -0.12276257 0.13841684 0.066966936 -0.0068114586
-0.58583385 -0.16521734 0.09095537 -0.23801689 0.009040936 0.54244167 -0.14282313 0.009935419

fc1.bias f4 [16]
00000000: 1a4c 1dbe 0577 e6be 2c49 393f a12a bf3e
00000010: 7d74 ae3f 4ae3 23be afd2 a6be f551 babf
00000020: 62db 67be d9ec dd3e 3eb7 0bbf b5b3 50bf
00000030: f2a2 18ba de9f 733d a6aa c83e afe9 a53e
-0.15361062 -0.4501268 0.72377276 0.3733721 1.3629299 -0.16004673 -0.32582614 -1.4556261
-0.22642282 0.43344763 -0.5457648 -0.8152421 -0.00058226206 0.059478633 0.39192694 0.3240485

fc2.weight f4 [256, 16]
00000000: 937b 2bbf 14a9 4cbe bf4e 02bf 1cf4 6fbc
00000010: 0fd7 4ebe 149b 9dbe dfb6 923e cf03 fd3c
00000020: 0f15 0cbf 18a1 39bd bad4 84bd 65ce 3cbf
00000030: cf4e 8e3c f311 20bf 8d21 2ebd 596b 993c
00000040: cd34 3d3e c824 05c0 bdef 253e 3899 3bbf
00000050: 286d 95bf d0ea 56bf d435 8ebf bc48 e83c
00000060: 933e a2be 81b2 6a3f f532 1f3f 5cd5 b33e
00000070: cb8c 6b3f d7d5 333e a483 b5be 7aee 0f3f
00000080: 715a 65be 0443 71bf bbfe 1cbf 5871 26be
00000090: 4b66 403f aeed e03e cf4a e73d c3f1 303e
000000a0: 5dc8 74bf 3ecd aebe 0116 3cbe 7827 50bf
000000b0: 38d3 80c0 6116 7f3e 1eac 823f 1f54 463f
000000c0: ecef 5cbf 09f3 7fbb f2fb d5be 4606 e4be
000000d0: dff2 a7bb 8ffa 8abc 4913 c03d 92cf d23e
000000e0: 825c c6be d15d bf3f 59f2 153d 091e 2cbf
000000f0: cfda 933e 9468 33bf c33b 2b3f 93e4 a03e
00000100: 0018 6ebe 2370 4cbf 1a31 a13e 1fd6 a0be
00000110: 5d95 a3bf 6c51 703f 97de cc3d a77d 283f
00000120: c064 1b3e 87f4 2bbf e5d0 133d 87bb 243f
00000130: 7b62 163f 2311 afbe ea4c e53e 2adb 273f
00000140: 77ab 973e 012f acbe ef62 e6bf b98d 363f
00000150: 0abf 5abf 289a 5abe 93fc 12bf 4067 503f
00000160: aca0 a13d 5353 d1bc 6ef5 113e e39e b2bf
00000170: 3fca 21c0 7fa3 40bf 76c2 87bf 654d 763e
00000180: 7a46 80be 7032 9abd 831c 53be 456b 8c3f
00000190: 2114 03bf 7ebe da3e 54cf 713b df93 38c0
000001a0: 99d3 adbf 7151 29c0 2cd7 5e3e 3c5f 653e
000001b0: 4b74 5e3e 48f1 9bbd 31a1 0abf 7935 99bc
000001c0: 6c8a d3be 3893 c4bf 401c 2e3f 37ad 3f3e
000001d0: 9e19 4bbf 0f6b 17bf 0647 903d 369a c2bd
000001e0: 0eee 3abe f13e bebf 4bed 53be 9a81 593f
000001f0: 79b9 503e cdad 61bf 7abe 943f a34a 273f
00000200: d434 54bf f28a bbbe dad8 13bf c156 07be
00000210: 41bc 06bc 458d 80be 569b 2bbe bf9a 7ebd
00000220: 6788 9abf 4465 ba3d 40dc 1d3d 0b4f 6abf
00000230: 3377 cc3d 5470 8dbf 2901 eebd 65f0 abbb
00000240: 903e 50bf 8b94 053f 044a ad3e 502e b0be
00000250: 3895 073d c9b4 aebe f80f 153f e01d c13e
00000260: 2152 8bc0 cede e5be c762 0f3f 958a 093f
00000270: d327 fcbf 71fe 973e c304 8c3f 18c7 d5bf
00000280: f9a0 28c0 ceb6 17bf e6f9 31bf 2e0d 443f
00000290: 862f a7bf 6292 00be fd87 31bf e8ac c0bd
000002a0: 1875 2bbe 71b2 183f f0c1 09bf a9b8 593e
000002b0: 6317 f13e f05b bd3d 4267 34bf 48e8 be3e
000002c0: 1c0f a8c0 dc78 843e 8b74 13bf e09f 0bc0
000002d0: 61f2 bebd eae6 933e 8c57 09c0 e3b8 27bc
000002e0: 8ff2 543c d6ba bbbd 295b bb3f 36f3 a7be
000002f0: e58c 9a3e a061 16bf d3c0 f13e 00ab d2bd
00000300: 2eee b6bc a9f7 f93e aa29 46bf a833 f73b
00000310: 1919 483e a477 8abf 9075 6b3e f7d7 5ebe
00000320: c418 0d3d 9ec9 953d 0875 af3d cabe 86ba
00000330: c819 f93e 6d7e 103e 207f 543f 95c8 9cbe
00000340: d797 1dbf aea9 9fbe 174b d7be 6a62 f9bd
00000350: f7f1 3fbd 01c5 c6bd 74f6 d1bc 1bbb 4ebe
00000360: 5166 29bf 2649 3bbd 418e 19be e5ea 20bf
00000370: 9724 a03d c35c 2dbf bf99 61bb 459d 22bd
00000380: 7bf3 60bf 2627 bbbd f43c 4dbf 3f33 99bc
00000390: d693 0cbe 8252 7fbd dced 17be f899 a8bd
000003a0: 13e9 5dbf 8d12 3c3e b571 5a3d b584 93bf
000003b0: d4fe b9bd f2bf 81bf 028c 9d3c 6b4b 8cbe
000003c0: a03c 07bf 517f 193f f7a2 ebbf 64b8 653e
000003d0: c188 87bf ddec 9f3f 2c28 1bbf 26ef fbbc
000003e0: af76 91bf be5c 33bd aa30 22bf 562b e03c
000003f0: 929b ef3e c170 2ebd ee00 13be 5a6a 52be
-0.66985434 -0.19986373 -0.50901407 -0.014645603 -0.20199226 -0.30782378 0.28655145 0.030885605
-0.5471963 -0.045319647 -0.06485887 -0.73752433 0.017371563 -0.6252739 -0.042512465 0.018727945
0.18477173 -2.08037 0.16204734 -0.7328067 -1.1673937 -0.83952045 -1.1110177 0.028354995
-0.31688365 0.91678625 0.6218713 0.35123718 0.9201171 0.17562042 -0.35451996 0.5622326
-0.22397782 -0.9424288 -0.6132619 -0.16254175 0.75156087 0.43931335 0.112935655 0.17279725
-0.9561823 -0.34140962 -0.18367769 -0.81310225 -4.0257835 0.2491088 1.0208776 0.7747211
-0.8630359 -0.0039054772 -0.41793782 -0.44536036 -0.005125388 -0.016965179 0.09378678 0.4117399
-0.38742453 1.4950505 0.036608074 -0.6723333 0.28877875 -0.7008145 0.66888064 0.31424388
-0.23251343 -0.7985861 0.31482774 -0.3141336 -1.2779957 0.9387424 0.10003393 0.6581673
0.15175152 -0.67169994 0.03608789 0.64348644 0.5874402 -0.34192762 0.44785243 0.6556879
0.29623005 -0.3362961 -1.7998942 0.7131 -0.8544775 -0.21347868 -0.5741665 0.81407547
0.07891974 -0.025552427 0.1425378 -1.3954738 -2.5279691 -0.75249475 -1.060622 0.24052961
-0.2505377 -0.075291514 -0.20616345 1.0970236 -0.5120259 0.4272346 0.0036897259 -2.8840253
-1.35802 -2.6455958 0.21761769 0.2239961 0.2172405 -0.0761438 -0.5415221 -0.018702256
-0.41316545 -1.5357428 0.68011856 0.1871842 -0.79335964 -0.59147733 0.07044797 -0.0950207
-0.18254873 -1.4862958 -0.20695989 0.8496338 0.20383252 -0.88155824 1.1620629 0.6534826
-0.8289311 -0.36629444 -0.57752764 -0.13216688 -0.008223594 -0.2510778 -0.16758475 -0.062159296
-1.2072877 0.09101346 0.038540125 -0.9152686 0.09983673 -1.1049905 -0.11621315 -0.005247163
-0.8134546 0.52179784 0.33845532 -0.34410334 0.03310129 -0.34122303 0.5822749 0.37718105
-4.3537755 -0.4489655 0.560101 0.53727084 -1.9699653 0.2968631 1.0938953 -1.6701384
-2.634825 -0.5926331 -0.6952194 0.7658261 -1.3061378 -0.1255584 -0.69348127 -0.09407979
-0.16743886 0.5964728 -0.5381155 0.21261849 0.47088155 0.09246051 -0.7047006 0.37286592
-5.2518444 0.25873458 -0.57599705 -2.181633 -0.09323574 0.2888711 -2.1459684 -0.0102369515
0.012997284 -0.091664955 1.4637195 -0.32802743 0.3018562 -0.58742714 0.47217426 -0.10286522
-0.02233037 0.48821762 -0.77407324 0.0075439997 0.19540824 -1.0817761 0.22994065 -0.21762072
0.034447446 0.07313846 0.08567244 -0.0010280248 0.48652482 0.14110728 0.8300648 -0.30621782
-0.61559814 -0.31184143 -0.42049477 -0.12176974 -0.046861615 -0.09705544 -0.025630213 -0.20188563
-0.6617175 -0.045724057 -0.14995672 -0.6285842 0.07819479 -0.6771967 -0.0034423915 -0.039700765
-0.8787152 -0.09138326 -0.8017113 -0.018701194 -0.1372827 -0.062334545 -0.1483683 -0.08232492
-0.8668377 0.18366452 0.053331096 -1.1524874 -0.09081808 -1.0136702 0.0192318 -0.2740129
-0.5282688 0.59959894 -1.8409108 0.2243362 -1.0588609 1.249416 -0.6060817 -0.030753683
-1.1364344 -0.043789618 -0.63355505 0.027364414 0.46798378 -0.042588 -0.14355823 -0.20548382

fc2.bias f4 [256]
00000000: 924d 11be c746 32bd e24d 003f 4b16 3fbf
00000010: 7dd7 7a3e 173b cdbe 04d0 c73e 0df1 c13e
00000020: cbf6 533d 4ff1 c83e 8e1b 0dbf 197d 0d3f
00000030: 1260 60bf abee 6b3b 54b7 c8ba 6ecc 3bbf
00000040: 5f04 383f 4f89 ccbd 3c12 91bc 9e9f 073f
00000050: 4afe 6fbf 3de5 ebbd 230e 3f3f 325e 0f3f
00000060: f9e3 ae3e d5bb afbf 8db7 4f3e 72c8 8cbe
00000070: 4365 673c 6c57 11bf 6be4 43bf 2444 883f
00000080: 9f6b c1be a2ae 3d3e 8183 86be 4fd3 98bd
00000090: 2a94 393e 75e4 1a3f be68 97bf b42a b73e
000000a0: dc82 193f d8fc c13c bf81 993e af4d 1e3e
000000b0: 97f4 acbf b6fa 0c3e 6da9 f8bd f769 6f3e
000000c0: 91eb 04bd 4a69 c13e 00b9 083f 7da8 e0be
000000d0: 1edd c6be 9c2a 1c3d 4e64 7bbd 5d4a 8b3d
000000e0: 6c5c 85bf 1203 a83e 021f ec3e 7620 073f
000000f0: ff66 8cbf 9dce 5cbf 9394 0b3d f112 2e3e
00000100: 9410 febe 5178 873c 4d89 193f 20ff 5f3e
00000110: 66d8 cf3e 56ce cf3e b652 683f a510 a53e
00000120: a150 83bf d3d8 9ebf 1f68 91bf 1ade 413f
00000130: 65a1 f43e 79d8 a9be f503 113f d727 033f
00000140: 28da b63e 247c babe bd8e 1d3f e03c 473f
00000150: af6a 8d3e f992 873d 040a 9f3d 78c8 333e
00000160: e75e 13bd f3e8 503d d7d8 5e3e f792 d73e
00000170: 668c 61bf 33a5 613e 4337 f93c 9940 07be
00000180: bb42 d23c 9b08 fc3c 8b9a 22be 21e1 593f
00000190: 2d72 2abe c7b7 003f 3b2f 04be 6ae8 463e
000001a0: 7f74 4cbe c72b d93e 6c2b 833c 09ec c3be
000001b0: aebf f93e cb1f a0be 0ba9 1ebe 46ef b2bb
000001c0: 902e 94bc 16f5 0a3f 882c 72be 07ec d9bd
000001d0: c00b c7be 2518 03bf c93f 443e 18de 1f3f
000001e0: aa4e e43e 7cae 01be 8bf3 1fbf dad1 27bf
000001f0: 98c5 9bbe ae61 713d aea5 063f 0b17 4abe
00000200: 61a9 5e3f 615d 44be e981 283f 15e3 4e3d
00000210: 3510 bdbf 4d4c 0abd 782e 42bf f9b2 133d
00000220: ef36 df3d 23f0 49bf 0d8e 0ebe 0f07 2ebe
00000230: cc08 20bf a212 c4be 889a 36bf ead1 063f
00000240: 257d 613e a3d5 b0bd f4f3 c7bd 31c5 31be
00000250: 7829 2d3d 615a b6b9 9883 e13e acab cfbe
00000260: 8236 05be d5c4 633f d881 43be 8494 003e
00000270: d836 42bb 7151 2ebe db6f 31bf dd47 1abf
00000280: 79fd 29bf 6a01 943b 3254 c33d 1634 0bbe
00000290: 3903 23bf 80ff eb3e da80 08bd b03f 46bd
000002a0: 61fb 12bf b0ab 1cbe ec72 153f caeb 8fbf
000002b0: 50b7 85bf 0e50 3ebe d87e a5be 325b 033d
000002c0: 5551 e83e a755 06bd d470 783e 88b4 0f3f
000002d0: d6fc ed3b 56c1 7b3e c751 d23d 34cd f7be
000002e0: 2e75 27be 604d ebbd bda2 9c3e 7dc0 873f
000002f0: 5cff 8dbd 4e04 a9bf cda1 8a3f 7237 283f
00000300: 8bc3 0e3f c5fa fc3c b971 513f ec57 9a3f
00000310: 87e0 3d3f d90e 3abe 86d6 cabe c1d1 183f
00000320: 3d3c c33e 2afe c2bd 0b9d fc3b 3492 173d
00000330: 063d 70bd 81d8 d0be 2473 a3be f795 c23e
00000340: e4b2 c2be 7392 143f 6eec 743e 7668 8d3e
00000350: e782 12bd 9b3b 6d3f 95da ef3e cec5 34be
00000360: ba7c bc3f afbd ad3f 1708 0e3f d5d5 1fbe
00000370: a96f 31bf 2762 29bd 3caa bebd 227f 11be
00000380: 39f2 683f 18cc 30bf a83f 163f a81e 843f
00000390: 673a 2ebd 3343 0cbf f985 8fbd 1518 e63c
000003a0: b92d 0bbf d6c1 0f3f e268 443f 9e8d 39bd
000003b0: 5981 f13e 3e3d 9b3f dae7 903d 9465 ebbd
000003c0: 6a58 24be f1d2 2d3e 8f74 ba3e 2140 f2bc
000003d0: b4d4 c93e add9 993e d615 09bf 04f7 a6be
000003e0: 325e aabf b72c 073f 3df7 d8be e125 413f
000003f0: 406e d33e d0a0 3fbf f98c 10be b5e5 75be
-0.14189747 -0.04352453 0.5011884 -0.7464339 0.24496265 -0.40084144 0.3902589 0.3787922
0.051749032 0.39246604 -0.5512017 0.5526901 -0.8764659 0.0036000411 -0.0015313425 -0.7335881
0.7188167 -0.09987127 -0.01770889 0.5297793 -0.9374739 -0.11518333 0.74630946 0.56003106
0.34158304 -1.3729197 0.20284863 -0.27496678 0.014123264 -0.5677402 -0.76520413 1.0645795
-0.3777742 0.18523648 -0.26272205 -0.07462179 0.18122926 0.6050485 -1.182884 0.35774767
0.599653 0.023680136 0.299818 0.15459321 -1.3512143 0.13767514 -0.121416904 0.23380266
-0.032451216 0.37775642 0.5340729 -0.43878546 -0.38840574 0.038126573 -0.061374955 0.06801293
-1.041883 0.32814842 0.46117407 0.52783906 -1.0968932 -0.86252767 0.03407724 0.16999413
-0.49622023 0.016536864 0.5997513 0.21874666 0.40594786 0.4058711 0.90751207 0.3223926
-1.0258981 -1.240992 -1.13599 0.75729525 0.47779384 -0.33172968 0.5664666 0.51232666
0.35713315 -0.36422837 0.61545926 0.7782726 0.27620456 0.0661983 0.07765582 0.17556942
-0.035979178 0.051003408 0.21762405 0.42104313 -0.88104856 0.22035675 0.030421859 -0.13208236
0.025666585 0.030765822 -0.15879266 0.85109144 -0.16645117 0.5028042 -0.12908642 0.19424596
-0.19966315 0.42416212 0.016011916 -0.38266018 0.48779052 -0.31274256 -0.15494172 -0.0054606525
-0.018088609 0.5428022 -0.236498 -0.10640722 -0.38876152 -0.51208717 0.19164957 0.62448263
0.44591266 -0.12664217 -0.6248099 -0.65554583 -0.3042419 0.058931045 0.5259656 -0.19735353
0.869772 -0.19176246 0.6582323 0.05050953 -1.4770571 -0.033764172 -0.75852156 0.036059354
0.108991496 -0.78882045 -0.13921376 -0.1699488 -0.6251342 -0.38295466 -0.71329546 0.52664053
0.22020395 -0.08634498 -0.09763327 -0.17360379 0.042275876 -0.00034781083 0.4404571 -0.40560663
-0.13009074 0.88972217 -0.190925 0.12556654 -0.002963474 -0.17023255 -0.693113 -0.60265905
-0.66402394 0.00451677 0.09537543 -0.13594088 -0.6367679 0.4609337 -0.033326007 -0.04840058
-0.57414824 -0.15299869 0.5837848 -1.1243832 -1.0446568 -0.18585226 -0.32323337 0.032069393
0.4537455 -0.03279653 0.2426179 0.56134844 0.0072628064 0.2458547 0.10269504 -0.48398745
-0.16353294 -0.114893675 0.3059291 1.0605618 -0.069334716 -1.3204439 1.0830628 0.657096
0.55767125 0.030881295 0.8181415 1.2058082 0.74170727 -0.18169726 -0.39616793 0.5969506
0.38131896 -0.09521134 0.0077091507 0.037004665 -0.058651946 -0.4079018 -0.31923783 0.3800504
-0.38027108 0.58035964 0.23918316 0.2761876 -0.03576937 0.92669076 0.46846452 -0.17653582
1.4725564 1.3573512 0.55481094 -0.15608914 -0.69311005 -0.04135337 -0.093098134 -0.14208654
0.909946 -0.6906142 0.5869088 1.0321856 -0.042536166 -0.5479004 -0.07007975 0.028087655
-0.5436664 0.56155145 0.7672254 -0.045301072 0.47168997 1.2128065 0.07075472 -0.11493984
-0.16049352 0.16974999 0.36417052 -0.029571595 0.39420092 0.30048886 -0.53548944 -0.32610333
-1.3309996 0.52802604 -0.42376128 0.75448424 0.41295052 -0.74854755 -0.14116277 -0.24013408

fc3.weight f4 [128, 256]
00000000: e4ca 3abe 4d02 45bf 48e7 1c3f d9ce 4e3f
00000010: cc15 a9be 29bf 5e3e 226e 433e 7685 e43f
00000020: 88cc 80be 9174 debf ffe2 cbbf bbc9 9d3f
00000030: 86aa ea3e b258 1bbe aef6 ccbe 0af6 723e
00000040: 4cc0 c53f d9eb ffbc a000 4e3f 4dad c23d
00000050: 5a51 5f3e b496 113f d76f fe3e 9898 21bf
00000060: be5b 8a3e 4518 4abf db45 96bf 528d dc3e
00000070: c264 38be 8d6c a83e 7783 a73d 45c3 bf3f
00000080: d0a6 513c 5ba3 9cbf 9d59 763e 4516 a1be
00000090: 3abd 49be 10d4 acbe 8706 413f 04fb 81bf
000000a0: df90 29bf e662 17bf 0d64 513f 7f32 03bf
000000b0: a394 3ebe 685a ba3b 41c1 383e a60e edbf
000000c0: c51c 6bbe 1e09 40bf a025 78bf dae7 c13e
000000d0: 4028 3bbe a015 bc3e e2a2 a4bd 8945 93be
000000e0: 4536 bcbf 7cf3 33be d5bb ec3f aea0 85be
000000f0: a4fb ce3d 24f7 d9be 795e 8e3e 6f59 343e
00000100: 1747 09bf 0c75 87be 174e 2d3e 6950 073f
00000110: ce2e 903f 8258 283e f71f 35be 9b05 703e
00000120: 565e a4be c9d5 ca3e 2dbe 053f 3319 9c3d
00000130: 3748 9bbf c14a c9bd 9c10 cb3e f630 f43e
00000140: 7dfc 0cbf f506 afbe ac71 8fbf f998 5dbe
00000150: c480 32bf 578f a83f ecd3 3fbf 2c63 abbf
00000160: 0693 89be ca55 7e3e 1174 c73f 1a7b ff3e
00000170: 67ec ecbe 681f c83c 708b 8b3e 7724 09bf
00000180: 0dc9 98bf 1840 0bbf a9dc ca3f 0367 903e
00000190: 1f5a bbbe f498 b9bd f719 203f 4782 8dbe
000001a0: c544 1a3f 931e ae3f 66eb a5be 6b01 56bf
000001b0: f07a 423e 5c08 d13f b52f e1bc f39a afbe
000001c0: 66a0 02bf 059d 563e 0a57 eabf 84c4 613f
000001d0: 3237 343e 5211 bd3e 3d2e 263f 8a98 17bf
000001e0: 8f49 273f f7f3 eabe aeeb 43bf 4dcc 96bf
000001f0: 751b c9bd 2691 3cbe 89ad ae3f ad11 c33e
00000200: 546b 2c3f ab83 dc3c 7991 2abf 4bf9 08c0
00000210: bce2 5ac0 1c43 0ebf e3f7 783e 65a0 113f
00000220: b21d 49be ba4d af3f 016e 0fbf 2fc0 893d
00000230: cd78 b1bf 9100 0240 c06e cbbe 8c89 3dbf
00000240: 405f 613f ed84 26be b4f0 7e3d 37a8 b73f
00000250: 04b6 f7be 7bd5 4bbc dd51 85bf 8d09 9ebf
00000260: 6f2f 013e ba0d 083f 4aeb 80be 7a6e 5abe
00000270: 677c 6bbe be8d 75bf eaa6 013f 2693 86bf
00000280: c642 7abf 2aa6 1ebf 5ce0 3e3f b8a8 a53c
00000290: f406 173f 502d 65bf 793a 083e 6e36 a6be
000002a0: eaf1 2f3f f5ae 64bf 3e56 983c ff86 adbe
000002b0: f405 05bf 5f43 8abf 8d64 903f 2a4d 6dbd
000002c0: e7fd 36bf 97d6 d2be 6968 45bf d3a0 d1be
000002d0: 0514 02bf c1e0 9dbf 2d11 0f3f b401 e43e
000002e0: 5205 0240 5f26 c73c 845f 043e eb62 ad3f
000002f0: a67c 24bf 84a9 4c3f 8b87 fbbe 2719 463e
00000300: 7de8 73bf 6318 853e 13bd a3bd 0daf 923e
00000310: 550c 283f 6c6a 9abb ab28 75bf 6ebf c4be
00000320: 7c28 b13f c38a 7d3e 1200 173f b92a 563f
00000330: 4f82 7c3f 84a9 90bf 3785 913e ecae 0d3e
00000340: 905e 1e3e b89e ef3f 687d 8b3f 01af 923f
00000350: c8db 08bd 79ee c2be 1e74 e8bf 8001 153c
00000360: 9f44 a53f a99d 2740 28e9 24bf a978 e4bd
00000370: 92e6 d1be bfa5 ba3e df51 adbe f990 0dbf
00000380: 4dc0 4a3f 6acc 72bf bcf6 bdbc 2a96 583f
00000390: 595d 91bf d787 cdbf d3b7 503f 1b4f 36bf
000003a0: d962 3f3f d6f4 56be 68e2 7fc0 567b 9cbe
000003b0: e5d9 7f3d ef7a bfbe 6d0c 19bf 1559 c23d
000003c0: 4c04 1ebf ecf2 54bf df85 113f bfb4 d13e
000003d0: 505a a63f 9e7e f8bf 18d2 34c0 6fbd 79bf
000003e0: 6aa4 f5be 147a d1bd b585 c5be c83e 0bbe
000003f0: 0c5b bebf 22a5 13c0 3a3f dfbe 979f 603c
-0.18241459 -0.76956636 0.6129041 0.80784374 -0.33024442 0.2175261 0.19084981 1.7853229
-0.25156045 -1.7379323 -1.5928649 1.2327188 0.45833224 -0.15170553 -0.40031952 0.23726669
1.5449309 -0.03124039 0.80469704 0.09505711 0.21808377 0.5687058 0.49694702 -0.63123465
0.2702312 -0.7894328 -1.1740068 0.4307657 -0.18007186 0.32895318 0.08179372 1.4981467
0.012796119 -1.2237352 0.24057622 -0.31462303 -0.1970109 -0.3375554 0.75400585 -1.0154729
-0.6623668 -0.5913528 0.8179329 -0.51248926 -0.18611388 0.005687047 0.1804247 -1.8520095
-0.22960193 -0.7501391 -0.9693241 0.378722 -0.18277073 0.3673525 -0.0803888 -0.2876399
-1.4704062 -0.1757335 1.8494822 -0.2609915 0.101065904 -0.42571366 0.27806452 0.17612241
-0.536241 -0.26456487 0.1692432 0.5285707 1.1264284 0.16440013 -0.17687975 0.23439638
-0.32103223 0.3961623 0.5224331 0.07621994 -1.2131413 -0.09828711 0.3966111 0.47693604
-0.55072767 -0.34184995 -1.1206565 -0.21640386 -0.6972773 1.3168744 -0.7493274 -1.338964
-0.26869982 0.24837413 1.5582296 0.49898607 -0.4627411 0.024429038 0.2725482 -0.53571266
-1.1936356 -0.54394674 1.584859 0.28203592 -0.36592194 -0.090623766 0.6253962 -0.27638456
0.60261184 1.360308 -0.32406157 -0.83595914 0.1899221 1.6330676 -0.027488569 -0.34297904
-0.51026 0.20958336 -1.8307812 0.88190484 0.1759918 0.36927277 0.64914304 -0.5921713
0.65346617 -0.45889255 -0.76531494 -1.1781098 -0.0981969 -0.18414745 1.3646709 0.38099423
0.6735127 0.026918253 -0.66628224 -2.1402156 -3.4200888 -0.5557115 0.24313311 0.5688537
-0.19640234 1.3695595 -0.5602723 0.06726109 -1.386499 2.0312846 -0.39732933 -0.74038005
0.88035965 -0.16261645 0.06224127 1.434821 -0.48381054 -0.012441034 -1.0415608 -1.2346665
0.1261575 0.53145945 -0.2517951 -0.21331206 -0.22996674 -0.95919406 0.50645316 -1.0513656
-0.9775814 -0.61972296 0.74561095 0.020222053 0.58994985 -0.89522266 0.13303556 -0.32463402
0.68728507 -0.89329463 0.018595811 -0.33892056 -0.5196221 -1.080181 1.1280686 -0.057934918
-0.71481174 -0.41179344 -0.7711244 -0.40943012 -0.508118 -1.2334214 0.55885583 0.4453255
2.0315747 0.024310289 0.12927061 1.3545812 -0.642527 0.7994616 -0.4912685 0.19345532
-0.95276624 0.25995168 -0.079950474 0.28649178 0.6564382 -0.0047123935 -0.9576518 -0.384273
1.384048 0.24759965 0.5898448 0.8365894 0.98636335 -1.1301732 0.28421947 0.13836259
0.1546576 1.8720312 1.0897646 1.1459657 -0.033412725 -0.38072565 -1.8160436 0.009094596
1.2911566 2.6189978 -0.6441827 -0.111558266 -0.40996224 0.3645458 -0.33851525 -0.55299336
0.7919968 -0.9484316 -0.023188941 0.8460413 -1.1356612 -1.605708 0.81530493 -0.71214455
0.74760205 -0.20991835 -3.9981937 -0.30562848 0.06246366 -0.37398478 -0.59784585 0.09489647
-0.61725307 -0.8318317 0.56844896 0.4095821 1.2996311 -1.941364 -2.825323 -0.9755468
-0.47977 -0.10228363 -0.38578573 -0.13598168 -1.4871535 -2.306954 -0.43602926 0.013709924

fc3.bias f4 [128]
00000000: 2f0f 193e af06 b8bd 24ed 5abf 48c7 8e3f
00000010: 6d8e 01be b3ba 40bd 9b5d 06bd 0ae3 f8bd
00000020: 79a4 8ebf 9746 083a c4bc acbc ff16 1fbf
00000030: bde4 71bf ac36 09bf 26b3 4f3f b5f7 36be
00000040: 9df9 c33e ebfe aabd 4533 193f 4fff fabe
00000050: a0f0 7ebe 0a0c 1fbe c862 dcbb 6a3c c9bd
00000060: 7c6e a83c 6377 b7bc 7820 4abe ee23 21bc
00000070: 3203 a23d 8fa1 febe b08f cebd ef92 28be
00000080: 9171 833e ea7c 0fbe 7505 a6be 3473 9dbf
00000090: 4d5f 4bbf 1fa9 26bf 3ac8 21bf 1a97 73bf
000000a0: ed64 34bf ba2f d1bd 6476 7abf 0c45 74bf
000000b0: 3a2d 26bf aaba 2f3f 4cf4 55be c74a 253f
000000c0: 0ad5 5cbc 25df 64bd 9b76 afbd 0cc2 98bf
000000d0: 35a9 f93e b33a 7cbd 492d a83e 5ba3 d6bd
000000e0: 73fc a8bd 05bb 34bd 6254 cabe 6fa9 cc3e
000000f0: 851e dcbd e4c6 aabd 9fb7 37bd 4fa5 73bf
00000100: 4900 2dbf 511a b23e c750 0cbe 517c 273f
00000110: 87e8 06be cffb 353f cf26 00bf 17d1 30be
00000120: c327 c6be b3cd 64bf c5b0 aabc aa1c d1be
00000130: e1f3 ce3d e7fc 8fbd fcfa a1be 77e9 17bf
00000140: 03be 9a3f 51fb 9dbd c4bf 16bf 9980 57bf
00000150: c605 ea3e 904c b6bd 7854 44bf d816 5fbd
00000160: 70b1 d3be 09f4 60bd c682 2cbf 56cd 94bc
00000170: d972 0dbf da26 57bd d459 b9bf f621 2b3f
00000180: 749c 12bf 9c1b 23bf 086b 25be c446 efbd
00000190: c4f7 8ebd 3944 b43e de57 5bbf 2909 6dbe
000001a0: e1b0 fbbd 08eb 56bd 3209 aabe 6e99 06bf
000001b0: 6e4a 38bd 91e0 4bbf 2bcd be3e 1247 23bf
000001c0: e0b3 ab3e 601e 8abf 0ede 5a3f 8047 2a3c
000001d0: 2327 cd3e de70 e0be c213 0abf a1e7 68be
000001e0: aa9e 2fbf c65f 9abf e233 03be e3a8 853c
000001f0: 9c70 dfbd a3c3 21be a79f 20bf 9791 67bf
0.14947198 -0.0898565 -0.855181 1.1154566 -0.12651987 -0.04705305 -0.032804113 -0.12152679
-1.1143943 0.0005198507 -0.021086104 -0.62144464 -0.9448965 -0.5359905 0.81132734 -0.1786793
0.38276377 -0.08349403 0.59843856 -0.4902291 -0.24896479 -0.15531936 -0.006725643 -0.09825976
0.020560496 -0.022395795 -0.19738948 -0.009835226 0.07910766 -0.49732634 -0.10086 -0.164623
0.25672582 -0.14012495 -0.32426038 -1.2300782 -0.7944229 -0.6510181 -0.63196146 -0.9515244
-0.704665 -0.10214181 -0.978369 -0.9541786 -0.6491276 0.686442 -0.20893973 0.64567226
-0.013478527 -0.05587687 -0.08567544 -1.1934218 0.48761907 -0.061579417 0.3284705 -0.10480376
-0.08251276 -0.04412367 -0.39517504 0.39973018 -0.10748009 -0.083387166 -0.04485285 -0.95174116
-0.6757856 0.34785703 -0.13702689 0.65424067 -0.1317464 0.71087354 -0.5005922 -0.17267261
-0.3870221 -0.8937637 -0.020836243 -0.4084218 0.1010511 -0.07030659 -0.31636798 -0.59340614
1.2089237 -0.077139504 -0.5888636 -0.841806 0.4570753 -0.08901322 -0.7669139 -0.054465145
-0.41346312 -0.05492023 -0.67387044 -0.018164318 -0.5525337 -0.052527286 -1.4480538 0.66848695
-0.5726998 -0.63714004 -0.1615411 -0.11683419 -0.06980851 0.352083 -0.8568095 -0.23148026
-0.12289596 -0.052470237 -0.3321014 -0.52577865 -0.044992857 -0.79639536 0.37265906 -0.6378032
0.3353567 -1.079052 0.8549508 0.0103930235 0.4006892 -0.4383611 -0.539364 -0.2274461
-0.6860148 -1.2060478 -0.1281276 0.016315883 -0.109101504 -0.15797286 -0.6274361 -0.9045653

conv.weight f4 [64, 128, 1]
00000000: 2338 2bc0 32f7 aa39 4337 053c a860 ee3f
00000010: c15c 04be 0faf e9bb a796 233d 1b3d dd3d
00000020: 5d85 50bf 8a28 033c 109f b2bd 72e6 e0bc
00000030: fe62 9ebf 56ea 6fbc 7c68 803f e223 e73e
00000040: c7f1 333f c018 0d3c 55f3 6a3e 47cb ae3f
00000050: cb14 55bc 062d 0c3f a5e4 56bd cc0c ffbc
00000060: 0043 813f 5b0b db3d d11c c93e a9d1 fa3e
00000070: c840 0a3f d0fd 0abf 266e e73f 12a2 ce3f
00000080: d323 4d3e b7ae 263d c5f8 37bf 32f2 0640
00000090: 3148 3abf 3e4d 6cbb 74d7 633d 431f b0bf
000000a0: 5321 5cbd 84f1 abbd 75aa fbbf 4304 04c0
000000b0: be10 ef3a 322d c5bf ea27 263f d439 4e3e
000000c0: 0132 debd 1f09 5abc 43d0 88bd 0ebc 63c0
000000d0: beec 0abd 5837 4cbd 7a4d 0140 72a0 b93c
000000e0: b0bd 20bd a93a b13d 98dc 1a3e d2f7 533f
000000f0: cc13 123c ea3b af3c 3103 ae3c f73f 46bf
00000100: 2502 813d 6714 5c3f 3e78 293f a2ce 51bf
00000110: 9509 623f ab64 3d3e 89eb 813f e9e0 193b
00000120: 585d 00be 2da0 b8be 8758 403d 561f 88c0
00000130: a89f 1ab9 59d7 d9bc f0ee 393e 0b1c 503f
00000140: 3a23 32bf 1ae5 6b3d 34e6 a0bf e791 1f3f
00000150: b79b 43bf da27 02bd c5d6 8abc f478 ea3d
00000160: e030 47bd 612b 673d 6c56 26be 758b 79bd
00000170: 7390 1dbd cc4b da3d 9642 af3f 71cf 653e
00000180: bb94 75bc 65be 39bd 062d 613d 8b37 18bd
00000190: 3892 0a3d 604b c93e 8024 dcbf 1e7e 7a3f
000001a0: c235 303d 51ca d13d a7e7 3a3f 9c29 39bb
000001b0: e220 433c ad11 36bd c09e 70bf 9ba9 07bd
000001c0: 689b f23d 251e a7bd 99cb d23f 7ba8 463e
000001d0: 1d0c 293e 6f25 f23f fb0d 223e e26f b7be
000001e0: 2c34 43bf ab83 0ec0 6cd4 d03d 5829 6d3f
000001f0: 8580 583c 6c8e d93d 2502 f2bc c760 813c
00000200: cad5 04c0 a6cd 7f3c 4ba6 0ebe e71f d53f
00000210: d4c4 c3bd 9d70 ba3c 75d6 d9bb 7e87 03bd
00000220: 2f12 c2bf 8802 d3bc 9bb8 f63c db40 2b3c
00000230: 3d18 ccbf 0db5 43bd 32c7 893f 9a92 ce3e
00000240: cc05 483f e86d 43bb a1ab 943e 090f a93f
00000250: f699 063e e1ba 443f ec36 4b3d b0c3 a43d
00000260: ff9d 9b3f 2d9c e7bc a58f 863e a61a f73e
00000270: 1d7b 503f 333b 49bf d353 f83f aab0 d73f
00000280: 7199 073d d2e1 e3bc d670 ebbe f800 ad3f
00000290: 6467 95bf fd6a 9c3d e4b7 d63c 295c f3bf
000002a0: b59b 2bbd 1082 2c3c fbc1 d7bf 3bd0 11c0
000002b0: 8d3b 16bd 0a84 7cbf 1e0d 253f a986 f43e
000002c0: c1f0 2fbd e2ed febc 7043 133d 49ad 40c0
000002d0: 85c8 2a3e 5c27 f4bd 1c54 0240 ba61 963d
000002e0: a4c8 18bd 4c12 1c3d db68 1fbe 43cd 5d3f
000002f0: b7c7 0cbb 9cd7 513d 3cb7 aa3c 87ba 57bf
00000300: 6d47 7bbc 397b 8c3f a085 f33e de3b 1ebe
00000310: e6ce 8a3f fa76 db3e 6aaf 9f3f 83a0 2abe
00000320: b358 12bf 1928 5cbf dd0e 78bd 4a38 a7c0
00000330: 73d9 6a3d 1794 673d 94d4 72be 0c85 19be
00000340: 5452 523e e69c 5c3d 3aff 93bf 3ab3 143f
00000350: fccf 1f3f a75e 6c3c 9a66 d9bd 1055 c0bc
00000360: f004 f5bc eb2f 8a3c 2807 28be 1567 a0bc
00000370: 9f8d 7a3d ba98 043c a897 383e 7151 8c3e
00000380: d151 a23c 71c8 853d 4484 e6bb b83d 0b3f
00000390: e1ce f9bb 109e d73e 2385 fbbf 799d d33f
000003a0: aff6 b73d 96c9 173d 7401 523f 9080 b8bd
000003b0: 077e 563d 1109 ff3c 86e1 f1be fa56 743d
000003c0: 29a5 a83e 61d6 96bd 5c7c db3f 3c3c 73bf
000003d0: 5f5a 2d3e 1146 0a40 dd5a 91bd f3bd 45be
000003e0: 61d6 a83c da0e 12c0 3559 33bd 5066 0e3f
000003f0: 35c1 863c 9c07 c1bc 7e47 5fbd e269 b9be
-2.6753013 0.00032609102 0.008130851 1.8623247 -0.12926008 -0.0071314643 0.039938595 0.108026706
-0.81453496 0.008005271 -0.08721745 -0.027453635 -1.237396 -0.014643272 1.0031886 0.45144564
0.702908 0.008611858 0.22944386 1.3655785 -0.013005446 0.547562 -0.052464146 -0.031134032
1.0098572 0.10695525 0.39279798 0.48988083 0.540051 -0.5429354 1.808049 1.614321
0.20033197 0.040693965 -0.7186397 2.1085324 -0.72766405 -0.0036056782 0.055625394 -1.375954
-0.053742718 -0.08395675 -1.9661394 -2.06276 0.0018239242 -1.5404418 0.64904654 0.20139247
-0.10849381 -0.013307839 -0.06680348 -3.558353 -0.03391718 -0.049857467 2.0203538 0.022659514
-0.0392434 0.08653767 0.15123212 0.8280002 0.008915853 0.021390874 0.021241756 -0.7744135
0.06299237 0.8596863 0.661991 -0.8195592 0.8829587 0.18495433 1.0150005 0.0023480004
-0.12535608 -0.36059704 0.046959426 -4.253825 -0.00014746061 -0.026591944 0.18157554 0.8129279
-0.69585 0.057591535 -1.2570252 0.62332004 -0.76409477 -0.031776287 -0.016948113 0.11448851
-0.048630595 0.056437854 -0.16243905 -0.060924012 -0.038467836 0.10658988 1.3692195 0.22442414
-0.014989073 -0.04534759 0.05497458 -0.037162345 0.03383085 0.3931532 -1.7198639 0.9784869
0.043020017 0.10243667 0.73009723 -0.002825356 0.011909695 -0.04445045 -0.93992233 -0.033120733
0.11846048 -0.081600465 1.6468383 0.19400208 0.16508527 1.8917674 0.15825646 -0.35827547
-0.7625148 -2.2267864 0.10196766 0.9264121 0.013214235 0.10622868 -0.029542038 0.015793217
-2.0755486 0.015612995 -0.13930623 1.6650361 -0.09559026 0.022758776 -0.0066478797 -0.032111637
-1.5161799 -0.025758043 0.030117324 0.0104524745 -1.5944897 -0.047780085 1.0763915 0.40346223
0.78133845 -0.0029820148 0.29037192 1.3207713 0.13144669 0.76847655 0.049612924 0.08045137
1.2157592 -0.028272713 0.26281467 0.4826252 0.81437856 -0.78605956 1.9400581 1.6850789
0.033105318 -0.02781764 -0.45984524 1.3515921 -1.1672177 0.07637594 0.026210733 -1.90125
-0.04189654 0.010529056 -1.6856073 -2.2783344 -0.036677886 -0.98638976 0.6447314 0.47758988
-0.04295421 -0.03111929 0.035952985 -3.0105765 0.16678055 -0.1192157 2.0363836 0.073428586
-0.03730072 0.038103387 -0.15567343 0.8664133 -0.0021481344 0.05123101 0.020839326 -0.84268993
-0.015336853 1.0975105 0.47562885 -0.15452525 1.084439 0.4286421 1.2475407 -0.16662793
-0.57166594 -0.85998684 -0.06056105 -5.225621 0.057336282 0.056537714 -0.23713905 -0.1499216
0.20539218 0.053860568 -1.1562264 0.5808598 0.62426734 0.014426864 -0.10615273 -0.023478061
-0.029909581 0.016868552 -0.1640898 -0.019580403 0.061170217 0.0080930535 0.18026602 0.27405885
0.019814404 0.06532372 -0.0070348103 0.5439105 -0.007623539 0.4211278 -1.9650005 1.6532432
0.08982598 0.03705748 0.8203347 -0.09008896 0.052366283 0.031132253 -0.47242373 0.05965326
0.32938507 -0.07365108 1.7147326 -0.95013785 0.16929005 2.1605265 -0.07097409 -0.19310741
0.020610036 -2.2821565 -0.043786246 0.55624866 0.01644955 -0.023563199 -0.05451154 -0.36213595

conv.bias f4 [64]
00000000: ff62 b23f dd2b da3f 6a83 6b3f fa2f 5cbf
00000010: 4e87 cb3e 75a3 84bf b702 51bf 58b6 65bf
00000020: 8962 b4bf b7a4 733f 2f3a 523f 24dc d53f
00000030: bab2 8f3f 817c 803f 09d8 95bf c485 583f
00000040: 9a6b 6bbf 2814 0c3f 5f61 8fbf 33e6 8c3f
00000050: c959 cc3f 43c1 4f3f b3cd f73f c8c2 bcbf
00000060: 3c98 a5bf 50a9 4a3f c40b cabf 05c6 cb3f
00000070: c8f0 88bf e5be cebf 037e 2ebf bd7b 83bf
00000080: 3889 8f3f b088 99bf 48d5 75bf c0d1 be3f
00000090: 0cf5 e9bf 144b a13f 2e92 c0bf 817d c1bf
000000a0: bf0a da3f 90c5 ed3f f74c 963f 3ce8 dfbf
000000b0: 9afd 88bf 2065 0040 c34e cbbf 448b da3e
000000c0: bcab 153f 632d b1be 1364 90bf e4fb 64bf
000000d0: 6b2a 43bf e2dd 6d3f 8e23 9fbf b31a 4a3f
000000e0: ab1c a3bf 7b23 7bbf b92e d63f a8e6 3bbf
000000f0: 6bf1 65bf ea66 e33f f80e 58bf ec77 94bf
1.3936461 1.7044636 0.91997397 -0.86010706 0.39751667 -1.0362383 -0.8164477 -0.8973136
-1.409257 0.9517321 0.8212003 1.6707807 1.1226418 1.0037996 -1.1706554 0.8457911
-0.9196106 0.54718256 -1.120159 1.1007751 1.59649 0.8115427 1.935965 -1.4746943
-1.2937083 0.791646 -1.578484 1.5919806 -1.0698481 -1.6152006 -0.6816103 -1.0272137
1.1213751 -1.1994839 -0.96028566 1.4907761 -1.8277907 1.2601037 -1.504461 -1.5116426
1.703453 1.8575916 1.1742238 -1.7492747 -1.0702393 2.0061722 -1.5883411 0.42684376
0.5846517 -0.3460494 -1.128054 -0.89446855 -0.762366 0.9291669 -1.2432725 0.7894699
-1.2743124 -0.98101014 1.6733009 -0.7339883 -0.898215 1.7765782 -0.8439784 -1.1599097

fc4.weight f4 [32, 64]
00000000: dbdc 333d 3cea d1be 4eee d63d 117e 0bbe
00000010: f0c0 00be fce1 7fbe ef95 923d 7ac7 5ebd
00000020: 20a8 76bd 5ddc 64bc c563 593e 094a a1be
00000030: d381 4b3e 0f29 8e3e f5fd 8dbe f061 ce3e
00000040: 7535 8bbc 2ce1 cb3b ba3d 0ebc e0af 713c
00000050: 876d 1abe 31bd e53d 96c0 f5be 0934 003c
00000060: 6fd4 453d f6b4 253e d2c8 c63d 3973 acbe
00000070: 54f5 80be 3395 443e 4637 c1bd c156 28be
00000080: 6634 91bb 02b3 353d 636b b6be f6c5 20be
00000090: d35c c83d 0599 113e af56 61bd 183f 8b3e
000000a0: 1a2a 32bd fa48 f9be 8b3e 173d c4b4 8e3e
000000b0: c7cf 703d 1213 b0be c7a6 b23d f699 87bd
000000c0: 9914 d93e e5a6 023e 8092 7bbe 57f4 4fbc
000000d0: 58ad 213e 64f2 0c3e b39f 25be 934e 133e
000000e0: 5534 f53d d574 9e3c a62c c8bd 1947 223e
000000f0: 1edc b7bd f273 67be 5a9c 533e d4d0 13be
00000100: b6df a1bf 827b 2cbf d06c 42bf f81e 853f
00000110: 31ec 10bf ddb1 b33e cda4 e33e 3ca5 393f
00000120: 59f7 0a3f 334f 2ebf df53 05bf b428 49bf
00000130: 0239 55bf da11 fabe 35b1 a23e 54d0 12bf
00000140: ae8c 763f 0e09 5ebf 7e30 803f 2133 1bbf
00000150: 42ac 54bf 8636 4abf bbb1 4fbf 7130 893f
00000160: 71a8 313f 9241 e2be d762 e23f f6af 1bbf
00000170: 3c18 d63f 8ac3 133f 5b02 0e3f ea65 b33e
00000180: bae8 90bf 23c6 553f 1981 643f c548 6abf
00000190: 9650 ab3f 81f5 8dbf 4308 f13f 1918 fe3e
000001a0: d4ce fabf ddd7 32bf f6f5 bbbe 6680 f53f
000001b0: f8a5 523f ccfe 29bf 788e a73f 4063 44bf
000001c0: eb8d 07bf 7faa 183f 5aa9 283f 9ede 3c3f
000001d0: b69e 303f 215c 36bf 37b2 3b3f cc7e b8bf
000001e0: 618c 493f dae7 853f 6862 dabf 4c82 053f
000001f0: 013d 163f e922 90bf be73 1d3f 9175 c93f
00000200: f2e6 3dbe 2664 45bf 4415 fbbe a618 07bf
00000210: e51f 75bf 4fda 22bf e7c1 2b3f 9d75 d23e
00000220: fbbe efbb 11be eebe df44 1c3f 751d 1dbf
00000230: 274a d73d 1df9 c33e f876 dcbe ded3 233f
00000240: 25c0 b33e 7107 20bf 8359 bbbe d7aa b23d
00000250: 9eb3 d0be 34ca 4fbe cb3d d9bf 208c 163e
00000260: a2cc 133f 47e8 f53e e492 063f c7ba 4a3e
00000270: a55f a1be 533a 6ebc 8efa 213f 6d03 e6be
00000280: 698f 27bf 970e 773e 8a02 23bf 1c71 04bf
00000290: 4c47 5d3f 5c7b e83c b6ee e73e be32 12be
000002a0: 9662 12bf d1c9 e9bf df98 79be b5df 2d3f
000002b0: 8407 873e 0aa4 dfbf 1e07 4c3f 92e0 63bf
000002c0: 18fd 4b3f ae29 333f e8c0 bbbe a0fc 9c3d
000002d0: 5e47 153f 9fe1 1d3e cea2 32be 4b45 1a3f
000002e0: 61ca 0b3f a8c7 313f 176f 00bf f221 fa3e
000002f0: 99ae 9dbe 3f08 f2be 366d 003f 1089 bfbe
00000300: 8ca5 233e db7f bc3e 1a1d 893e 7dd2 50be
00000310: 4a91 013e 5b4e 9cbe 8bb7 f7bd 1dff 6fbe
00000320: 4777 a9be 59c8 c63d c2dd 783e aec0 473e
00000330: 331b 7b3e b3b4 143e c6e0 88be 169a 1b3e
00000340: f040 adbe b638 933e 74b3 70be c002 693e
00000350: 212c 8f3e cf49 8d3e cdc0 e03e 7d43 a8be
00000360: 0c58 85be f9b3 0a3e 2fdf 9abe 0a4d c83e
00000370: 9099 37be 197b c1be 139d 98bd 58c5 4cbe
00000380: 3449 0b3e f6e4 6dbe 44dd 37be 3daa 233e
00000390: df34 4fbe d562 c03e 84d4 10be 59a1 2ebe
000003a0: 3aa6 7d3e 6440 a33e 30c9 df3d b909 abbe
000003b0: cf68 a1be 1c9c 953e 6ffd a1be fdc4 113e
000003c0: c7c8 4d3e caf9 3fbe 02aa 65be 4a95 9ebe
000003d0: a967 9fbe d0fb 7f3e 35b6 6ebe e2f5 223e
000003e0: aedc 4bbe 48ff a8bd eca1 3a3e 91b9 39be
000003f0: 169a e1bd a909 b23e 83b1 85be 80c3 06be
0.043911796 -0.4099902 0.10494672 -0.1362231 -0.125736 -0.2498855 0.07157504 -0.054389454
-0.06021893 -0.013968554 0.21229465 -0.31501797 0.19873743 0.277657 -0.27732816 0.40309095
-0.016993264 0.006221911 -0.008681709 0.0147514045 -0.15080844 0.11217726 -0.47998494 0.007824906
0.048298296 0.16182312 0.09706272 -0.33681658 -0.2518717 0.1919754 -0.09434371 -0.16439344
-0.004431295 0.04436017 -0.35628805 -0.15700516 0.0978333 0.14218529 -0.05501431 0.27196574
-0.043497182 -0.4868849 0.03692488 0.27872288 0.058791902 -0.3438955 0.087232165 -0.066211626
0.42398527 0.12758978 -0.24567604 -0.0126925325 0.15788782 0.1376434 -0.16174202 0.14385442
0.11972872 0.01934282 -0.09774141 0.15847434 -0.08977531 -0.22602823 0.20665112 -0.1443513
-1.2646396 -0.6737596 -0.75947285 1.0400076 -0.566104 0.35096636 0.4446167 0.7251775
0.5428367 -0.680896 -0.520811 -0.78577733 -0.8329011 -0.48841745 0.31775823 -0.57349133
0.9630841 -0.86732566 1.0014799 -0.6062489 -0.83075345 -0.78989446 -0.8113057 1.0717908
0.69397646 -0.4419065 1.7686414 -0.6081537 1.6726146 0.57720244 0.55472344 0.35038692
-1.1321023 0.8350546 0.8925949 -0.9151729 1.3383968 -1.1090547 1.8830646 0.4962776
-1.9594369 -0.6986063 -0.3671109 1.9179809 0.822845 -0.66404414 1.3090353 -0.76713943
-0.52950925 0.59635156 0.6588341 0.73777187 0.68992174 -0.7123433 0.7331881 -1.4413695
0.78729826 1.046138 -1.7061281 0.5215194 0.58686835 -1.1260654 0.61504734 1.5739003
-0.1854513 -0.7710594 -0.49039662 -0.52771986 -0.9575179 -0.6361436 0.67092746 0.41105357
-0.007316468 -0.46629384 0.6104259 -0.6137307 0.1051219 0.38275996 -0.43059516 0.6399516
0.35107532 -0.62511355 -0.3659173 0.08723991 -0.40762037 -0.20291978 -1.6971983 0.14701891
0.5773412 0.48028776 0.5256789 0.19797812 -0.31518283 -0.014540273 0.6327294 -0.4492449
-0.654532 0.2412666 -0.6367575 -0.5173509 0.86436915 0.028379135 0.4529931 -0.14277169
-0.5718168 -1.8264714 -0.24374722 0.67919475 0.2637292 -1.7471936 0.7969836 -0.8901454
0.79683065 0.69985473 -0.36670613 0.07665372 0.5831202 0.15418099 -0.17444918 0.6026198
0.5460568 0.69445276 -0.5016951 0.48854023 -0.3079727 -0.47271916 0.5016664 -0.37409258
0.1598112 0.36816296 0.26780015 -0.20392795 0.1265308 -0.3052853 -0.12095555 -0.23437162
-0.33098814 0.09706182 0.24303344 0.19507095 0.24522094 0.14522056 -0.2673399 0.15195498
-0.33838606 0.28754205 -0.23505956 0.22754955 0.27963355 0.27595374 0.43897095 -0.3286399
-0.26043737 0.13545217 -0.302484 0.39121276 -0.17929673 -0.3778923 -0.074518345 -0.19997156
0.13602144 -0.23231873 -0.179555 0.1598291 -0.20235012 0.37575403 -0.14143568 -0.17053737
0.24770442 0.31885064 0.10927045 -0.33405855 -0.31525275 0.29220665 -0.31638667 0.14235301
0.20096122 -0.1874763 -0.22428134 -0.30973274 -0.31133774 0.24998403 -0.23311694 0.1591411
-0.19908401 -0.08251816 0.18225831 -0.18137194 -0.11015718 0.34772995 -0.26111993 -0.13160515

fc4.bias f4 [32]
00000000: 362f f6bf 2ce5 4c3f 5223 2dc0 5bf2 0d40
00000010: 8716 0f40 da13 a1bf bac8 abbf 6f55 1240
00000020: 4e9d 0840 dcbf 1e40 ce27 1040 057f 0a40
00000030: b825 2840 3283 b4bf 326b b6bf 26e7 0d40
00000040: 119c e13f 0bb8 26c0 014f e23f 218d 0b40
00000050: c08a 0740 15e6 8abe fa23 1540 bc17 27c0
00000060: 2d69 2040 1442 42c0 6a70 0c40 e6af 0940
00000070: 51de 4540 2d2d 1d40 d455 0140 3493 603e
-1.9233158 0.8003719 -2.7052808 2.2179172 2.23575 -1.2584183 -1.3420632 2.2864645
2.134601 2.4804602 2.2524295 2.1640027 2.6273022 -1.4102538 -1.4251463 2.2172332
1.7625753 -2.604983 1.768036 2.1804888 2.1178436 -0.27128664 2.3303208 -2.6108236
2.5064194 -3.035283 2.1943612 2.151361 3.091694 2.4558823 2.0208635 0.21931154

fc5.weight f4 [16, 32]
00000000: 5f3e ee3d fcbf 5a3f a09b ebbe 4f1d d9bf
00000010: 339a 00bf 1d2e ddbe 3cdd f9be 1fe1 6abf
00000020: 1949 adbf fdbd a7bf 53e3 63bf 1a7d 4bbf
00000030: 9d3a fabe e95a 87be 5013 aebf 030d 6abd
00000040: 0580 9c3e 58b1 64be 65c0 9fbe 4511 60bf
00000050: 1dc4 32bf d9ec 8ebf df67 c9bf 6d62 17be
00000060: 5fc7 cfbf 77e0 9cbe 43a9 53bf 108d cdbf
00000070: 98a0 313d ca48 543e f612 55bf 05bc 85bf
00000080: 3dfe 92bd 47de 87bf ce39 783e 76c0 aa3e
00000090: d210 e33e e92b 1c3f d47e 603f 72be ff3e
000000a0: 03df 8a3e 2829 663e 1848 b73e 226b 523e
000000b0: 3eb7 35bf 1456 883f 5883 033f ff30 8b3f
000000c0: e438 623f 119b f13e e6aa 933e 35c5 e33e
000000d0: 12a6 033f 909e 2f3f 5d53 0b3f a4e1 ce3e
000000e0: 9231 773e 0b87 a43e 8f3f a83e afe9 113f
000000f0: 2296 b93f 4f76 ab3f 2d43 e93e 7bb1 723f
00000100: b611 fdbd 8886 87bf b7fc e23e 91aa e4be
00000110: 62cf 60be 0378 4c3f 2b79 423f 2b3e c0be
00000120: 7c79 7ebe 6223 adbe 6b0e 92be d3a2 00bf
00000130: bb74 9a3f 53bb 3e3f dd87 183f 397d 843f
00000140: 7bd6 593f 78cf fe3e 7643 acbe 0e29 cabe
00000150: 96e8 e6be ecee 7e3f d6e8 d3be 3b61 283f
00000160: 146f aabe 89ab 593e 5416 f6be ff0e c8be
00000170: 91de d33f 76a5 cf3f 4311 e5be d149 833f
00000180: 1e31 6bbd 11c8 48bf dba4 a83e fa97 c13e
00000190: 5ba6 a93e a4fe 3d3f 7f18 413f c60d a33e
000001a0: 3e5f 9d3e 6749 9f3e dd5c 373e d08b b23e
000001b0: a835 06bf b9a1 663f eff2 043f 950d 8c3f
000001c0: 4a2d fb3e 6430 b43e 937d 503e bab4 973e
000001d0: ee28 ef3e d706 2f3f a653 d13e ff8a e03e
000001e0: 5146 bf3d d139 303e 3755 a13e c610 033f
000001f0: 2e81 b03f 861d 953f a1bb d73e 28a3 3f3f
00000200: 391e 2fbd 0221 a8bf f29a dc3d 7655 913e
00000210: b2e0 8c3e 4810 333e 8d7d 793e 4767 913e
00000220: 4576 1b3e 2807 023f 19c5 943e 593b dc3e
00000230: d73b 34bf 1715 133f fe9d 153f 1b3f 813f
00000240: aeaf 583f 149f c23d 2093 943e 927f 8c3e
00000250: a37b a73e 4a1d 353f 2780 053f 5e7b 163e
00000260: 2928 bd3e 9437 eb3b ccbe d33e 01ad c53e
00000270: 0cf4 c43f 4429 ab3f aad1 d13e b63a 5e3f
00000280: 4a34 0cbe a301 08be 41e8 803f 724c abbf
00000290: 267a a4bf 4a98 463f 0c7e 443f 90c1 b0bf
000002a0: be1e 86bf 6c7d 92bf c357 96bf a08b 99bf
000002b0: c806 b4bf a65f 2e3f 2ce8 98be 0501 38c0
000002c0: f8ed 8bbf bd0c 963f 3523 a0bf cf0f 90bf
000002d0: 2bb9 97bf 9259 99be 9b42 9cbf 59a1 4c3f
000002e0: b953 96bf 3016 103f 1a00 79bf 3f4c acbf
000002f0: 36bc fabf e530 eabf 64d9 aabf 130d b6be
00000300: b98d 9bbe ef91 1c3f c82b 33bd 3a2a 283f
00000310: 36d1 41be de98 8f3f 5c22 733f de27 7a3e
00000320: 119e a1bd 01e6 87bd 0fe1 35be 2f56 08be
00000330: 3c11 35c0 86f7 633f a945 b4bf d3a0 2ac0
00000340: 4bf6 83bf 7b01 49be 2146 6cbf bf93 1abe
00000350: 8eb4 1dbf a6ca 83bf e9b6 163f 2c24 9ebe
00000360: 7e73 093e c299 f9be 6eb7 cbbd 9090 03be
00000370: 604f 1cc0 fb94 13c0 d23f 0dbf 0539 9cbf
00000380: d017 e33d 25aa 2abf bdd1 ca3e d1ad 813d
00000390: 3a86 9f3e 923e 183f 02d5 4e3f fb8f 683d
000003a0: 344d 693e 8114 a03e b7d6 f73d ce58 6c3e
000003b0: cf9e a9be 9b77 8c3f 2848 123f 85e0 743f
000003c0: eaad 0c3f 552c fc3e bf7f bcbd a8c4 133d
000003d0: da3a 783e 18bd 523f 9167 133e 3c5d 233f
000003e0: 5e8e 9e3d 75a2 d23e 0702 803e cb97 9c3e
000003f0: 3a4b ca3f 6e51 a33f 7bed cc3c feba 823f
0.1163299 0.85449195 -0.4601717 -1.6962069 -0.5023529 -0.43199244 -0.488016 -0.9174976
-1.3537933 -1.3104855 -0.89018744 -0.79487765 -0.48872843 -0.26436546 -1.3599644 -0.057141315
0.3056642 -0.22333276 -0.31201473 -0.8752635 -0.69830495 -1.116603 -1.5734824 -0.1478364
-1.6232718 -0.30640003 -0.8268015 -1.6058674 0.043366045 0.20730892 -0.8323206 -1.0448004
-0.07177398 -1.0614709 0.242408 0.3334996 0.4434877 0.610045 0.87693524 0.49949986
0.2712327 0.22476637 0.3579719 0.2054868 -0.7098273 1.0651269 0.5137229 1.0874327
0.8836806 0.4718862 0.28841323 0.44486395 0.5142528 0.6860132 0.5442408 0.40406525
0.24140003 0.3213428 0.3286099 0.569972 1.4498942 1.339548 0.45559064 0.94802064
-0.12356894 -1.0587931 0.4433343 -0.44661382 -0.2195411 0.79870623 0.7596614 -0.3754743
-0.2485103 -0.33816057 -0.28526625 -0.5024845 1.2066873 0.74504584 0.5958231 1.0350715
0.85092896 0.4976766 -0.3364522 -0.39484447 -0.45099324 0.99583316 -0.41388577 0.6577336
-0.3328787 0.21256842 -0.4806391 -0.3907394 1.6552297 1.622237 -0.44739732 1.0256902
-0.05741989 -0.7843028 0.32938275 0.3781126 0.33134732 0.74216676 0.75428003 0.31846446
0.30736727 0.3111069 0.17906518 0.34872293 -0.5242562 0.9009052 0.5193319 1.0941645
0.4905799 0.3519317 0.20360403 0.2963007 0.46710914 0.6836981 0.4088413 0.43856046
0.09339584 0.17209555 0.31510326 0.5119747 1.3789423 1.1649635 0.42135337 0.7485833
-0.042753432 -1.3135073 0.10771741 0.28385514 0.2751518 0.1748668 0.243643 0.28399107
0.15181835 0.5079217 0.29056624 0.4301403 -0.7040381 0.57454056 0.584442 1.0097383
0.84643066 0.09502998 0.29018497 0.27441078 0.32711515 0.70747817 0.5214867 0.14695498
0.36944702 0.0071782563 0.41356504 0.38608554 1.5386977 1.3371968 0.40980273 0.86808336
-0.13691822 -0.13281874 1.0070878 -1.3382704 -1.2849777 0.77576125 0.7675483 -1.380907
-1.0478132 -1.1444526 -1.1745533 -1.1995735 -1.406457 0.681147 -0.29864633 -2.8750622
-1.0931997 1.1722637 -1.2510744 -1.1254824 -1.1853384 -0.2995115 -1.2207826 0.79933697
-1.17443 0.56283855 -0.9726578 -1.3460768 -1.9588687 -1.8296171 -1.3347592 -0.3555685
-0.30381563 0.61160177 -0.043742925 0.6568943 -0.18927464 1.1218526 0.94974303 0.2442927
-0.07891477 -0.06635667 -0.17761634 -0.13314126 -2.829177 0.89049566 -1.4083759 -2.666066
-1.0309538 -0.19629471 -0.9229451 -0.15095423 -0.6160363 -1.0296218 0.5887285 -0.30886972
0.13422963 -0.4875012 -0.09947096 -0.12848115 -2.4423447 -2.305968 -0.5517551 -1.2204901
0.11088526 -0.6666587 0.39613143 0.06331981 0.31157094 0.59470475 0.80793774 0.056777935
0.22783357 0.31265643 0.121015005 0.23080751 -0.33128974 1.0974001 0.5714135 0.9565509
0.5495287 0.49252573 -0.09204053 0.036076218 0.242412 0.82319784 0.14394976 0.6381414
0.07741998 0.4113957 0.25001547 0.3058456 1.5804207 1.2759225 0.025015583 1.0213315

fc5.bias f4 [16]
00000000: 83b2 623e 5e4d 1f40 d2dc e13f f0c8 2540
00000010: ebc7 2440 96d6 febe 7a6a 4f40 1329 1840
00000020: 639c 1540 6dc1 0f40 8142 2640 cd88 893f
00000030: 8d51 9b3f c3aa 0240 990b 34bc b2af 1d40
0.2213841 2.489097 1.7645514 2.5903893 2.574702 -0.4977309 3.2408738 2.377507
2.33767 2.2461808 2.597809 1.0744873 1.2134262 2.0416725 -0.010989093 2.4638486

output.weight f4 [1, 16]
00000000: 6659 febe 1a5a dd3e 1df9 8d3e 824d c23e
00000010: 4883 d53e 171f 123f 83aa c53f 6075 2c3e
00000020: d399 5f3e 3043 243e 3779 093f dda4 af3f
00000030: 87bd a4bc 1300 203e 3a96 0ebf 4df4 c13e
-0.4967758 0.43232805 0.2772912 0.3794976 0.41701722 0.5707869 1.5442661 0.1684165
0.21836023 0.16041255 0.53700584 1.3722187 -0.020109905 0.15625028 -0.5569798 0.378817
